____________________________________________________________________________________________________
Layer (type)                     Output Shape          Param #     Connected to                     
====================================================================================================
input_1 (InputLayer)             (None, 28, 28, 3)     0                                            
____________________________________________________________________________________________________
conv2d_1 (Conv2D)                (None, 28, 28, 64)    192         input_1[0][0]                    
____________________________________________________________________________________________________
batch_normalization_1 (BatchNorm (None, 28, 28, 64)    256         conv2d_1[0][0]                   
____________________________________________________________________________________________________
elu_1 (ELU)                      (None, 28, 28, 64)    0           batch_normalization_1[0][0]      
____________________________________________________________________________________________________
conv2d_2 (Conv2D)                (None, 28, 28, 64)    36864       elu_1[0][0]                      
____________________________________________________________________________________________________
batch_normalization_2 (BatchNorm (None, 28, 28, 64)    256         conv2d_2[0][0]                   
____________________________________________________________________________________________________
elu_2 (ELU)                      (None, 28, 28, 64)    0           batch_normalization_2[0][0]      
____________________________________________________________________________________________________
conv2d_3 (Conv2D)                (None, 28, 28, 64)    36864       elu_2[0][0]                      
____________________________________________________________________________________________________
batch_normalization_3 (BatchNorm (None, 28, 28, 64)    256         conv2d_3[0][0]                   
____________________________________________________________________________________________________
elu_3 (ELU)                      (None, 28, 28, 64)    0           batch_normalization_3[0][0]      
____________________________________________________________________________________________________
conv2d_4 (Conv2D)                (None, 28, 28, 64)    36864       elu_3[0][0]                      
____________________________________________________________________________________________________
batch_normalization_4 (BatchNorm (None, 28, 28, 64)    256         conv2d_4[0][0]                   
____________________________________________________________________________________________________
elu_4 (ELU)                      (None, 28, 28, 64)    0           batch_normalization_4[0][0]      
____________________________________________________________________________________________________
concatenate_1 (Concatenate)      (None, 28, 28, 256)   0           elu_1[0][0]                      
                                                                   elu_2[0][0]                      
                                                                   elu_3[0][0]                      
                                                                   elu_4[0][0]                      
____________________________________________________________________________________________________
conv2d_5 (Conv2D)                (None, 28, 28, 128)   32768       concatenate_1[0][0]              
____________________________________________________________________________________________________
batch_normalization_5 (BatchNorm (None, 28, 28, 128)   512         conv2d_5[0][0]                   
____________________________________________________________________________________________________
elu_5 (ELU)                      (None, 28, 28, 128)   0           batch_normalization_5[0][0]      
____________________________________________________________________________________________________
conv2d_6 (Conv2D)                (None, 14, 14, 128)   147456      elu_5[0][0]                      
____________________________________________________________________________________________________
batch_normalization_6 (BatchNorm (None, 14, 14, 128)   512         conv2d_6[0][0]                   
____________________________________________________________________________________________________
max_pooling2d_1 (MaxPooling2D)   (None, 14, 14, 128)   0           elu_5[0][0]                      
____________________________________________________________________________________________________
elu_6 (ELU)                      (None, 14, 14, 128)   0           batch_normalization_6[0][0]      
____________________________________________________________________________________________________
concatenate_2 (Concatenate)      (None, 14, 14, 256)   0           max_pooling2d_1[0][0]            
                                                                   elu_6[0][0]                      
____________________________________________________________________________________________________
conv2d_7 (Conv2D)                (None, 14, 14, 128)   32768       concatenate_2[0][0]              
____________________________________________________________________________________________________
batch_normalization_7 (BatchNorm (None, 14, 14, 128)   512         conv2d_7[0][0]                   
____________________________________________________________________________________________________
elu_7 (ELU)                      (None, 14, 14, 128)   0           batch_normalization_7[0][0]      
____________________________________________________________________________________________________
conv2d_8 (Conv2D)                (None, 14, 14, 128)   147456      elu_7[0][0]                      
____________________________________________________________________________________________________
batch_normalization_8 (BatchNorm (None, 14, 14, 128)   512         conv2d_8[0][0]                   
____________________________________________________________________________________________________
elu_8 (ELU)                      (None, 14, 14, 128)   0           batch_normalization_8[0][0]      
____________________________________________________________________________________________________
conv2d_9 (Conv2D)                (None, 14, 14, 128)   147456      elu_8[0][0]                      
____________________________________________________________________________________________________
batch_normalization_9 (BatchNorm (None, 14, 14, 128)   512         conv2d_9[0][0]                   
____________________________________________________________________________________________________
elu_9 (ELU)                      (None, 14, 14, 128)   0           batch_normalization_9[0][0]      
____________________________________________________________________________________________________
conv2d_10 (Conv2D)               (None, 14, 14, 128)   147456      elu_9[0][0]                      
____________________________________________________________________________________________________
batch_normalization_10 (BatchNor (None, 14, 14, 128)   512         conv2d_10[0][0]                  
____________________________________________________________________________________________________
elu_10 (ELU)                     (None, 14, 14, 128)   0           batch_normalization_10[0][0]     
____________________________________________________________________________________________________
concatenate_3 (Concatenate)      (None, 14, 14, 512)   0           elu_7[0][0]                      
                                                                   elu_8[0][0]                      
                                                                   elu_9[0][0]                      
                                                                   elu_10[0][0]                     
____________________________________________________________________________________________________
conv2d_11 (Conv2D)               (None, 14, 14, 256)   131072      concatenate_3[0][0]              
____________________________________________________________________________________________________
batch_normalization_11 (BatchNor (None, 14, 14, 256)   1024        conv2d_11[0][0]                  
____________________________________________________________________________________________________
elu_11 (ELU)                     (None, 14, 14, 256)   0           batch_normalization_11[0][0]     
____________________________________________________________________________________________________
conv2d_12 (Conv2D)               (None, 7, 7, 256)     589824      elu_11[0][0]                     
____________________________________________________________________________________________________
batch_normalization_12 (BatchNor (None, 7, 7, 256)     1024        conv2d_12[0][0]                  
____________________________________________________________________________________________________
max_pooling2d_2 (MaxPooling2D)   (None, 7, 7, 256)     0           elu_11[0][0]                     
____________________________________________________________________________________________________
elu_12 (ELU)                     (None, 7, 7, 256)     0           batch_normalization_12[0][0]     
____________________________________________________________________________________________________
concatenate_4 (Concatenate)      (None, 7, 7, 512)     0           max_pooling2d_2[0][0]            
                                                                   elu_12[0][0]                     
____________________________________________________________________________________________________
conv2d_13 (Conv2D)               (None, 7, 7, 256)     131072      concatenate_4[0][0]              
____________________________________________________________________________________________________
batch_normalization_13 (BatchNor (None, 7, 7, 256)     1024        conv2d_13[0][0]                  
____________________________________________________________________________________________________
elu_13 (ELU)                     (None, 7, 7, 256)     0           batch_normalization_13[0][0]     
____________________________________________________________________________________________________
conv2d_14 (Conv2D)               (None, 7, 7, 256)     589824      elu_13[0][0]                     
____________________________________________________________________________________________________
batch_normalization_14 (BatchNor (None, 7, 7, 256)     1024        conv2d_14[0][0]                  
____________________________________________________________________________________________________
elu_14 (ELU)                     (None, 7, 7, 256)     0           batch_normalization_14[0][0]     
____________________________________________________________________________________________________
conv2d_15 (Conv2D)               (None, 7, 7, 256)     589824      elu_14[0][0]                     
____________________________________________________________________________________________________
batch_normalization_15 (BatchNor (None, 7, 7, 256)     1024        conv2d_15[0][0]                  
____________________________________________________________________________________________________
elu_15 (ELU)                     (None, 7, 7, 256)     0           batch_normalization_15[0][0]     
____________________________________________________________________________________________________
conv2d_16 (Conv2D)               (None, 7, 7, 256)     589824      elu_15[0][0]                     
____________________________________________________________________________________________________
batch_normalization_16 (BatchNor (None, 7, 7, 256)     1024        conv2d_16[0][0]                  
____________________________________________________________________________________________________
elu_16 (ELU)                     (None, 7, 7, 256)     0           batch_normalization_16[0][0]     
____________________________________________________________________________________________________
concatenate_5 (Concatenate)      (None, 7, 7, 1024)    0           elu_13[0][0]                     
                                                                   elu_14[0][0]                     
                                                                   elu_15[0][0]                     
                                                                   elu_16[0][0]                     
____________________________________________________________________________________________________
conv2d_17 (Conv2D)               (None, 7, 7, 512)     524288      concatenate_5[0][0]              
____________________________________________________________________________________________________
batch_normalization_17 (BatchNor (None, 7, 7, 512)     2048        conv2d_17[0][0]                  
____________________________________________________________________________________________________
elu_17 (ELU)                     (None, 7, 7, 512)     0           batch_normalization_17[0][0]     
____________________________________________________________________________________________________
global_average_pooling2d_1 (Glob (None, 512)           0           elu_17[0][0]                     
____________________________________________________________________________________________________
dense_1 (Dense)                  (None, 10)            5130        global_average_pooling2d_1[0][0] 
====================================================================================================
Total params: 3,929,290
Trainable params: 3,923,146
Non-trainable params: 6,144
____________________________________________________________________________________________________
____________________________________________________________________________________________________
Layer (type)                     Output Shape          Param #     Connected to                     
====================================================================================================
input_1 (InputLayer)             (None, 28, 28, 3)     0                                            
____________________________________________________________________________________________________
conv2d_1 (Conv2D)                (None, 28, 28, 64)    192         input_1[0][0]                    
____________________________________________________________________________________________________
batch_normalization_1 (BatchNorm (None, 28, 28, 64)    256         conv2d_1[0][0]                   
____________________________________________________________________________________________________
elu_1 (ELU)                      (None, 28, 28, 64)    0           batch_normalization_1[0][0]      
____________________________________________________________________________________________________
conv2d_2 (Conv2D)                (None, 28, 28, 64)    36864       elu_1[0][0]                      
____________________________________________________________________________________________________
batch_normalization_2 (BatchNorm (None, 28, 28, 64)    256         conv2d_2[0][0]                   
____________________________________________________________________________________________________
elu_2 (ELU)                      (None, 28, 28, 64)    0           batch_normalization_2[0][0]      
____________________________________________________________________________________________________
conv2d_3 (Conv2D)                (None, 28, 28, 64)    36864       elu_2[0][0]                      
____________________________________________________________________________________________________
batch_normalization_3 (BatchNorm (None, 28, 28, 64)    256         conv2d_3[0][0]                   
____________________________________________________________________________________________________
elu_3 (ELU)                      (None, 28, 28, 64)    0           batch_normalization_3[0][0]      
____________________________________________________________________________________________________
conv2d_4 (Conv2D)                (None, 28, 28, 64)    36864       elu_3[0][0]                      
____________________________________________________________________________________________________
batch_normalization_4 (BatchNorm (None, 28, 28, 64)    256         conv2d_4[0][0]                   
____________________________________________________________________________________________________
elu_4 (ELU)                      (None, 28, 28, 64)    0           batch_normalization_4[0][0]      
____________________________________________________________________________________________________
concatenate_1 (Concatenate)      (None, 28, 28, 256)   0           elu_1[0][0]                      
                                                                   elu_2[0][0]                      
                                                                   elu_3[0][0]                      
                                                                   elu_4[0][0]                      
____________________________________________________________________________________________________
conv2d_5 (Conv2D)                (None, 28, 28, 128)   32768       concatenate_1[0][0]              
____________________________________________________________________________________________________
batch_normalization_5 (BatchNorm (None, 28, 28, 128)   512         conv2d_5[0][0]                   
____________________________________________________________________________________________________
elu_5 (ELU)                      (None, 28, 28, 128)   0           batch_normalization_5[0][0]      
____________________________________________________________________________________________________
conv2d_6 (Conv2D)                (None, 14, 14, 128)   147456      elu_5[0][0]                      
____________________________________________________________________________________________________
batch_normalization_6 (BatchNorm (None, 14, 14, 128)   512         conv2d_6[0][0]                   
____________________________________________________________________________________________________
max_pooling2d_1 (MaxPooling2D)   (None, 14, 14, 128)   0           elu_5[0][0]                      
____________________________________________________________________________________________________
elu_6 (ELU)                      (None, 14, 14, 128)   0           batch_normalization_6[0][0]      
____________________________________________________________________________________________________
concatenate_2 (Concatenate)      (None, 14, 14, 256)   0           max_pooling2d_1[0][0]            
                                                                   elu_6[0][0]                      
____________________________________________________________________________________________________
conv2d_7 (Conv2D)                (None, 14, 14, 128)   32768       concatenate_2[0][0]              
____________________________________________________________________________________________________
batch_normalization_7 (BatchNorm (None, 14, 14, 128)   512         conv2d_7[0][0]                   
____________________________________________________________________________________________________
elu_7 (ELU)                      (None, 14, 14, 128)   0           batch_normalization_7[0][0]      
____________________________________________________________________________________________________
conv2d_8 (Conv2D)                (None, 14, 14, 128)   147456      elu_7[0][0]                      
____________________________________________________________________________________________________
batch_normalization_8 (BatchNorm (None, 14, 14, 128)   512         conv2d_8[0][0]                   
____________________________________________________________________________________________________
elu_8 (ELU)                      (None, 14, 14, 128)   0           batch_normalization_8[0][0]      
____________________________________________________________________________________________________
conv2d_9 (Conv2D)                (None, 14, 14, 128)   147456      elu_8[0][0]                      
____________________________________________________________________________________________________
batch_normalization_9 (BatchNorm (None, 14, 14, 128)   512         conv2d_9[0][0]                   
____________________________________________________________________________________________________
elu_9 (ELU)                      (None, 14, 14, 128)   0           batch_normalization_9[0][0]      
____________________________________________________________________________________________________
conv2d_10 (Conv2D)               (None, 14, 14, 128)   147456      elu_9[0][0]                      
____________________________________________________________________________________________________
batch_normalization_10 (BatchNor (None, 14, 14, 128)   512         conv2d_10[0][0]                  
____________________________________________________________________________________________________
elu_10 (ELU)                     (None, 14, 14, 128)   0           batch_normalization_10[0][0]     
____________________________________________________________________________________________________
concatenate_3 (Concatenate)      (None, 14, 14, 512)   0           elu_7[0][0]                      
                                                                   elu_8[0][0]                      
                                                                   elu_9[0][0]                      
                                                                   elu_10[0][0]                     
____________________________________________________________________________________________________
conv2d_11 (Conv2D)               (None, 14, 14, 256)   131072      concatenate_3[0][0]              
____________________________________________________________________________________________________
batch_normalization_11 (BatchNor (None, 14, 14, 256)   1024        conv2d_11[0][0]                  
____________________________________________________________________________________________________
elu_11 (ELU)                     (None, 14, 14, 256)   0           batch_normalization_11[0][0]     
____________________________________________________________________________________________________
conv2d_12 (Conv2D)               (None, 7, 7, 256)     589824      elu_11[0][0]                     
____________________________________________________________________________________________________
batch_normalization_12 (BatchNor (None, 7, 7, 256)     1024        conv2d_12[0][0]                  
____________________________________________________________________________________________________
max_pooling2d_2 (MaxPooling2D)   (None, 7, 7, 256)     0           elu_11[0][0]                     
____________________________________________________________________________________________________
elu_12 (ELU)                     (None, 7, 7, 256)     0           batch_normalization_12[0][0]     
____________________________________________________________________________________________________
concatenate_4 (Concatenate)      (None, 7, 7, 512)     0           max_pooling2d_2[0][0]            
                                                                   elu_12[0][0]                     
____________________________________________________________________________________________________
conv2d_13 (Conv2D)               (None, 7, 7, 256)     131072      concatenate_4[0][0]              
____________________________________________________________________________________________________
batch_normalization_13 (BatchNor (None, 7, 7, 256)     1024        conv2d_13[0][0]                  
____________________________________________________________________________________________________
elu_13 (ELU)                     (None, 7, 7, 256)     0           batch_normalization_13[0][0]     
____________________________________________________________________________________________________
conv2d_14 (Conv2D)               (None, 7, 7, 256)     589824      elu_13[0][0]                     
____________________________________________________________________________________________________
batch_normalization_14 (BatchNor (None, 7, 7, 256)     1024        conv2d_14[0][0]                  
____________________________________________________________________________________________________
elu_14 (ELU)                     (None, 7, 7, 256)     0           batch_normalization_14[0][0]     
____________________________________________________________________________________________________
conv2d_15 (Conv2D)               (None, 7, 7, 256)     589824      elu_14[0][0]                     
____________________________________________________________________________________________________
batch_normalization_15 (BatchNor (None, 7, 7, 256)     1024        conv2d_15[0][0]                  
____________________________________________________________________________________________________
elu_15 (ELU)                     (None, 7, 7, 256)     0           batch_normalization_15[0][0]     
____________________________________________________________________________________________________
conv2d_16 (Conv2D)               (None, 7, 7, 256)     589824      elu_15[0][0]                     
____________________________________________________________________________________________________
batch_normalization_16 (BatchNor (None, 7, 7, 256)     1024        conv2d_16[0][0]                  
____________________________________________________________________________________________________
elu_16 (ELU)                     (None, 7, 7, 256)     0           batch_normalization_16[0][0]     
____________________________________________________________________________________________________
concatenate_5 (Concatenate)      (None, 7, 7, 1024)    0           elu_13[0][0]                     
                                                                   elu_14[0][0]                     
                                                                   elu_15[0][0]                     
                                                                   elu_16[0][0]                     
____________________________________________________________________________________________________
conv2d_17 (Conv2D)               (None, 7, 7, 512)     524288      concatenate_5[0][0]              
____________________________________________________________________________________________________
batch_normalization_17 (BatchNor (None, 7, 7, 512)     2048        conv2d_17[0][0]                  
____________________________________________________________________________________________________
elu_17 (ELU)                     (None, 7, 7, 512)     0           batch_normalization_17[0][0]     
____________________________________________________________________________________________________
global_average_pooling2d_1 (Glob (None, 512)           0           elu_17[0][0]                     
____________________________________________________________________________________________________
dense_1 (Dense)                  (None, 10)            5130        global_average_pooling2d_1[0][0] 
====================================================================================================
Total params: 3,929,290
Trainable params: 3,923,146
Non-trainable params: 6,144
____________________________________________________________________________________________________
____________________________________________________________________________________________________
Layer (type)                     Output Shape          Param #     Connected to                     
====================================================================================================
input_1 (InputLayer)             (None, 28, 28, 1)     0                                            
____________________________________________________________________________________________________
conv2d_1 (Conv2D)                (None, 28, 28, 64)    64          input_1[0][0]                    
____________________________________________________________________________________________________
batch_normalization_1 (BatchNorm (None, 28, 28, 64)    256         conv2d_1[0][0]                   
____________________________________________________________________________________________________
elu_1 (ELU)                      (None, 28, 28, 64)    0           batch_normalization_1[0][0]      
____________________________________________________________________________________________________
conv2d_2 (Conv2D)                (None, 28, 28, 64)    36864       elu_1[0][0]                      
____________________________________________________________________________________________________
batch_normalization_2 (BatchNorm (None, 28, 28, 64)    256         conv2d_2[0][0]                   
____________________________________________________________________________________________________
elu_2 (ELU)                      (None, 28, 28, 64)    0           batch_normalization_2[0][0]      
____________________________________________________________________________________________________
conv2d_3 (Conv2D)                (None, 28, 28, 64)    36864       elu_2[0][0]                      
____________________________________________________________________________________________________
batch_normalization_3 (BatchNorm (None, 28, 28, 64)    256         conv2d_3[0][0]                   
____________________________________________________________________________________________________
elu_3 (ELU)                      (None, 28, 28, 64)    0           batch_normalization_3[0][0]      
____________________________________________________________________________________________________
conv2d_4 (Conv2D)                (None, 28, 28, 64)    36864       elu_3[0][0]                      
____________________________________________________________________________________________________
batch_normalization_4 (BatchNorm (None, 28, 28, 64)    256         conv2d_4[0][0]                   
____________________________________________________________________________________________________
elu_4 (ELU)                      (None, 28, 28, 64)    0           batch_normalization_4[0][0]      
____________________________________________________________________________________________________
concatenate_1 (Concatenate)      (None, 28, 28, 256)   0           elu_1[0][0]                      
                                                                   elu_2[0][0]                      
                                                                   elu_3[0][0]                      
                                                                   elu_4[0][0]                      
____________________________________________________________________________________________________
conv2d_5 (Conv2D)                (None, 28, 28, 128)   32768       concatenate_1[0][0]              
____________________________________________________________________________________________________
batch_normalization_5 (BatchNorm (None, 28, 28, 128)   512         conv2d_5[0][0]                   
____________________________________________________________________________________________________
elu_5 (ELU)                      (None, 28, 28, 128)   0           batch_normalization_5[0][0]      
____________________________________________________________________________________________________
conv2d_6 (Conv2D)                (None, 14, 14, 128)   147456      elu_5[0][0]                      
____________________________________________________________________________________________________
batch_normalization_6 (BatchNorm (None, 14, 14, 128)   512         conv2d_6[0][0]                   
____________________________________________________________________________________________________
max_pooling2d_1 (MaxPooling2D)   (None, 14, 14, 128)   0           elu_5[0][0]                      
____________________________________________________________________________________________________
elu_6 (ELU)                      (None, 14, 14, 128)   0           batch_normalization_6[0][0]      
____________________________________________________________________________________________________
concatenate_2 (Concatenate)      (None, 14, 14, 256)   0           max_pooling2d_1[0][0]            
                                                                   elu_6[0][0]                      
____________________________________________________________________________________________________
conv2d_7 (Conv2D)                (None, 14, 14, 128)   32768       concatenate_2[0][0]              
____________________________________________________________________________________________________
batch_normalization_7 (BatchNorm (None, 14, 14, 128)   512         conv2d_7[0][0]                   
____________________________________________________________________________________________________
elu_7 (ELU)                      (None, 14, 14, 128)   0           batch_normalization_7[0][0]      
____________________________________________________________________________________________________
conv2d_8 (Conv2D)                (None, 14, 14, 128)   147456      elu_7[0][0]                      
____________________________________________________________________________________________________
batch_normalization_8 (BatchNorm (None, 14, 14, 128)   512         conv2d_8[0][0]                   
____________________________________________________________________________________________________
elu_8 (ELU)                      (None, 14, 14, 128)   0           batch_normalization_8[0][0]      
____________________________________________________________________________________________________
conv2d_9 (Conv2D)                (None, 14, 14, 128)   147456      elu_8[0][0]                      
____________________________________________________________________________________________________
batch_normalization_9 (BatchNorm (None, 14, 14, 128)   512         conv2d_9[0][0]                   
____________________________________________________________________________________________________
elu_9 (ELU)                      (None, 14, 14, 128)   0           batch_normalization_9[0][0]      
____________________________________________________________________________________________________
conv2d_10 (Conv2D)               (None, 14, 14, 128)   147456      elu_9[0][0]                      
____________________________________________________________________________________________________
batch_normalization_10 (BatchNor (None, 14, 14, 128)   512         conv2d_10[0][0]                  
____________________________________________________________________________________________________
elu_10 (ELU)                     (None, 14, 14, 128)   0           batch_normalization_10[0][0]     
____________________________________________________________________________________________________
concatenate_3 (Concatenate)      (None, 14, 14, 512)   0           elu_7[0][0]                      
                                                                   elu_8[0][0]                      
                                                                   elu_9[0][0]                      
                                                                   elu_10[0][0]                     
____________________________________________________________________________________________________
conv2d_11 (Conv2D)               (None, 14, 14, 256)   131072      concatenate_3[0][0]              
____________________________________________________________________________________________________
batch_normalization_11 (BatchNor (None, 14, 14, 256)   1024        conv2d_11[0][0]                  
____________________________________________________________________________________________________
elu_11 (ELU)                     (None, 14, 14, 256)   0           batch_normalization_11[0][0]     
____________________________________________________________________________________________________
conv2d_12 (Conv2D)               (None, 7, 7, 256)     589824      elu_11[0][0]                     
____________________________________________________________________________________________________
batch_normalization_12 (BatchNor (None, 7, 7, 256)     1024        conv2d_12[0][0]                  
____________________________________________________________________________________________________
max_pooling2d_2 (MaxPooling2D)   (None, 7, 7, 256)     0           elu_11[0][0]                     
____________________________________________________________________________________________________
elu_12 (ELU)                     (None, 7, 7, 256)     0           batch_normalization_12[0][0]     
____________________________________________________________________________________________________
concatenate_4 (Concatenate)      (None, 7, 7, 512)     0           max_pooling2d_2[0][0]            
                                                                   elu_12[0][0]                     
____________________________________________________________________________________________________
conv2d_13 (Conv2D)               (None, 7, 7, 256)     131072      concatenate_4[0][0]              
____________________________________________________________________________________________________
batch_normalization_13 (BatchNor (None, 7, 7, 256)     1024        conv2d_13[0][0]                  
____________________________________________________________________________________________________
elu_13 (ELU)                     (None, 7, 7, 256)     0           batch_normalization_13[0][0]     
____________________________________________________________________________________________________
conv2d_14 (Conv2D)               (None, 7, 7, 256)     589824      elu_13[0][0]                     
____________________________________________________________________________________________________
batch_normalization_14 (BatchNor (None, 7, 7, 256)     1024        conv2d_14[0][0]                  
____________________________________________________________________________________________________
elu_14 (ELU)                     (None, 7, 7, 256)     0           batch_normalization_14[0][0]     
____________________________________________________________________________________________________
conv2d_15 (Conv2D)               (None, 7, 7, 256)     589824      elu_14[0][0]                     
____________________________________________________________________________________________________
batch_normalization_15 (BatchNor (None, 7, 7, 256)     1024        conv2d_15[0][0]                  
____________________________________________________________________________________________________
elu_15 (ELU)                     (None, 7, 7, 256)     0           batch_normalization_15[0][0]     
____________________________________________________________________________________________________
conv2d_16 (Conv2D)               (None, 7, 7, 256)     589824      elu_15[0][0]                     
____________________________________________________________________________________________________
batch_normalization_16 (BatchNor (None, 7, 7, 256)     1024        conv2d_16[0][0]                  
____________________________________________________________________________________________________
elu_16 (ELU)                     (None, 7, 7, 256)     0           batch_normalization_16[0][0]     
____________________________________________________________________________________________________
concatenate_5 (Concatenate)      (None, 7, 7, 1024)    0           elu_13[0][0]                     
                                                                   elu_14[0][0]                     
                                                                   elu_15[0][0]                     
                                                                   elu_16[0][0]                     
____________________________________________________________________________________________________
conv2d_17 (Conv2D)               (None, 7, 7, 512)     524288      concatenate_5[0][0]              
____________________________________________________________________________________________________
batch_normalization_17 (BatchNor (None, 7, 7, 512)     2048        conv2d_17[0][0]                  
____________________________________________________________________________________________________
elu_17 (ELU)                     (None, 7, 7, 512)     0           batch_normalization_17[0][0]     
____________________________________________________________________________________________________
global_average_pooling2d_1 (Glob (None, 512)           0           elu_17[0][0]                     
____________________________________________________________________________________________________
dense_1 (Dense)                  (None, 10)            5130        global_average_pooling2d_1[0][0] 
====================================================================================================
Total params: 3,929,162
Trainable params: 3,923,018
Non-trainable params: 6,144
____________________________________________________________________________________________________
Test loss:     0.020527714088566427
Test accuracy: 0.9929999899864197
Elapsed time = 2780 [s]
