_________________________________________________________________
Layer (type)                 Output Shape              Param #   
=================================================================
input_1 (InputLayer)         (None, 28, 28, 1)         0         
_________________________________________________________________
conv2d_1 (Conv2D)            (None, 28, 28, 32)        320       
_________________________________________________________________
batch_normalization_1 (Batch (None, 28, 28, 32)        128       
_________________________________________________________________
elu_1 (ELU)                  (None, 28, 28, 32)        0         
_________________________________________________________________
conv2d_2 (Conv2D)            (None, 28, 28, 32)        9216      
_________________________________________________________________
batch_normalization_2 (Batch (None, 28, 28, 32)        128       
_________________________________________________________________
elu_2 (ELU)                  (None, 28, 28, 32)        0         
_________________________________________________________________
conv2d_3 (Conv2D)            (None, 28, 28, 32)        9216      
_________________________________________________________________
max_pooling2d_1 (MaxPooling2 (None, 14, 14, 32)        0         
_________________________________________________________________
batch_normalization_3 (Batch (None, 14, 14, 32)        128       
_________________________________________________________________
elu_3 (ELU)                  (None, 14, 14, 32)        0         
_________________________________________________________________
conv2d_4 (Conv2D)            (None, 14, 14, 32)        9216      
_________________________________________________________________
batch_normalization_4 (Batch (None, 14, 14, 32)        128       
_________________________________________________________________
elu_4 (ELU)                  (None, 14, 14, 32)        0         
_________________________________________________________________
conv2d_5 (Conv2D)            (None, 14, 14, 32)        9216      
_________________________________________________________________
max_pooling2d_2 (MaxPooling2 (None, 7, 7, 32)          0         
_________________________________________________________________
batch_normalization_5 (Batch (None, 7, 7, 32)          128       
_________________________________________________________________
elu_5 (ELU)                  (None, 7, 7, 32)          0         
_________________________________________________________________
conv2d_6 (Conv2D)            (None, 7, 7, 32)          9216      
_________________________________________________________________
batch_normalization_6 (Batch (None, 7, 7, 32)          128       
_________________________________________________________________
elu_6 (ELU)                  (None, 7, 7, 32)          0         
_________________________________________________________________
conv2d_7 (Conv2D)            (None, 7, 7, 32)          9216      
_________________________________________________________________
batch_normalization_7 (Batch (None, 7, 7, 32)          128       
_________________________________________________________________
elu_7 (ELU)                  (None, 7, 7, 32)          0         
_________________________________________________________________
flatten_1 (Flatten)          (None, 1568)              0         
_________________________________________________________________
dense_1 (Dense)              (None, 10)                15690     
=================================================================
Total params: 72,202
Trainable params: 71,754
Non-trainable params: 448
_________________________________________________________________
Test loss:     0.010071765804386814
Test accuracy: 0.9963999664783478
Elapsed time = 593 [s]
