_________________________________________________________________
Layer (type)                 Output Shape              Param #   
=================================================================
input_1 (InputLayer)         (None, 28, 28, 1)         0         
_________________________________________________________________
conv1a (Conv2D)              (None, 28, 28, 32)        288       
_________________________________________________________________
conv1abn (BatchNormalization (None, 28, 28, 32)        128       
_________________________________________________________________
conv1aact (ELU)              (None, 28, 28, 32)        0         
_________________________________________________________________
conv1b (Conv2D)              (None, 28, 28, 32)        9216      
_________________________________________________________________
conv1bbn (BatchNormalization (None, 28, 28, 32)        128       
_________________________________________________________________
conv1bact (ELU)              (None, 28, 28, 32)        0         
_________________________________________________________________
max_pooling2d_1 (MaxPooling2 (None, 14, 14, 32)        0         
_________________________________________________________________
conv2a (Conv2D)              (None, 14, 14, 32)        9216      
_________________________________________________________________
conv2abn (BatchNormalization (None, 14, 14, 32)        128       
_________________________________________________________________
conv2aact (ELU)              (None, 14, 14, 32)        0         
_________________________________________________________________
conv2b (Conv2D)              (None, 14, 14, 32)        9216      
_________________________________________________________________
conv2bbn (BatchNormalization (None, 14, 14, 32)        128       
_________________________________________________________________
conv2bact (ELU)              (None, 14, 14, 32)        0         
_________________________________________________________________
max_pooling2d_2 (MaxPooling2 (None, 7, 7, 32)          0         
_________________________________________________________________
conv3a (Conv2D)              (None, 7, 7, 32)          9216      
_________________________________________________________________
conv3abn (BatchNormalization (None, 7, 7, 32)          128       
_________________________________________________________________
conv3aact (ELU)              (None, 7, 7, 32)          0         
_________________________________________________________________
conv3b (Conv2D)              (None, 7, 7, 32)          9216      
_________________________________________________________________
conv3bbn (BatchNormalization (None, 7, 7, 32)          128       
_________________________________________________________________
conv3bact (ELU)              (None, 7, 7, 32)          0         
_________________________________________________________________
flatten_1 (Flatten)          (None, 1568)              0         
_________________________________________________________________
dense_1 (Dense)              (None, 10)                15690     
=================================================================
Total params: 62,826
Trainable params: 62,442
Non-trainable params: 384
_________________________________________________________________
Test loss:     0.010156309513813539
Test accuracy: 0.9970999741554261
Elapsed time = 672 [s]
