_________________________________________________________________
Layer (type)                 Output Shape              Param #   
=================================================================
input_1 (InputLayer)         (None, 28, 28, 1)         0         
_________________________________________________________________
conv2d_1 (Conv2D)            (None, 28, 28, 64)        640       
_________________________________________________________________
batch_normalization_1 (Batch (None, 28, 28, 64)        256       
_________________________________________________________________
elu_1 (ELU)                  (None, 28, 28, 64)        0         
_________________________________________________________________
conv2d_2 (Conv2D)            (None, 28, 28, 64)        4096      
_________________________________________________________________
batch_normalization_2 (Batch (None, 28, 28, 64)        256       
_________________________________________________________________
elu_2 (ELU)                  (None, 28, 28, 64)        0         
_________________________________________________________________
conv2d_3 (Conv2D)            (None, 28, 28, 128)       73728     
_________________________________________________________________
max_pooling2d_1 (MaxPooling2 (None, 14, 14, 128)       0         
_________________________________________________________________
batch_normalization_3 (Batch (None, 14, 14, 128)       512       
_________________________________________________________________
elu_3 (ELU)                  (None, 14, 14, 128)       0         
_________________________________________________________________
conv2d_4 (Conv2D)            (None, 14, 14, 64)        8192      
_________________________________________________________________
batch_normalization_4 (Batch (None, 14, 14, 64)        256       
_________________________________________________________________
elu_4 (ELU)                  (None, 14, 14, 64)        0         
_________________________________________________________________
conv2d_5 (Conv2D)            (None, 14, 14, 128)       73728     
_________________________________________________________________
max_pooling2d_2 (MaxPooling2 (None, 7, 7, 128)         0         
_________________________________________________________________
batch_normalization_5 (Batch (None, 7, 7, 128)         512       
_________________________________________________________________
elu_5 (ELU)                  (None, 7, 7, 128)         0         
_________________________________________________________________
conv2d_6 (Conv2D)            (None, 7, 7, 32)          4096      
_________________________________________________________________
batch_normalization_6 (Batch (None, 7, 7, 32)          128       
_________________________________________________________________
elu_6 (ELU)                  (None, 7, 7, 32)          0         
_________________________________________________________________
locally_connected2d_1 (Local (None, 5, 5, 32)          231200    
_________________________________________________________________
batch_normalization_7 (Batch (None, 5, 5, 32)          128       
_________________________________________________________________
elu_7 (ELU)                  (None, 5, 5, 32)          0         
_________________________________________________________________
flatten_1 (Flatten)          (None, 800)               0         
_________________________________________________________________
dense_1 (Dense)              (None, 10)                8010      
=================================================================
Total params: 405,738
Trainable params: 404,714
Non-trainable params: 1,024
_________________________________________________________________
Test loss:     0.010033698827664922
Test accuracy: 0.9959999763965607
Elapsed time = 701 [s]
