train, test = 5011, 4952
____________________________________________________________________________________________________
Layer (type)                     Output Shape          Param #     Connected to                     
====================================================================================================
input_1 (InputLayer)             (None, 512, 512, 3)   0                                            
____________________________________________________________________________________________________
stage1_conv (Conv2D)             (None, 510, 510, 32)  896         input_1[0][0]                    
____________________________________________________________________________________________________
stage1_ds_max (MaxPooling2D)     (None, 255, 255, 32)  0           stage1_conv[0][0]                
____________________________________________________________________________________________________
stage1_ds_avg (AveragePooling2D) (None, 255, 255, 32)  0           stage1_conv[0][0]                
____________________________________________________________________________________________________
stage1_ds_mixed (Concatenate)    (None, 255, 255, 64)  0           stage1_ds_max[0][0]              
                                                                   stage1_ds_avg[0][0]              
____________________________________________________________________________________________________
stage2_block_c1sqact (ELU)       (None, 255, 255, 64)  0           stage1_ds_mixed[0][0]            
____________________________________________________________________________________________________
stage2_block_c1sq (Conv2D)       (None, 255, 255, 32)  2048        stage2_block_c1sqact[0][0]       
____________________________________________________________________________________________________
stage2_block_c1exact (ELU)       (None, 255, 255, 32)  0           stage2_block_c1sq[0][0]          
____________________________________________________________________________________________________
stage2_block_c1ex (Conv2D)       (None, 255, 255, 64)  18432       stage2_block_c1exact[0][0]       
____________________________________________________________________________________________________
stage2_block_c2sqact (ELU)       (None, 255, 255, 64)  0           stage2_block_c1ex[0][0]          
____________________________________________________________________________________________________
stage2_block_c2sq (Conv2D)       (None, 255, 255, 32)  2048        stage2_block_c2sqact[0][0]       
____________________________________________________________________________________________________
stage2_block_c2exact (ELU)       (None, 255, 255, 32)  0           stage2_block_c2sq[0][0]          
____________________________________________________________________________________________________
stage2_block_c2ex (Conv2D)       (None, 255, 255, 64)  18432       stage2_block_c2exact[0][0]       
____________________________________________________________________________________________________
stage2_block_c3sqact (ELU)       (None, 255, 255, 64)  0           stage2_block_c2ex[0][0]          
____________________________________________________________________________________________________
stage2_block_c3sq (Conv2D)       (None, 255, 255, 32)  2048        stage2_block_c3sqact[0][0]       
____________________________________________________________________________________________________
stage2_block_c3exact (ELU)       (None, 255, 255, 32)  0           stage2_block_c3sq[0][0]          
____________________________________________________________________________________________________
stage2_block_c3ex (Conv2D)       (None, 255, 255, 64)  18432       stage2_block_c3exact[0][0]       
____________________________________________________________________________________________________
concatenate_1 (Concatenate)      (None, 255, 255, 256) 0           stage1_ds_mixed[0][0]            
                                                                   stage2_block_c1ex[0][0]          
                                                                   stage2_block_c2ex[0][0]          
                                                                   stage2_block_c3ex[0][0]          
____________________________________________________________________________________________________
stage2_block_sqact (ELU)         (None, 255, 255, 256) 0           concatenate_1[0][0]              
____________________________________________________________________________________________________
stage2_block_sq (Conv2D)         (None, 255, 255, 64)  16384       stage2_block_sqact[0][0]         
____________________________________________________________________________________________________
stage2_ds_max (MaxPooling2D)     (None, 127, 127, 64)  0           stage2_block_sq[0][0]            
____________________________________________________________________________________________________
stage2_ds_avg (AveragePooling2D) (None, 127, 127, 64)  0           stage2_block_sq[0][0]            
____________________________________________________________________________________________________
stage2_ds_mixed (Concatenate)    (None, 127, 127, 128) 0           stage2_ds_max[0][0]              
                                                                   stage2_ds_avg[0][0]              
____________________________________________________________________________________________________
stage3_block_c1sqact (ELU)       (None, 127, 127, 128) 0           stage2_ds_mixed[0][0]            
____________________________________________________________________________________________________
stage3_block_c1sq (Conv2D)       (None, 127, 127, 64)  8192        stage3_block_c1sqact[0][0]       
____________________________________________________________________________________________________
stage3_block_c1exact (ELU)       (None, 127, 127, 64)  0           stage3_block_c1sq[0][0]          
____________________________________________________________________________________________________
stage3_block_c1ex (Conv2D)       (None, 127, 127, 128) 73728       stage3_block_c1exact[0][0]       
____________________________________________________________________________________________________
stage3_block_c2sqact (ELU)       (None, 127, 127, 128) 0           stage3_block_c1ex[0][0]          
____________________________________________________________________________________________________
stage3_block_c2sq (Conv2D)       (None, 127, 127, 64)  8192        stage3_block_c2sqact[0][0]       
____________________________________________________________________________________________________
stage3_block_c2exact (ELU)       (None, 127, 127, 64)  0           stage3_block_c2sq[0][0]          
____________________________________________________________________________________________________
stage3_block_c2ex (Conv2D)       (None, 127, 127, 128) 73728       stage3_block_c2exact[0][0]       
____________________________________________________________________________________________________
stage3_block_c3sqact (ELU)       (None, 127, 127, 128) 0           stage3_block_c2ex[0][0]          
____________________________________________________________________________________________________
stage3_block_c3sq (Conv2D)       (None, 127, 127, 64)  8192        stage3_block_c3sqact[0][0]       
____________________________________________________________________________________________________
stage3_block_c3exact (ELU)       (None, 127, 127, 64)  0           stage3_block_c3sq[0][0]          
____________________________________________________________________________________________________
stage3_block_c3ex (Conv2D)       (None, 127, 127, 128) 73728       stage3_block_c3exact[0][0]       
____________________________________________________________________________________________________
concatenate_2 (Concatenate)      (None, 127, 127, 512) 0           stage2_ds_mixed[0][0]            
                                                                   stage3_block_c1ex[0][0]          
                                                                   stage3_block_c2ex[0][0]          
                                                                   stage3_block_c3ex[0][0]          
____________________________________________________________________________________________________
stage3_block_sqact (ELU)         (None, 127, 127, 512) 0           concatenate_2[0][0]              
____________________________________________________________________________________________________
stage3_block_sq (Conv2D)         (None, 127, 127, 128) 65536       stage3_block_sqact[0][0]         
____________________________________________________________________________________________________
stage3_ds_max (MaxPooling2D)     (None, 63, 63, 128)   0           stage3_block_sq[0][0]            
____________________________________________________________________________________________________
stage3_ds_avg (AveragePooling2D) (None, 63, 63, 128)   0           stage3_block_sq[0][0]            
____________________________________________________________________________________________________
stage3_ds_mixed (Concatenate)    (None, 63, 63, 256)   0           stage3_ds_max[0][0]              
                                                                   stage3_ds_avg[0][0]              
____________________________________________________________________________________________________
stage4_block_c1sqact (ELU)       (None, 63, 63, 256)   0           stage3_ds_mixed[0][0]            
____________________________________________________________________________________________________
stage4_block_c1sq (Conv2D)       (None, 63, 63, 128)   32768       stage4_block_c1sqact[0][0]       
____________________________________________________________________________________________________
stage4_block_c1exact (ELU)       (None, 63, 63, 128)   0           stage4_block_c1sq[0][0]          
____________________________________________________________________________________________________
stage4_block_c1ex (Conv2D)       (None, 63, 63, 256)   294912      stage4_block_c1exact[0][0]       
____________________________________________________________________________________________________
stage4_block_c2sqact (ELU)       (None, 63, 63, 256)   0           stage4_block_c1ex[0][0]          
____________________________________________________________________________________________________
stage4_block_c2sq (Conv2D)       (None, 63, 63, 128)   32768       stage4_block_c2sqact[0][0]       
____________________________________________________________________________________________________
stage4_block_c2exact (ELU)       (None, 63, 63, 128)   0           stage4_block_c2sq[0][0]          
____________________________________________________________________________________________________
stage4_block_c2ex (Conv2D)       (None, 63, 63, 256)   294912      stage4_block_c2exact[0][0]       
____________________________________________________________________________________________________
stage4_block_c3sqact (ELU)       (None, 63, 63, 256)   0           stage4_block_c2ex[0][0]          
____________________________________________________________________________________________________
stage4_block_c3sq (Conv2D)       (None, 63, 63, 128)   32768       stage4_block_c3sqact[0][0]       
____________________________________________________________________________________________________
stage4_block_c3exact (ELU)       (None, 63, 63, 128)   0           stage4_block_c3sq[0][0]          
____________________________________________________________________________________________________
stage4_block_c3ex (Conv2D)       (None, 63, 63, 256)   294912      stage4_block_c3exact[0][0]       
____________________________________________________________________________________________________
concatenate_3 (Concatenate)      (None, 63, 63, 1024)  0           stage3_ds_mixed[0][0]            
                                                                   stage4_block_c1ex[0][0]          
                                                                   stage4_block_c2ex[0][0]          
                                                                   stage4_block_c3ex[0][0]          
____________________________________________________________________________________________________
stage4_block_sqact (ELU)         (None, 63, 63, 1024)  0           concatenate_3[0][0]              
____________________________________________________________________________________________________
stage4_block_sq (Conv2D)         (None, 63, 63, 256)   262144      stage4_block_sqact[0][0]         
____________________________________________________________________________________________________
stage4_ds_max (MaxPooling2D)     (None, 31, 31, 256)   0           stage4_block_sq[0][0]            
____________________________________________________________________________________________________
stage4_ds_avg (AveragePooling2D) (None, 31, 31, 256)   0           stage4_block_sq[0][0]            
____________________________________________________________________________________________________
stage4_ds_mixed (Concatenate)    (None, 31, 31, 512)   0           stage4_ds_max[0][0]              
                                                                   stage4_ds_avg[0][0]              
____________________________________________________________________________________________________
stage5_block_c1sqact (ELU)       (None, 31, 31, 512)   0           stage4_ds_mixed[0][0]            
____________________________________________________________________________________________________
stage5_block_c1sq (Conv2D)       (None, 31, 31, 256)   131072      stage5_block_c1sqact[0][0]       
____________________________________________________________________________________________________
stage5_block_c1exact (ELU)       (None, 31, 31, 256)   0           stage5_block_c1sq[0][0]          
____________________________________________________________________________________________________
stage5_block_c1ex (Conv2D)       (None, 31, 31, 512)   1179648     stage5_block_c1exact[0][0]       
____________________________________________________________________________________________________
stage5_block_c2sqact (ELU)       (None, 31, 31, 512)   0           stage5_block_c1ex[0][0]          
____________________________________________________________________________________________________
stage5_block_c2sq (Conv2D)       (None, 31, 31, 256)   131072      stage5_block_c2sqact[0][0]       
____________________________________________________________________________________________________
stage5_block_c2exact (ELU)       (None, 31, 31, 256)   0           stage5_block_c2sq[0][0]          
____________________________________________________________________________________________________
stage5_block_c2ex (Conv2D)       (None, 31, 31, 512)   1179648     stage5_block_c2exact[0][0]       
____________________________________________________________________________________________________
stage5_block_c3sqact (ELU)       (None, 31, 31, 512)   0           stage5_block_c2ex[0][0]          
____________________________________________________________________________________________________
stage5_block_c3sq (Conv2D)       (None, 31, 31, 256)   131072      stage5_block_c3sqact[0][0]       
____________________________________________________________________________________________________
stage5_block_c3exact (ELU)       (None, 31, 31, 256)   0           stage5_block_c3sq[0][0]          
____________________________________________________________________________________________________
stage5_block_c3ex (Conv2D)       (None, 31, 31, 512)   1179648     stage5_block_c3exact[0][0]       
____________________________________________________________________________________________________
concatenate_4 (Concatenate)      (None, 31, 31, 2048)  0           stage4_ds_mixed[0][0]            
                                                                   stage5_block_c1ex[0][0]          
                                                                   stage5_block_c2ex[0][0]          
                                                                   stage5_block_c3ex[0][0]          
____________________________________________________________________________________________________
stage5_block_sqact (ELU)         (None, 31, 31, 2048)  0           concatenate_4[0][0]              
____________________________________________________________________________________________________
stage5_block_sq (Conv2D)         (None, 31, 31, 512)   1048576     stage5_block_sqact[0][0]         
____________________________________________________________________________________________________
stage5_ds_max (MaxPooling2D)     (None, 15, 15, 512)   0           stage5_block_sq[0][0]            
____________________________________________________________________________________________________
stage5_ds_avg (AveragePooling2D) (None, 15, 15, 512)   0           stage5_block_sq[0][0]            
____________________________________________________________________________________________________
stage5_ds_mixed (Concatenate)    (None, 15, 15, 1024)  0           stage5_ds_max[0][0]              
                                                                   stage5_ds_avg[0][0]              
____________________________________________________________________________________________________
stage6_convsqact (ELU)           (None, 15, 15, 1024)  0           stage5_ds_mixed[0][0]            
____________________________________________________________________________________________________
stage6_convsq (Conv2D)           (None, 15, 15, 128)   131072      stage6_convsqact[0][0]           
____________________________________________________________________________________________________
stage6_convexact (ELU)           (None, 15, 15, 128)   0           stage6_convsq[0][0]              
____________________________________________________________________________________________________
stage6_convex (Conv2D)           (None, 15, 15, 256)   294912      stage6_convexact[0][0]           
____________________________________________________________________________________________________
stage6_ds_max (MaxPooling2D)     (None, 7, 7, 256)     0           stage6_convex[0][0]              
____________________________________________________________________________________________________
stage6_ds_avg (AveragePooling2D) (None, 7, 7, 256)     0           stage6_convex[0][0]              
____________________________________________________________________________________________________
stage6_ds_mixed (Concatenate)    (None, 7, 7, 512)     0           stage6_ds_max[0][0]              
                                                                   stage6_ds_avg[0][0]              
____________________________________________________________________________________________________
stage7_convsqact (ELU)           (None, 7, 7, 512)     0           stage6_ds_mixed[0][0]            
____________________________________________________________________________________________________
stage7_convsq (Conv2D)           (None, 7, 7, 128)     65536       stage7_convsqact[0][0]           
____________________________________________________________________________________________________
stage7_convexact (ELU)           (None, 7, 7, 128)     0           stage7_convsq[0][0]              
____________________________________________________________________________________________________
stage7_convex (Conv2D)           (None, 7, 7, 256)     294912      stage7_convexact[0][0]           
____________________________________________________________________________________________________
stage7_ds_max (MaxPooling2D)     (None, 3, 3, 256)     0           stage7_convex[0][0]              
____________________________________________________________________________________________________
stage7_ds_avg (AveragePooling2D) (None, 3, 3, 256)     0           stage7_convex[0][0]              
____________________________________________________________________________________________________
stage7_ds_mixed (Concatenate)    (None, 3, 3, 512)     0           stage7_ds_max[0][0]              
                                                                   stage7_ds_avg[0][0]              
____________________________________________________________________________________________________
stage8_convsqact (ELU)           (None, 3, 3, 512)     0           stage7_ds_mixed[0][0]            
____________________________________________________________________________________________________
stage8_convsq (Conv2D)           (None, 3, 3, 128)     65536       stage8_convsqact[0][0]           
____________________________________________________________________________________________________
stage8_convexact (ELU)           (None, 3, 3, 128)     0           stage8_convsq[0][0]              
____________________________________________________________________________________________________
stage8_convex (Conv2D)           (None, 3, 3, 256)     294912      stage8_convexact[0][0]           
____________________________________________________________________________________________________
stage8_ds_max (MaxPooling2D)     (None, 1, 1, 256)     0           stage8_convex[0][0]              
____________________________________________________________________________________________________
stage8_ds_avg (AveragePooling2D) (None, 1, 1, 256)     0           stage8_convex[0][0]              
____________________________________________________________________________________________________
stage8_ds_mixed (Concatenate)    (None, 1, 1, 512)     0           stage8_ds_max[0][0]              
                                                                   stage8_ds_avg[0][0]              
____________________________________________________________________________________________________
stage8u_usact (ELU)              (None, 1, 1, 512)     0           stage8_ds_mixed[0][0]            
____________________________________________________________________________________________________
stage8u_us (Conv2DTranspose)     (None, 3, 3, 128)     589824      stage8u_usact[0][0]              
____________________________________________________________________________________________________
concatenate_5 (Concatenate)      (None, 3, 3, 640)     0           stage8u_us[0][0]                 
                                                                   stage7_ds_mixed[0][0]            
____________________________________________________________________________________________________
stage8u_convsqact (ELU)          (None, 3, 3, 640)     0           concatenate_5[0][0]              
____________________________________________________________________________________________________
stage8u_convsq (Conv2D)          (None, 3, 3, 256)     163840      stage8u_convsqact[0][0]          
____________________________________________________________________________________________________
stage8u_convexact (ELU)          (None, 3, 3, 256)     0           stage8u_convsq[0][0]             
____________________________________________________________________________________________________
stage8u_convex (Conv2D)          (None, 3, 3, 512)     1179648     stage8u_convexact[0][0]          
____________________________________________________________________________________________________
stage7u_usact (ELU)              (None, 3, 3, 512)     0           stage8u_convex[0][0]             
____________________________________________________________________________________________________
stage7u_us (Conv2DTranspose)     (None, 7, 7, 128)     589824      stage7u_usact[0][0]              
____________________________________________________________________________________________________
concatenate_6 (Concatenate)      (None, 7, 7, 640)     0           stage7u_us[0][0]                 
                                                                   stage6_ds_mixed[0][0]            
____________________________________________________________________________________________________
stage7u_convsqact (ELU)          (None, 7, 7, 640)     0           concatenate_6[0][0]              
____________________________________________________________________________________________________
stage7u_convsq (Conv2D)          (None, 7, 7, 256)     163840      stage7u_convsqact[0][0]          
____________________________________________________________________________________________________
stage7u_convexact (ELU)          (None, 7, 7, 256)     0           stage7u_convsq[0][0]             
____________________________________________________________________________________________________
stage7u_convex (Conv2D)          (None, 7, 7, 512)     1179648     stage7u_convexact[0][0]          
____________________________________________________________________________________________________
stage6u_usact (ELU)              (None, 7, 7, 512)     0           stage7u_convex[0][0]             
____________________________________________________________________________________________________
stage6u_us (Conv2DTranspose)     (None, 15, 15, 128)   589824      stage6u_usact[0][0]              
____________________________________________________________________________________________________
concatenate_7 (Concatenate)      (None, 15, 15, 1152)  0           stage6u_us[0][0]                 
                                                                   stage5_ds_mixed[0][0]            
____________________________________________________________________________________________________
stage6u_convsqact (ELU)          (None, 15, 15, 1152)  0           concatenate_7[0][0]              
____________________________________________________________________________________________________
stage6u_convsq (Conv2D)          (None, 15, 15, 256)   294912      stage6u_convsqact[0][0]          
____________________________________________________________________________________________________
stage6u_convexact (ELU)          (None, 15, 15, 256)   0           stage6u_convsq[0][0]             
____________________________________________________________________________________________________
stage6u_convex (Conv2D)          (None, 15, 15, 512)   1179648     stage6u_convexact[0][0]          
____________________________________________________________________________________________________
stage5u_usact (ELU)              (None, 15, 15, 512)   0           stage6u_convex[0][0]             
____________________________________________________________________________________________________
stage5u_us (Conv2DTranspose)     (None, 31, 31, 128)   589824      stage5u_usact[0][0]              
____________________________________________________________________________________________________
concatenate_8 (Concatenate)      (None, 31, 31, 640)   0           stage5u_us[0][0]                 
                                                                   stage4_ds_mixed[0][0]            
____________________________________________________________________________________________________
stage5u_convsqact (ELU)          (None, 31, 31, 640)   0           concatenate_8[0][0]              
____________________________________________________________________________________________________
stage5u_convsq (Conv2D)          (None, 31, 31, 256)   163840      stage5u_convsqact[0][0]          
____________________________________________________________________________________________________
stage5u_convexact (ELU)          (None, 31, 31, 256)   0           stage5u_convsq[0][0]             
____________________________________________________________________________________________________
stage5u_convex (Conv2D)          (None, 31, 31, 512)   1179648     stage5u_convexact[0][0]          
____________________________________________________________________________________________________
stage4u_usact (ELU)              (None, 31, 31, 512)   0           stage5u_convex[0][0]             
____________________________________________________________________________________________________
stage4u_us (Conv2DTranspose)     (None, 63, 63, 128)   589824      stage4u_usact[0][0]              
____________________________________________________________________________________________________
concatenate_9 (Concatenate)      (None, 63, 63, 384)   0           stage4u_us[0][0]                 
                                                                   stage3_ds_mixed[0][0]            
____________________________________________________________________________________________________
stage4u_convsqact (ELU)          (None, 63, 63, 384)   0           concatenate_9[0][0]              
____________________________________________________________________________________________________
stage4u_convsq (Conv2D)          (None, 63, 63, 256)   98304       stage4u_convsqact[0][0]          
____________________________________________________________________________________________________
stage4u_convexact (ELU)          (None, 63, 63, 256)   0           stage4u_convsq[0][0]             
____________________________________________________________________________________________________
stage4u_convex (Conv2D)          (None, 63, 63, 512)   1179648     stage4u_convexact[0][0]          
____________________________________________________________________________________________________
out63conf_1x21act (ELU)          (None, 63, 63, 512)   0           stage4u_convex[0][0]             
____________________________________________________________________________________________________
out31conf_5x21act (ELU)          (None, 31, 31, 512)   0           stage5u_convex[0][0]             
____________________________________________________________________________________________________
out15conf_5x21act (ELU)          (None, 15, 15, 512)   0           stage6u_convex[0][0]             
____________________________________________________________________________________________________
out7conf_9x21act (ELU)           (None, 7, 7, 512)     0           stage7u_convex[0][0]             
____________________________________________________________________________________________________
out3conf_9x21act (ELU)           (None, 3, 3, 512)     0           stage8u_convex[0][0]             
____________________________________________________________________________________________________
out1conf_9x21act (ELU)           (None, 1, 1, 512)     0           stage8_ds_mixed[0][0]            
____________________________________________________________________________________________________
out63conf_1x21 (Conv2D)          (None, 63, 63, 21)    10752       out63conf_1x21act[0][0]          
____________________________________________________________________________________________________
out31conf_5x21 (Conv2D)          (None, 31, 31, 105)   53760       out31conf_5x21act[0][0]          
____________________________________________________________________________________________________
out15conf_5x21 (Conv2D)          (None, 15, 15, 105)   53760       out15conf_5x21act[0][0]          
____________________________________________________________________________________________________
out7conf_9x21 (Conv2D)           (None, 7, 7, 189)     96768       out7conf_9x21act[0][0]           
____________________________________________________________________________________________________
out3conf_9x21 (Conv2D)           (None, 3, 3, 189)     96768       out3conf_9x21act[0][0]           
____________________________________________________________________________________________________
out1conf_9x21 (Conv2D)           (None, 1, 1, 189)     96768       out1conf_9x21act[0][0]           
____________________________________________________________________________________________________
out63loc_1act (ELU)              (None, 63, 63, 512)   0           stage4u_convex[0][0]             
____________________________________________________________________________________________________
out31loc_5act (ELU)              (None, 31, 31, 512)   0           stage5u_convex[0][0]             
____________________________________________________________________________________________________
out15loc_5act (ELU)              (None, 15, 15, 512)   0           stage6u_convex[0][0]             
____________________________________________________________________________________________________
out7loc_9act (ELU)               (None, 7, 7, 512)     0           stage7u_convex[0][0]             
____________________________________________________________________________________________________
out3loc_9act (ELU)               (None, 3, 3, 512)     0           stage8u_convex[0][0]             
____________________________________________________________________________________________________
out1loc_9act (ELU)               (None, 1, 1, 512)     0           stage8_ds_mixed[0][0]            
____________________________________________________________________________________________________
reshape_1 (Reshape)              (None, 3969, 21)      0           out63conf_1x21[0][0]             
____________________________________________________________________________________________________
reshape_3 (Reshape)              (None, 4805, 21)      0           out31conf_5x21[0][0]             
____________________________________________________________________________________________________
reshape_5 (Reshape)              (None, 1125, 21)      0           out15conf_5x21[0][0]             
____________________________________________________________________________________________________
reshape_7 (Reshape)              (None, 441, 21)       0           out7conf_9x21[0][0]              
____________________________________________________________________________________________________
reshape_9 (Reshape)              (None, 81, 21)        0           out3conf_9x21[0][0]              
____________________________________________________________________________________________________
reshape_11 (Reshape)             (None, 9, 21)         0           out1conf_9x21[0][0]              
____________________________________________________________________________________________________
out63loc_1 (Conv2D)              (None, 63, 63, 4)     2048        out63loc_1act[0][0]              
____________________________________________________________________________________________________
out31loc_5 (Conv2D)              (None, 31, 31, 20)    10240       out31loc_5act[0][0]              
____________________________________________________________________________________________________
out15loc_5 (Conv2D)              (None, 15, 15, 20)    10240       out15loc_5act[0][0]              
____________________________________________________________________________________________________
out7loc_9 (Conv2D)               (None, 7, 7, 36)      18432       out7loc_9act[0][0]               
____________________________________________________________________________________________________
out3loc_9 (Conv2D)               (None, 3, 3, 36)      18432       out3loc_9act[0][0]               
____________________________________________________________________________________________________
out1loc_9 (Conv2D)               (None, 1, 1, 36)      18432       out1loc_9act[0][0]               
____________________________________________________________________________________________________
output_confs (Concatenate)       (None, 10430, 21)     0           reshape_1[0][0]                  
                                                                   reshape_3[0][0]                  
                                                                   reshape_5[0][0]                  
                                                                   reshape_7[0][0]                  
                                                                   reshape_9[0][0]                  
                                                                   reshape_11[0][0]                 
____________________________________________________________________________________________________
reshape_2 (Reshape)              (None, 3969, 4)       0           out63loc_1[0][0]                 
____________________________________________________________________________________________________
reshape_4 (Reshape)              (None, 4805, 4)       0           out31loc_5[0][0]                 
____________________________________________________________________________________________________
reshape_6 (Reshape)              (None, 1125, 4)       0           out15loc_5[0][0]                 
____________________________________________________________________________________________________
reshape_8 (Reshape)              (None, 441, 4)        0           out7loc_9[0][0]                  
____________________________________________________________________________________________________
reshape_10 (Reshape)             (None, 81, 4)         0           out3loc_9[0][0]                  
____________________________________________________________________________________________________
reshape_12 (Reshape)             (None, 9, 4)          0           out1loc_9[0][0]                  
____________________________________________________________________________________________________
activation_1 (Activation)        (None, 10430, 21)     0           output_confs[0][0]               
____________________________________________________________________________________________________
output_locs (Concatenate)        (None, 10430, 4)      0           reshape_2[0][0]                  
                                                                   reshape_4[0][0]                  
                                                                   reshape_6[0][0]                  
                                                                   reshape_8[0][0]                  
                                                                   reshape_10[0][0]                 
                                                                   reshape_12[0][0]                 
____________________________________________________________________________________________________
outputs (Concatenate)            (None, 10430, 25)     0           activation_1[0][0]               
                                                                   output_locs[0][0]                
====================================================================================================
Total params: 17,981,312
Trainable params: 17,981,312
Non-trainable params: 0
____________________________________________________________________________________________________
