_________________________________________________________________
Layer (type)                 Output Shape              Param #   
=================================================================
input_1 (InputLayer)         (None, 32, 32, 3)         0         
_________________________________________________________________
conv2d_1 (Conv2D)            (None, 32, 32, 128)       3456      
_________________________________________________________________
batch_normalization_1 (Batch (None, 32, 32, 128)       512       
_________________________________________________________________
activation_1 (Activation)    (None, 32, 32, 128)       0         
_________________________________________________________________
conv2d_2 (Conv2D)            (None, 32, 32, 128)       147456    
_________________________________________________________________
batch_normalization_2 (Batch (None, 32, 32, 128)       512       
_________________________________________________________________
activation_2 (Activation)    (None, 32, 32, 128)       0         
_________________________________________________________________
conv2d_3 (Conv2D)            (None, 32, 32, 128)       147456    
_________________________________________________________________
batch_normalization_3 (Batch (None, 32, 32, 128)       512       
_________________________________________________________________
activation_3 (Activation)    (None, 32, 32, 128)       0         
_________________________________________________________________
conv2d_4 (Conv2D)            (None, 32, 32, 128)       147456    
_________________________________________________________________
batch_normalization_4 (Batch (None, 32, 32, 128)       512       
_________________________________________________________________
activation_4 (Activation)    (None, 32, 32, 128)       0         
_________________________________________________________________
max_pooling2d_1 (MaxPooling2 (None, 16, 16, 128)       0         
_________________________________________________________________
conv2d_5 (Conv2D)            (None, 16, 16, 256)       294912    
_________________________________________________________________
batch_normalization_5 (Batch (None, 16, 16, 256)       1024      
_________________________________________________________________
activation_5 (Activation)    (None, 16, 16, 256)       0         
_________________________________________________________________
conv2d_6 (Conv2D)            (None, 16, 16, 256)       589824    
_________________________________________________________________
batch_normalization_6 (Batch (None, 16, 16, 256)       1024      
_________________________________________________________________
activation_6 (Activation)    (None, 16, 16, 256)       0         
_________________________________________________________________
conv2d_7 (Conv2D)            (None, 16, 16, 256)       589824    
_________________________________________________________________
batch_normalization_7 (Batch (None, 16, 16, 256)       1024      
_________________________________________________________________
activation_7 (Activation)    (None, 16, 16, 256)       0         
_________________________________________________________________
conv2d_8 (Conv2D)            (None, 16, 16, 256)       589824    
_________________________________________________________________
batch_normalization_8 (Batch (None, 16, 16, 256)       1024      
_________________________________________________________________
activation_8 (Activation)    (None, 16, 16, 256)       0         
_________________________________________________________________
max_pooling2d_2 (MaxPooling2 (None, 8, 8, 256)         0         
_________________________________________________________________
conv2d_9 (Conv2D)            (None, 8, 8, 512)         1179648   
_________________________________________________________________
batch_normalization_9 (Batch (None, 8, 8, 512)         2048      
_________________________________________________________________
activation_9 (Activation)    (None, 8, 8, 512)         0         
_________________________________________________________________
conv2d_10 (Conv2D)           (None, 8, 8, 512)         2359296   
_________________________________________________________________
batch_normalization_10 (Batc (None, 8, 8, 512)         2048      
_________________________________________________________________
activation_10 (Activation)   (None, 8, 8, 512)         0         
_________________________________________________________________
conv2d_11 (Conv2D)           (None, 8, 8, 512)         2359296   
_________________________________________________________________
batch_normalization_11 (Batc (None, 8, 8, 512)         2048      
_________________________________________________________________
activation_11 (Activation)   (None, 8, 8, 512)         0         
_________________________________________________________________
conv2d_12 (Conv2D)           (None, 8, 8, 512)         2359296   
_________________________________________________________________
batch_normalization_12 (Batc (None, 8, 8, 512)         2048      
_________________________________________________________________
activation_12 (Activation)   (None, 8, 8, 512)         0         
_________________________________________________________________
global_average_pooling2d_1 ( (None, 512)               0         
_________________________________________________________________
predictions (Dense)          (None, 100)               51300     
=================================================================
Total params: 10,833,380
Trainable params: 10,826,212
Non-trainable params: 7,168
_________________________________________________________________
network depth: 13
