_run 開始
_create_model 開始
_create_model 終了 (3.472[s])
__________________________________________________________________________________________________
Layer (type)                    Output Shape         Param #     Connected to                     
==================================================================================================
input_1 (InputLayer)            (None, 32, 32, 3)    0                                            
__________________________________________________________________________________________________
start (Conv2D)                  (None, 32, 32, 128)  3456        input_1[0][0]                    
__________________________________________________________________________________________________
start_bn (BatchNormalization)   (None, 32, 32, 128)  512         start[0][0]                      
__________________________________________________________________________________________________
start_act (Activation)          (None, 32, 32, 128)  0           start_bn[0][0]                   
__________________________________________________________________________________________________
stage1_block_r0c1 (Conv2D)      (None, 32, 32, 128)  147456      start_act[0][0]                  
__________________________________________________________________________________________________
stage1_block_r0c1_bn (BatchNorm (None, 32, 32, 128)  512         stage1_block_r0c1[0][0]          
__________________________________________________________________________________________________
stage1_block_r0c1_act (Activati (None, 32, 32, 128)  0           stage1_block_r0c1_bn[0][0]       
__________________________________________________________________________________________________
dropout_1 (Dropout)             (None, 32, 32, 128)  0           stage1_block_r0c1_act[0][0]      
__________________________________________________________________________________________________
stage1_block_r0c2 (Conv2D)      (None, 32, 32, 128)  147456      dropout_1[0][0]                  
__________________________________________________________________________________________________
stage1_block_r0c2_bn (BatchNorm (None, 32, 32, 128)  512         stage1_block_r0c2[0][0]          
__________________________________________________________________________________________________
add_1 (Add)                     (None, 32, 32, 128)  0           start_act[0][0]                  
                                                                 stage1_block_r0c2_bn[0][0]       
__________________________________________________________________________________________________
stage1_block_r1c1 (Conv2D)      (None, 32, 32, 128)  147456      add_1[0][0]                      
__________________________________________________________________________________________________
stage1_block_r1c1_bn (BatchNorm (None, 32, 32, 128)  512         stage1_block_r1c1[0][0]          
__________________________________________________________________________________________________
stage1_block_r1c1_act (Activati (None, 32, 32, 128)  0           stage1_block_r1c1_bn[0][0]       
__________________________________________________________________________________________________
dropout_2 (Dropout)             (None, 32, 32, 128)  0           stage1_block_r1c1_act[0][0]      
__________________________________________________________________________________________________
stage1_block_r1c2 (Conv2D)      (None, 32, 32, 128)  147456      dropout_2[0][0]                  
__________________________________________________________________________________________________
stage1_block_r1c2_bn (BatchNorm (None, 32, 32, 128)  512         stage1_block_r1c2[0][0]          
__________________________________________________________________________________________________
add_2 (Add)                     (None, 32, 32, 128)  0           add_1[0][0]                      
                                                                 stage1_block_r1c2_bn[0][0]       
__________________________________________________________________________________________________
stage1_block_r2c1 (Conv2D)      (None, 32, 32, 128)  147456      add_2[0][0]                      
__________________________________________________________________________________________________
stage1_block_r2c1_bn (BatchNorm (None, 32, 32, 128)  512         stage1_block_r2c1[0][0]          
__________________________________________________________________________________________________
stage1_block_r2c1_act (Activati (None, 32, 32, 128)  0           stage1_block_r2c1_bn[0][0]       
__________________________________________________________________________________________________
dropout_3 (Dropout)             (None, 32, 32, 128)  0           stage1_block_r2c1_act[0][0]      
__________________________________________________________________________________________________
stage1_block_r2c2 (Conv2D)      (None, 32, 32, 128)  147456      dropout_3[0][0]                  
__________________________________________________________________________________________________
stage1_block_r2c2_bn (BatchNorm (None, 32, 32, 128)  512         stage1_block_r2c2[0][0]          
__________________________________________________________________________________________________
add_3 (Add)                     (None, 32, 32, 128)  0           add_2[0][0]                      
                                                                 stage1_block_r2c2_bn[0][0]       
__________________________________________________________________________________________________
stage1_block_r3c1 (Conv2D)      (None, 32, 32, 128)  147456      add_3[0][0]                      
__________________________________________________________________________________________________
stage1_block_r3c1_bn (BatchNorm (None, 32, 32, 128)  512         stage1_block_r3c1[0][0]          
__________________________________________________________________________________________________
stage1_block_r3c1_act (Activati (None, 32, 32, 128)  0           stage1_block_r3c1_bn[0][0]       
__________________________________________________________________________________________________
dropout_4 (Dropout)             (None, 32, 32, 128)  0           stage1_block_r3c1_act[0][0]      
__________________________________________________________________________________________________
stage1_block_r3c2 (Conv2D)      (None, 32, 32, 128)  147456      dropout_4[0][0]                  
__________________________________________________________________________________________________
stage1_block_r3c2_bn (BatchNorm (None, 32, 32, 128)  512         stage1_block_r3c2[0][0]          
__________________________________________________________________________________________________
add_4 (Add)                     (None, 32, 32, 128)  0           add_3[0][0]                      
                                                                 stage1_block_r3c2_bn[0][0]       
__________________________________________________________________________________________________
batch_normalization_1 (BatchNor (None, 32, 32, 128)  512         add_4[0][0]                      
__________________________________________________________________________________________________
activation_1 (Activation)       (None, 32, 32, 128)  0           batch_normalization_1[0][0]      
__________________________________________________________________________________________________
stage1_tran_conv (Conv2D)       (None, 32, 32, 256)  32768       activation_1[0][0]               
__________________________________________________________________________________________________
stage1_tran_conv_bn (BatchNorma (None, 32, 32, 256)  1024        stage1_tran_conv[0][0]           
__________________________________________________________________________________________________
stage1_tran_conv_act (Activatio (None, 32, 32, 256)  0           stage1_tran_conv_bn[0][0]        
__________________________________________________________________________________________________
max_pooling2d_1 (MaxPooling2D)  (None, 16, 16, 256)  0           stage1_tran_conv_act[0][0]       
__________________________________________________________________________________________________
stage2_block_r0c1 (Conv2D)      (None, 16, 16, 256)  589824      max_pooling2d_1[0][0]            
__________________________________________________________________________________________________
stage2_block_r0c1_bn (BatchNorm (None, 16, 16, 256)  1024        stage2_block_r0c1[0][0]          
__________________________________________________________________________________________________
stage2_block_r0c1_act (Activati (None, 16, 16, 256)  0           stage2_block_r0c1_bn[0][0]       
__________________________________________________________________________________________________
dropout_5 (Dropout)             (None, 16, 16, 256)  0           stage2_block_r0c1_act[0][0]      
__________________________________________________________________________________________________
stage2_block_r0c2 (Conv2D)      (None, 16, 16, 256)  589824      dropout_5[0][0]                  
__________________________________________________________________________________________________
stage2_block_r0c2_bn (BatchNorm (None, 16, 16, 256)  1024        stage2_block_r0c2[0][0]          
__________________________________________________________________________________________________
add_5 (Add)                     (None, 16, 16, 256)  0           max_pooling2d_1[0][0]            
                                                                 stage2_block_r0c2_bn[0][0]       
__________________________________________________________________________________________________
stage2_block_r1c1 (Conv2D)      (None, 16, 16, 256)  589824      add_5[0][0]                      
__________________________________________________________________________________________________
stage2_block_r1c1_bn (BatchNorm (None, 16, 16, 256)  1024        stage2_block_r1c1[0][0]          
__________________________________________________________________________________________________
stage2_block_r1c1_act (Activati (None, 16, 16, 256)  0           stage2_block_r1c1_bn[0][0]       
__________________________________________________________________________________________________
dropout_6 (Dropout)             (None, 16, 16, 256)  0           stage2_block_r1c1_act[0][0]      
__________________________________________________________________________________________________
stage2_block_r1c2 (Conv2D)      (None, 16, 16, 256)  589824      dropout_6[0][0]                  
__________________________________________________________________________________________________
stage2_block_r1c2_bn (BatchNorm (None, 16, 16, 256)  1024        stage2_block_r1c2[0][0]          
__________________________________________________________________________________________________
add_6 (Add)                     (None, 16, 16, 256)  0           add_5[0][0]                      
                                                                 stage2_block_r1c2_bn[0][0]       
__________________________________________________________________________________________________
stage2_block_r2c1 (Conv2D)      (None, 16, 16, 256)  589824      add_6[0][0]                      
__________________________________________________________________________________________________
stage2_block_r2c1_bn (BatchNorm (None, 16, 16, 256)  1024        stage2_block_r2c1[0][0]          
__________________________________________________________________________________________________
stage2_block_r2c1_act (Activati (None, 16, 16, 256)  0           stage2_block_r2c1_bn[0][0]       
__________________________________________________________________________________________________
dropout_7 (Dropout)             (None, 16, 16, 256)  0           stage2_block_r2c1_act[0][0]      
__________________________________________________________________________________________________
stage2_block_r2c2 (Conv2D)      (None, 16, 16, 256)  589824      dropout_7[0][0]                  
__________________________________________________________________________________________________
stage2_block_r2c2_bn (BatchNorm (None, 16, 16, 256)  1024        stage2_block_r2c2[0][0]          
__________________________________________________________________________________________________
add_7 (Add)                     (None, 16, 16, 256)  0           add_6[0][0]                      
                                                                 stage2_block_r2c2_bn[0][0]       
__________________________________________________________________________________________________
stage2_block_r3c1 (Conv2D)      (None, 16, 16, 256)  589824      add_7[0][0]                      
__________________________________________________________________________________________________
stage2_block_r3c1_bn (BatchNorm (None, 16, 16, 256)  1024        stage2_block_r3c1[0][0]          
__________________________________________________________________________________________________
stage2_block_r3c1_act (Activati (None, 16, 16, 256)  0           stage2_block_r3c1_bn[0][0]       
__________________________________________________________________________________________________
dropout_8 (Dropout)             (None, 16, 16, 256)  0           stage2_block_r3c1_act[0][0]      
__________________________________________________________________________________________________
stage2_block_r3c2 (Conv2D)      (None, 16, 16, 256)  589824      dropout_8[0][0]                  
__________________________________________________________________________________________________
stage2_block_r3c2_bn (BatchNorm (None, 16, 16, 256)  1024        stage2_block_r3c2[0][0]          
__________________________________________________________________________________________________
add_8 (Add)                     (None, 16, 16, 256)  0           add_7[0][0]                      
                                                                 stage2_block_r3c2_bn[0][0]       
__________________________________________________________________________________________________
stage2_block_r4c1 (Conv2D)      (None, 16, 16, 256)  589824      add_8[0][0]                      
__________________________________________________________________________________________________
stage2_block_r4c1_bn (BatchNorm (None, 16, 16, 256)  1024        stage2_block_r4c1[0][0]          
__________________________________________________________________________________________________
stage2_block_r4c1_act (Activati (None, 16, 16, 256)  0           stage2_block_r4c1_bn[0][0]       
__________________________________________________________________________________________________
dropout_9 (Dropout)             (None, 16, 16, 256)  0           stage2_block_r4c1_act[0][0]      
__________________________________________________________________________________________________
stage2_block_r4c2 (Conv2D)      (None, 16, 16, 256)  589824      dropout_9[0][0]                  
__________________________________________________________________________________________________
stage2_block_r4c2_bn (BatchNorm (None, 16, 16, 256)  1024        stage2_block_r4c2[0][0]          
__________________________________________________________________________________________________
add_9 (Add)                     (None, 16, 16, 256)  0           add_8[0][0]                      
                                                                 stage2_block_r4c2_bn[0][0]       
__________________________________________________________________________________________________
stage2_block_r5c1 (Conv2D)      (None, 16, 16, 256)  589824      add_9[0][0]                      
__________________________________________________________________________________________________
stage2_block_r5c1_bn (BatchNorm (None, 16, 16, 256)  1024        stage2_block_r5c1[0][0]          
__________________________________________________________________________________________________
stage2_block_r5c1_act (Activati (None, 16, 16, 256)  0           stage2_block_r5c1_bn[0][0]       
__________________________________________________________________________________________________
dropout_10 (Dropout)            (None, 16, 16, 256)  0           stage2_block_r5c1_act[0][0]      
__________________________________________________________________________________________________
stage2_block_r5c2 (Conv2D)      (None, 16, 16, 256)  589824      dropout_10[0][0]                 
__________________________________________________________________________________________________
stage2_block_r5c2_bn (BatchNorm (None, 16, 16, 256)  1024        stage2_block_r5c2[0][0]          
__________________________________________________________________________________________________
add_10 (Add)                    (None, 16, 16, 256)  0           add_9[0][0]                      
                                                                 stage2_block_r5c2_bn[0][0]       
__________________________________________________________________________________________________
stage2_block_r6c1 (Conv2D)      (None, 16, 16, 256)  589824      add_10[0][0]                     
__________________________________________________________________________________________________
stage2_block_r6c1_bn (BatchNorm (None, 16, 16, 256)  1024        stage2_block_r6c1[0][0]          
__________________________________________________________________________________________________
stage2_block_r6c1_act (Activati (None, 16, 16, 256)  0           stage2_block_r6c1_bn[0][0]       
__________________________________________________________________________________________________
dropout_11 (Dropout)            (None, 16, 16, 256)  0           stage2_block_r6c1_act[0][0]      
__________________________________________________________________________________________________
stage2_block_r6c2 (Conv2D)      (None, 16, 16, 256)  589824      dropout_11[0][0]                 
__________________________________________________________________________________________________
stage2_block_r6c2_bn (BatchNorm (None, 16, 16, 256)  1024        stage2_block_r6c2[0][0]          
__________________________________________________________________________________________________
add_11 (Add)                    (None, 16, 16, 256)  0           add_10[0][0]                     
                                                                 stage2_block_r6c2_bn[0][0]       
__________________________________________________________________________________________________
stage2_block_r7c1 (Conv2D)      (None, 16, 16, 256)  589824      add_11[0][0]                     
__________________________________________________________________________________________________
stage2_block_r7c1_bn (BatchNorm (None, 16, 16, 256)  1024        stage2_block_r7c1[0][0]          
__________________________________________________________________________________________________
stage2_block_r7c1_act (Activati (None, 16, 16, 256)  0           stage2_block_r7c1_bn[0][0]       
__________________________________________________________________________________________________
dropout_12 (Dropout)            (None, 16, 16, 256)  0           stage2_block_r7c1_act[0][0]      
__________________________________________________________________________________________________
stage2_block_r7c2 (Conv2D)      (None, 16, 16, 256)  589824      dropout_12[0][0]                 
__________________________________________________________________________________________________
stage2_block_r7c2_bn (BatchNorm (None, 16, 16, 256)  1024        stage2_block_r7c2[0][0]          
__________________________________________________________________________________________________
add_12 (Add)                    (None, 16, 16, 256)  0           add_11[0][0]                     
                                                                 stage2_block_r7c2_bn[0][0]       
__________________________________________________________________________________________________
stage2_block_r8c1 (Conv2D)      (None, 16, 16, 256)  589824      add_12[0][0]                     
__________________________________________________________________________________________________
stage2_block_r8c1_bn (BatchNorm (None, 16, 16, 256)  1024        stage2_block_r8c1[0][0]          
__________________________________________________________________________________________________
stage2_block_r8c1_act (Activati (None, 16, 16, 256)  0           stage2_block_r8c1_bn[0][0]       
__________________________________________________________________________________________________
dropout_13 (Dropout)            (None, 16, 16, 256)  0           stage2_block_r8c1_act[0][0]      
__________________________________________________________________________________________________
stage2_block_r8c2 (Conv2D)      (None, 16, 16, 256)  589824      dropout_13[0][0]                 
__________________________________________________________________________________________________
stage2_block_r8c2_bn (BatchNorm (None, 16, 16, 256)  1024        stage2_block_r8c2[0][0]          
__________________________________________________________________________________________________
add_13 (Add)                    (None, 16, 16, 256)  0           add_12[0][0]                     
                                                                 stage2_block_r8c2_bn[0][0]       
__________________________________________________________________________________________________
stage2_block_r9c1 (Conv2D)      (None, 16, 16, 256)  589824      add_13[0][0]                     
__________________________________________________________________________________________________
stage2_block_r9c1_bn (BatchNorm (None, 16, 16, 256)  1024        stage2_block_r9c1[0][0]          
__________________________________________________________________________________________________
stage2_block_r9c1_act (Activati (None, 16, 16, 256)  0           stage2_block_r9c1_bn[0][0]       
__________________________________________________________________________________________________
dropout_14 (Dropout)            (None, 16, 16, 256)  0           stage2_block_r9c1_act[0][0]      
__________________________________________________________________________________________________
stage2_block_r9c2 (Conv2D)      (None, 16, 16, 256)  589824      dropout_14[0][0]                 
__________________________________________________________________________________________________
stage2_block_r9c2_bn (BatchNorm (None, 16, 16, 256)  1024        stage2_block_r9c2[0][0]          
__________________________________________________________________________________________________
add_14 (Add)                    (None, 16, 16, 256)  0           add_13[0][0]                     
                                                                 stage2_block_r9c2_bn[0][0]       
__________________________________________________________________________________________________
stage2_block_r10c1 (Conv2D)     (None, 16, 16, 256)  589824      add_14[0][0]                     
__________________________________________________________________________________________________
stage2_block_r10c1_bn (BatchNor (None, 16, 16, 256)  1024        stage2_block_r10c1[0][0]         
__________________________________________________________________________________________________
stage2_block_r10c1_act (Activat (None, 16, 16, 256)  0           stage2_block_r10c1_bn[0][0]      
__________________________________________________________________________________________________
dropout_15 (Dropout)            (None, 16, 16, 256)  0           stage2_block_r10c1_act[0][0]     
__________________________________________________________________________________________________
stage2_block_r10c2 (Conv2D)     (None, 16, 16, 256)  589824      dropout_15[0][0]                 
__________________________________________________________________________________________________
stage2_block_r10c2_bn (BatchNor (None, 16, 16, 256)  1024        stage2_block_r10c2[0][0]         
__________________________________________________________________________________________________
add_15 (Add)                    (None, 16, 16, 256)  0           add_14[0][0]                     
                                                                 stage2_block_r10c2_bn[0][0]      
__________________________________________________________________________________________________
stage2_block_r11c1 (Conv2D)     (None, 16, 16, 256)  589824      add_15[0][0]                     
__________________________________________________________________________________________________
stage2_block_r11c1_bn (BatchNor (None, 16, 16, 256)  1024        stage2_block_r11c1[0][0]         
__________________________________________________________________________________________________
stage2_block_r11c1_act (Activat (None, 16, 16, 256)  0           stage2_block_r11c1_bn[0][0]      
__________________________________________________________________________________________________
dropout_16 (Dropout)            (None, 16, 16, 256)  0           stage2_block_r11c1_act[0][0]     
__________________________________________________________________________________________________
stage2_block_r11c2 (Conv2D)     (None, 16, 16, 256)  589824      dropout_16[0][0]                 
__________________________________________________________________________________________________
stage2_block_r11c2_bn (BatchNor (None, 16, 16, 256)  1024        stage2_block_r11c2[0][0]         
__________________________________________________________________________________________________
add_16 (Add)                    (None, 16, 16, 256)  0           add_15[0][0]                     
                                                                 stage2_block_r11c2_bn[0][0]      
__________________________________________________________________________________________________
batch_normalization_2 (BatchNor (None, 16, 16, 256)  1024        add_16[0][0]                     
__________________________________________________________________________________________________
activation_2 (Activation)       (None, 16, 16, 256)  0           batch_normalization_2[0][0]      
__________________________________________________________________________________________________
stage2_tran_conv (Conv2D)       (None, 16, 16, 512)  131072      activation_2[0][0]               
__________________________________________________________________________________________________
stage2_tran_conv_bn (BatchNorma (None, 16, 16, 512)  2048        stage2_tran_conv[0][0]           
__________________________________________________________________________________________________
stage2_tran_conv_act (Activatio (None, 16, 16, 512)  0           stage2_tran_conv_bn[0][0]        
__________________________________________________________________________________________________
max_pooling2d_2 (MaxPooling2D)  (None, 8, 8, 512)    0           stage2_tran_conv_act[0][0]       
__________________________________________________________________________________________________
stage3_block_r0c1 (Conv2D)      (None, 8, 8, 512)    2359296     max_pooling2d_2[0][0]            
__________________________________________________________________________________________________
stage3_block_r0c1_bn (BatchNorm (None, 8, 8, 512)    2048        stage3_block_r0c1[0][0]          
__________________________________________________________________________________________________
stage3_block_r0c1_act (Activati (None, 8, 8, 512)    0           stage3_block_r0c1_bn[0][0]       
__________________________________________________________________________________________________
dropout_17 (Dropout)            (None, 8, 8, 512)    0           stage3_block_r0c1_act[0][0]      
__________________________________________________________________________________________________
stage3_block_r0c2 (Conv2D)      (None, 8, 8, 512)    2359296     dropout_17[0][0]                 
__________________________________________________________________________________________________
stage3_block_r0c2_bn (BatchNorm (None, 8, 8, 512)    2048        stage3_block_r0c2[0][0]          
__________________________________________________________________________________________________
add_17 (Add)                    (None, 8, 8, 512)    0           max_pooling2d_2[0][0]            
                                                                 stage3_block_r0c2_bn[0][0]       
__________________________________________________________________________________________________
stage3_block_r1c1 (Conv2D)      (None, 8, 8, 512)    2359296     add_17[0][0]                     
__________________________________________________________________________________________________
stage3_block_r1c1_bn (BatchNorm (None, 8, 8, 512)    2048        stage3_block_r1c1[0][0]          
__________________________________________________________________________________________________
stage3_block_r1c1_act (Activati (None, 8, 8, 512)    0           stage3_block_r1c1_bn[0][0]       
__________________________________________________________________________________________________
dropout_18 (Dropout)            (None, 8, 8, 512)    0           stage3_block_r1c1_act[0][0]      
__________________________________________________________________________________________________
stage3_block_r1c2 (Conv2D)      (None, 8, 8, 512)    2359296     dropout_18[0][0]                 
__________________________________________________________________________________________________
stage3_block_r1c2_bn (BatchNorm (None, 8, 8, 512)    2048        stage3_block_r1c2[0][0]          
__________________________________________________________________________________________________
add_18 (Add)                    (None, 8, 8, 512)    0           add_17[0][0]                     
                                                                 stage3_block_r1c2_bn[0][0]       
__________________________________________________________________________________________________
stage3_block_r2c1 (Conv2D)      (None, 8, 8, 512)    2359296     add_18[0][0]                     
__________________________________________________________________________________________________
stage3_block_r2c1_bn (BatchNorm (None, 8, 8, 512)    2048        stage3_block_r2c1[0][0]          
__________________________________________________________________________________________________
stage3_block_r2c1_act (Activati (None, 8, 8, 512)    0           stage3_block_r2c1_bn[0][0]       
__________________________________________________________________________________________________
dropout_19 (Dropout)            (None, 8, 8, 512)    0           stage3_block_r2c1_act[0][0]      
__________________________________________________________________________________________________
stage3_block_r2c2 (Conv2D)      (None, 8, 8, 512)    2359296     dropout_19[0][0]                 
__________________________________________________________________________________________________
stage3_block_r2c2_bn (BatchNorm (None, 8, 8, 512)    2048        stage3_block_r2c2[0][0]          
__________________________________________________________________________________________________
add_19 (Add)                    (None, 8, 8, 512)    0           add_18[0][0]                     
                                                                 stage3_block_r2c2_bn[0][0]       
__________________________________________________________________________________________________
stage3_block_r3c1 (Conv2D)      (None, 8, 8, 512)    2359296     add_19[0][0]                     
__________________________________________________________________________________________________
stage3_block_r3c1_bn (BatchNorm (None, 8, 8, 512)    2048        stage3_block_r3c1[0][0]          
__________________________________________________________________________________________________
stage3_block_r3c1_act (Activati (None, 8, 8, 512)    0           stage3_block_r3c1_bn[0][0]       
__________________________________________________________________________________________________
dropout_20 (Dropout)            (None, 8, 8, 512)    0           stage3_block_r3c1_act[0][0]      
__________________________________________________________________________________________________
stage3_block_r3c2 (Conv2D)      (None, 8, 8, 512)    2359296     dropout_20[0][0]                 
__________________________________________________________________________________________________
stage3_block_r3c2_bn (BatchNorm (None, 8, 8, 512)    2048        stage3_block_r3c2[0][0]          
__________________________________________________________________________________________________
add_20 (Add)                    (None, 8, 8, 512)    0           add_19[0][0]                     
                                                                 stage3_block_r3c2_bn[0][0]       
__________________________________________________________________________________________________
batch_normalization_3 (BatchNor (None, 8, 8, 512)    2048        add_20[0][0]                     
__________________________________________________________________________________________________
activation_3 (Activation)       (None, 8, 8, 512)    0           batch_normalization_3[0][0]      
__________________________________________________________________________________________________
dropout_21 (Dropout)            (None, 8, 8, 512)    0           activation_3[0][0]               
__________________________________________________________________________________________________
global_average_pooling2d_1 (Glo (None, 512)          0           dropout_21[0][0]                 
__________________________________________________________________________________________________
predictions (Dense)             (None, 100)          51300       global_average_pooling2d_1[0][0] 
==================================================================================================
Total params: 34,480,612
Trainable params: 34,454,500
Non-trainable params: 26,112
__________________________________________________________________________________________________
network depth: 44
Learning rate: 5.0e-01 -> 5.0e-02
Learning rate: 5.0e-02 -> 5.0e-03
…
