____________________________________________________________________________________________________
Layer (type)                     Output Shape          Param #     Connected to                     
====================================================================================================
input_1 (InputLayer)             (None, 32, 32, 3)     0                                            
____________________________________________________________________________________________________
conv2d_1 (Conv2D)                (None, 32, 32, 128)   3584        input_1[0][0]                    
____________________________________________________________________________________________________
stage1_block_b1_sqbn (BatchNorma (None, 32, 32, 128)   512         conv2d_1[0][0]                   
____________________________________________________________________________________________________
stage1_block_b1_sqact (ELU)      (None, 32, 32, 128)   0           stage1_block_b1_sqbn[0][0]       
____________________________________________________________________________________________________
stage1_block_b1_sq (Conv2D)      (None, 32, 32, 64)    8192        stage1_block_b1_sqact[0][0]      
____________________________________________________________________________________________________
stage1_block_b1_exbn (BatchNorma (None, 32, 32, 64)    256         stage1_block_b1_sq[0][0]         
____________________________________________________________________________________________________
stage1_block_b1_exact (ELU)      (None, 32, 32, 64)    0           stage1_block_b1_exbn[0][0]       
____________________________________________________________________________________________________
stage1_block_b1_exdo (Dropout)   (None, 32, 32, 64)    0           stage1_block_b1_exact[0][0]      
____________________________________________________________________________________________________
stage1_block_b1_ex (Conv2D)      (None, 32, 32, 128)   73728       stage1_block_b1_exdo[0][0]       
____________________________________________________________________________________________________
stage1_block_b2_sqbn (BatchNorma (None, 32, 32, 128)   512         stage1_block_b1_ex[0][0]         
____________________________________________________________________________________________________
stage1_block_b2_sqact (ELU)      (None, 32, 32, 128)   0           stage1_block_b2_sqbn[0][0]       
____________________________________________________________________________________________________
stage1_block_b2_sq (Conv2D)      (None, 32, 32, 64)    8192        stage1_block_b2_sqact[0][0]      
____________________________________________________________________________________________________
stage1_block_b2_exbn (BatchNorma (None, 32, 32, 64)    256         stage1_block_b2_sq[0][0]         
____________________________________________________________________________________________________
stage1_block_b2_exact (ELU)      (None, 32, 32, 64)    0           stage1_block_b2_exbn[0][0]       
____________________________________________________________________________________________________
stage1_block_b2_exdo (Dropout)   (None, 32, 32, 64)    0           stage1_block_b2_exact[0][0]      
____________________________________________________________________________________________________
stage1_block_b2_ex (Conv2D)      (None, 32, 32, 128)   73728       stage1_block_b2_exdo[0][0]       
____________________________________________________________________________________________________
stage1_block_b3_sqbn (BatchNorma (None, 32, 32, 128)   512         stage1_block_b2_ex[0][0]         
____________________________________________________________________________________________________
stage1_block_b3_sqact (ELU)      (None, 32, 32, 128)   0           stage1_block_b3_sqbn[0][0]       
____________________________________________________________________________________________________
stage1_block_b3_sq (Conv2D)      (None, 32, 32, 64)    8192        stage1_block_b3_sqact[0][0]      
____________________________________________________________________________________________________
stage1_block_b3_exbn (BatchNorma (None, 32, 32, 64)    256         stage1_block_b3_sq[0][0]         
____________________________________________________________________________________________________
stage1_block_b3_exact (ELU)      (None, 32, 32, 64)    0           stage1_block_b3_exbn[0][0]       
____________________________________________________________________________________________________
stage1_block_b3_exdo (Dropout)   (None, 32, 32, 64)    0           stage1_block_b3_exact[0][0]      
____________________________________________________________________________________________________
stage1_block_b3_ex (Conv2D)      (None, 32, 32, 128)   73728       stage1_block_b3_exdo[0][0]       
____________________________________________________________________________________________________
stage1_block_b4_sqbn (BatchNorma (None, 32, 32, 128)   512         stage1_block_b3_ex[0][0]         
____________________________________________________________________________________________________
stage1_block_b4_sqact (ELU)      (None, 32, 32, 128)   0           stage1_block_b4_sqbn[0][0]       
____________________________________________________________________________________________________
stage1_block_b4_sq (Conv2D)      (None, 32, 32, 64)    8192        stage1_block_b4_sqact[0][0]      
____________________________________________________________________________________________________
stage1_block_b4_exbn (BatchNorma (None, 32, 32, 64)    256         stage1_block_b4_sq[0][0]         
____________________________________________________________________________________________________
stage1_block_b4_exact (ELU)      (None, 32, 32, 64)    0           stage1_block_b4_exbn[0][0]       
____________________________________________________________________________________________________
stage1_block_b4_exdo (Dropout)   (None, 32, 32, 64)    0           stage1_block_b4_exact[0][0]      
____________________________________________________________________________________________________
stage1_block_b4_ex (Conv2D)      (None, 32, 32, 128)   73728       stage1_block_b4_exdo[0][0]       
____________________________________________________________________________________________________
concatenate_1 (Concatenate)      (None, 32, 32, 512)   0           stage1_block_b1_ex[0][0]         
                                                                   stage1_block_b2_ex[0][0]         
                                                                   stage1_block_b3_ex[0][0]         
                                                                   stage1_block_b4_ex[0][0]         
____________________________________________________________________________________________________
stage1_block_mixedbn (BatchNorma (None, 32, 32, 512)   2048        concatenate_1[0][0]              
____________________________________________________________________________________________________
stage1_block_mixedact (ELU)      (None, 32, 32, 512)   0           stage1_block_mixedbn[0][0]       
____________________________________________________________________________________________________
stage1_block_mixed (Conv2D)      (None, 32, 32, 128)   65536       stage1_block_mixedact[0][0]      
____________________________________________________________________________________________________
add_1 (Add)                      (None, 32, 32, 128)   0           conv2d_1[0][0]                   
                                                                   stage1_block_mixed[0][0]         
____________________________________________________________________________________________________
stage1_ds_sqbn (BatchNormalizati (None, 32, 32, 128)   512         add_1[0][0]                      
____________________________________________________________________________________________________
stage1_ds_sqact (ELU)            (None, 32, 32, 128)   0           stage1_ds_sqbn[0][0]             
____________________________________________________________________________________________________
stage1_ds_sq (Conv2D)            (None, 32, 32, 32)    4096        stage1_ds_sqact[0][0]            
____________________________________________________________________________________________________
stage1_ds_dsbn (BatchNormalizati (None, 32, 32, 32)    128         stage1_ds_sq[0][0]               
____________________________________________________________________________________________________
stage1_ds_dsact (ELU)            (None, 32, 32, 32)    0           stage1_ds_dsbn[0][0]             
____________________________________________________________________________________________________
max_pooling2d_1 (MaxPooling2D)   (None, 16, 16, 128)   0           add_1[0][0]                      
____________________________________________________________________________________________________
stage1_ds_ds (Conv2D)            (None, 16, 16, 128)   36864       stage1_ds_dsact[0][0]            
____________________________________________________________________________________________________
concatenate_2 (Concatenate)      (None, 16, 16, 256)   0           max_pooling2d_1[0][0]            
                                                                   stage1_ds_ds[0][0]               
____________________________________________________________________________________________________
stage2_block_b1_sqbn (BatchNorma (None, 16, 16, 256)   1024        concatenate_2[0][0]              
____________________________________________________________________________________________________
stage2_block_b1_sqact (ELU)      (None, 16, 16, 256)   0           stage2_block_b1_sqbn[0][0]       
____________________________________________________________________________________________________
stage2_block_b1_sq (Conv2D)      (None, 16, 16, 128)   32768       stage2_block_b1_sqact[0][0]      
____________________________________________________________________________________________________
stage2_block_b1_exbn (BatchNorma (None, 16, 16, 128)   512         stage2_block_b1_sq[0][0]         
____________________________________________________________________________________________________
stage2_block_b1_exact (ELU)      (None, 16, 16, 128)   0           stage2_block_b1_exbn[0][0]       
____________________________________________________________________________________________________
stage2_block_b1_exdo (Dropout)   (None, 16, 16, 128)   0           stage2_block_b1_exact[0][0]      
____________________________________________________________________________________________________
stage2_block_b1_ex (Conv2D)      (None, 16, 16, 256)   294912      stage2_block_b1_exdo[0][0]       
____________________________________________________________________________________________________
stage2_block_b2_sqbn (BatchNorma (None, 16, 16, 256)   1024        stage2_block_b1_ex[0][0]         
____________________________________________________________________________________________________
stage2_block_b2_sqact (ELU)      (None, 16, 16, 256)   0           stage2_block_b2_sqbn[0][0]       
____________________________________________________________________________________________________
stage2_block_b2_sq (Conv2D)      (None, 16, 16, 128)   32768       stage2_block_b2_sqact[0][0]      
____________________________________________________________________________________________________
stage2_block_b2_exbn (BatchNorma (None, 16, 16, 128)   512         stage2_block_b2_sq[0][0]         
____________________________________________________________________________________________________
stage2_block_b2_exact (ELU)      (None, 16, 16, 128)   0           stage2_block_b2_exbn[0][0]       
____________________________________________________________________________________________________
stage2_block_b2_exdo (Dropout)   (None, 16, 16, 128)   0           stage2_block_b2_exact[0][0]      
____________________________________________________________________________________________________
stage2_block_b2_ex (Conv2D)      (None, 16, 16, 256)   294912      stage2_block_b2_exdo[0][0]       
____________________________________________________________________________________________________
stage2_block_b3_sqbn (BatchNorma (None, 16, 16, 256)   1024        stage2_block_b2_ex[0][0]         
____________________________________________________________________________________________________
stage2_block_b3_sqact (ELU)      (None, 16, 16, 256)   0           stage2_block_b3_sqbn[0][0]       
____________________________________________________________________________________________________
stage2_block_b3_sq (Conv2D)      (None, 16, 16, 128)   32768       stage2_block_b3_sqact[0][0]      
____________________________________________________________________________________________________
stage2_block_b3_exbn (BatchNorma (None, 16, 16, 128)   512         stage2_block_b3_sq[0][0]         
____________________________________________________________________________________________________
stage2_block_b3_exact (ELU)      (None, 16, 16, 128)   0           stage2_block_b3_exbn[0][0]       
____________________________________________________________________________________________________
stage2_block_b3_exdo (Dropout)   (None, 16, 16, 128)   0           stage2_block_b3_exact[0][0]      
____________________________________________________________________________________________________
stage2_block_b3_ex (Conv2D)      (None, 16, 16, 256)   294912      stage2_block_b3_exdo[0][0]       
____________________________________________________________________________________________________
stage2_block_b4_sqbn (BatchNorma (None, 16, 16, 256)   1024        stage2_block_b3_ex[0][0]         
____________________________________________________________________________________________________
stage2_block_b4_sqact (ELU)      (None, 16, 16, 256)   0           stage2_block_b4_sqbn[0][0]       
____________________________________________________________________________________________________
stage2_block_b4_sq (Conv2D)      (None, 16, 16, 128)   32768       stage2_block_b4_sqact[0][0]      
____________________________________________________________________________________________________
stage2_block_b4_exbn (BatchNorma (None, 16, 16, 128)   512         stage2_block_b4_sq[0][0]         
____________________________________________________________________________________________________
stage2_block_b4_exact (ELU)      (None, 16, 16, 128)   0           stage2_block_b4_exbn[0][0]       
____________________________________________________________________________________________________
stage2_block_b4_exdo (Dropout)   (None, 16, 16, 128)   0           stage2_block_b4_exact[0][0]      
____________________________________________________________________________________________________
stage2_block_b4_ex (Conv2D)      (None, 16, 16, 256)   294912      stage2_block_b4_exdo[0][0]       
____________________________________________________________________________________________________
concatenate_3 (Concatenate)      (None, 16, 16, 1024)  0           stage2_block_b1_ex[0][0]         
                                                                   stage2_block_b2_ex[0][0]         
                                                                   stage2_block_b3_ex[0][0]         
                                                                   stage2_block_b4_ex[0][0]         
____________________________________________________________________________________________________
stage2_block_mixedbn (BatchNorma (None, 16, 16, 1024)  4096        concatenate_3[0][0]              
____________________________________________________________________________________________________
stage2_block_mixedact (ELU)      (None, 16, 16, 1024)  0           stage2_block_mixedbn[0][0]       
____________________________________________________________________________________________________
stage2_block_mixed (Conv2D)      (None, 16, 16, 256)   262144      stage2_block_mixedact[0][0]      
____________________________________________________________________________________________________
add_2 (Add)                      (None, 16, 16, 256)   0           concatenate_2[0][0]              
                                                                   stage2_block_mixed[0][0]         
____________________________________________________________________________________________________
stage2_ds_sqbn (BatchNormalizati (None, 16, 16, 256)   1024        add_2[0][0]                      
____________________________________________________________________________________________________
stage2_ds_sqact (ELU)            (None, 16, 16, 256)   0           stage2_ds_sqbn[0][0]             
____________________________________________________________________________________________________
stage2_ds_sq (Conv2D)            (None, 16, 16, 64)    16384       stage2_ds_sqact[0][0]            
____________________________________________________________________________________________________
stage2_ds_dsbn (BatchNormalizati (None, 16, 16, 64)    256         stage2_ds_sq[0][0]               
____________________________________________________________________________________________________
stage2_ds_dsact (ELU)            (None, 16, 16, 64)    0           stage2_ds_dsbn[0][0]             
____________________________________________________________________________________________________
max_pooling2d_2 (MaxPooling2D)   (None, 8, 8, 256)     0           add_2[0][0]                      
____________________________________________________________________________________________________
stage2_ds_ds (Conv2D)            (None, 8, 8, 256)     147456      stage2_ds_dsact[0][0]            
____________________________________________________________________________________________________
concatenate_4 (Concatenate)      (None, 8, 8, 512)     0           max_pooling2d_2[0][0]            
                                                                   stage2_ds_ds[0][0]               
____________________________________________________________________________________________________
stage3_block_b1_sqbn (BatchNorma (None, 8, 8, 512)     2048        concatenate_4[0][0]              
____________________________________________________________________________________________________
stage3_block_b1_sqact (ELU)      (None, 8, 8, 512)     0           stage3_block_b1_sqbn[0][0]       
____________________________________________________________________________________________________
stage3_block_b1_sq (Conv2D)      (None, 8, 8, 256)     131072      stage3_block_b1_sqact[0][0]      
____________________________________________________________________________________________________
stage3_block_b1_exbn (BatchNorma (None, 8, 8, 256)     1024        stage3_block_b1_sq[0][0]         
____________________________________________________________________________________________________
stage3_block_b1_exact (ELU)      (None, 8, 8, 256)     0           stage3_block_b1_exbn[0][0]       
____________________________________________________________________________________________________
stage3_block_b1_exdo (Dropout)   (None, 8, 8, 256)     0           stage3_block_b1_exact[0][0]      
____________________________________________________________________________________________________
stage3_block_b1_ex (Conv2D)      (None, 8, 8, 512)     1179648     stage3_block_b1_exdo[0][0]       
____________________________________________________________________________________________________
stage3_block_b2_sqbn (BatchNorma (None, 8, 8, 512)     2048        stage3_block_b1_ex[0][0]         
____________________________________________________________________________________________________
stage3_block_b2_sqact (ELU)      (None, 8, 8, 512)     0           stage3_block_b2_sqbn[0][0]       
____________________________________________________________________________________________________
stage3_block_b2_sq (Conv2D)      (None, 8, 8, 256)     131072      stage3_block_b2_sqact[0][0]      
____________________________________________________________________________________________________
stage3_block_b2_exbn (BatchNorma (None, 8, 8, 256)     1024        stage3_block_b2_sq[0][0]         
____________________________________________________________________________________________________
stage3_block_b2_exact (ELU)      (None, 8, 8, 256)     0           stage3_block_b2_exbn[0][0]       
____________________________________________________________________________________________________
stage3_block_b2_exdo (Dropout)   (None, 8, 8, 256)     0           stage3_block_b2_exact[0][0]      
____________________________________________________________________________________________________
stage3_block_b2_ex (Conv2D)      (None, 8, 8, 512)     1179648     stage3_block_b2_exdo[0][0]       
____________________________________________________________________________________________________
stage3_block_b3_sqbn (BatchNorma (None, 8, 8, 512)     2048        stage3_block_b2_ex[0][0]         
____________________________________________________________________________________________________
stage3_block_b3_sqact (ELU)      (None, 8, 8, 512)     0           stage3_block_b3_sqbn[0][0]       
____________________________________________________________________________________________________
stage3_block_b3_sq (Conv2D)      (None, 8, 8, 256)     131072      stage3_block_b3_sqact[0][0]      
____________________________________________________________________________________________________
stage3_block_b3_exbn (BatchNorma (None, 8, 8, 256)     1024        stage3_block_b3_sq[0][0]         
____________________________________________________________________________________________________
stage3_block_b3_exact (ELU)      (None, 8, 8, 256)     0           stage3_block_b3_exbn[0][0]       
____________________________________________________________________________________________________
stage3_block_b3_exdo (Dropout)   (None, 8, 8, 256)     0           stage3_block_b3_exact[0][0]      
____________________________________________________________________________________________________
stage3_block_b3_ex (Conv2D)      (None, 8, 8, 512)     1179648     stage3_block_b3_exdo[0][0]       
____________________________________________________________________________________________________
stage3_block_b4_sqbn (BatchNorma (None, 8, 8, 512)     2048        stage3_block_b3_ex[0][0]         
____________________________________________________________________________________________________
stage3_block_b4_sqact (ELU)      (None, 8, 8, 512)     0           stage3_block_b4_sqbn[0][0]       
____________________________________________________________________________________________________
stage3_block_b4_sq (Conv2D)      (None, 8, 8, 256)     131072      stage3_block_b4_sqact[0][0]      
____________________________________________________________________________________________________
stage3_block_b4_exbn (BatchNorma (None, 8, 8, 256)     1024        stage3_block_b4_sq[0][0]         
____________________________________________________________________________________________________
stage3_block_b4_exact (ELU)      (None, 8, 8, 256)     0           stage3_block_b4_exbn[0][0]       
____________________________________________________________________________________________________
stage3_block_b4_exdo (Dropout)   (None, 8, 8, 256)     0           stage3_block_b4_exact[0][0]      
____________________________________________________________________________________________________
stage3_block_b4_ex (Conv2D)      (None, 8, 8, 512)     1179648     stage3_block_b4_exdo[0][0]       
____________________________________________________________________________________________________
concatenate_5 (Concatenate)      (None, 8, 8, 2048)    0           stage3_block_b1_ex[0][0]         
                                                                   stage3_block_b2_ex[0][0]         
                                                                   stage3_block_b3_ex[0][0]         
                                                                   stage3_block_b4_ex[0][0]         
____________________________________________________________________________________________________
stage3_block_mixedbn (BatchNorma (None, 8, 8, 2048)    8192        concatenate_5[0][0]              
____________________________________________________________________________________________________
stage3_block_mixedact (ELU)      (None, 8, 8, 2048)    0           stage3_block_mixedbn[0][0]       
____________________________________________________________________________________________________
stage3_block_mixed (Conv2D)      (None, 8, 8, 512)     1048576     stage3_block_mixedact[0][0]      
____________________________________________________________________________________________________
add_3 (Add)                      (None, 8, 8, 512)     0           concatenate_4[0][0]              
                                                                   stage3_block_mixed[0][0]         
____________________________________________________________________________________________________
batch_normalization_1 (BatchNorm (None, 8, 8, 512)     2048        add_3[0][0]                      
____________________________________________________________________________________________________
elu_1 (ELU)                      (None, 8, 8, 512)     0           batch_normalization_1[0][0]      
____________________________________________________________________________________________________
global_average_pooling2d_1 (Glob (None, 512)           0           elu_1[0][0]                      
____________________________________________________________________________________________________
dense_1 (Dense)                  (None, 100)           51300       global_average_pooling2d_1[0][0] 
====================================================================================================
Total params: 8,557,028
Trainable params: 8,537,124
Non-trainable params: 19,904
____________________________________________________________________________________________________
Test loss:     1.2368384784460067
Test accuracy: 0.7555999797582627
Test error:    0.24440002024173735
…
