_run 開始
create network 開始
create network 終了 (10.668[s])
compile 開始
lr = 2.50e-01
compile 終了 (4.280[s])
__________________________________________________________________________________________________
Layer (type)                    Output Shape         Param #     Connected to                     
==================================================================================================
input_1 (InputLayer)            (None, 32, 32, 3)    0                                            
__________________________________________________________________________________________________
stage1_block_start (Conv2D)     (None, 32, 32, 128)  3456        input_1[0][0]                    
__________________________________________________________________________________________________
stage1_block_start_bn (BatchNor (None, 32, 32, 128)  512         stage1_block_start[0][0]         
__________________________________________________________________________________________________
stage1_block_r0_c1 (Conv2D)     (None, 32, 32, 32)   36864       stage1_block_start_bn[0][0]      
__________________________________________________________________________________________________
stage1_block_r0_c1_bn (BatchNor (None, 32, 32, 32)   128         stage1_block_r0_c1[0][0]         
__________________________________________________________________________________________________
stage1_block_r0_c1_act (Activat (None, 32, 32, 32)   0           stage1_block_r0_c1_bn[0][0]      
__________________________________________________________________________________________________
stage1_block_r0_d0 (Conv2D)     (None, 32, 32, 16)   4608        stage1_block_r0_c1_act[0][0]     
__________________________________________________________________________________________________
stage1_block_r0_d0_bn (BatchNor (None, 32, 32, 16)   64          stage1_block_r0_d0[0][0]         
__________________________________________________________________________________________________
stage1_block_r0_d0_act (Activat (None, 32, 32, 16)   0           stage1_block_r0_d0_bn[0][0]      
__________________________________________________________________________________________________
concatenate_1 (Concatenate)     (None, 32, 32, 48)   0           stage1_block_r0_c1_act[0][0]     
                                                                 stage1_block_r0_d0_act[0][0]     
__________________________________________________________________________________________________
stage1_block_r0_d1 (Conv2D)     (None, 32, 32, 16)   6912        concatenate_1[0][0]              
__________________________________________________________________________________________________
stage1_block_r0_d1_bn (BatchNor (None, 32, 32, 16)   64          stage1_block_r0_d1[0][0]         
__________________________________________________________________________________________________
stage1_block_r0_d1_act (Activat (None, 32, 32, 16)   0           stage1_block_r0_d1_bn[0][0]      
__________________________________________________________________________________________________
concatenate_2 (Concatenate)     (None, 32, 32, 64)   0           concatenate_1[0][0]              
                                                                 stage1_block_r0_d1_act[0][0]     
__________________________________________________________________________________________________
stage1_block_r0_d2 (Conv2D)     (None, 32, 32, 16)   9216        concatenate_2[0][0]              
__________________________________________________________________________________________________
stage1_block_r0_d2_bn (BatchNor (None, 32, 32, 16)   64          stage1_block_r0_d2[0][0]         
__________________________________________________________________________________________________
stage1_block_r0_d2_act (Activat (None, 32, 32, 16)   0           stage1_block_r0_d2_bn[0][0]      
__________________________________________________________________________________________________
concatenate_3 (Concatenate)     (None, 32, 32, 80)   0           concatenate_2[0][0]              
                                                                 stage1_block_r0_d2_act[0][0]     
__________________________________________________________________________________________________
stage1_block_r0_d3 (Conv2D)     (None, 32, 32, 16)   11520       concatenate_3[0][0]              
__________________________________________________________________________________________________
stage1_block_r0_d3_bn (BatchNor (None, 32, 32, 16)   64          stage1_block_r0_d3[0][0]         
__________________________________________________________________________________________________
stage1_block_r0_d3_act (Activat (None, 32, 32, 16)   0           stage1_block_r0_d3_bn[0][0]      
__________________________________________________________________________________________________
concatenate_4 (Concatenate)     (None, 32, 32, 96)   0           concatenate_3[0][0]              
                                                                 stage1_block_r0_d3_act[0][0]     
__________________________________________________________________________________________________
stage1_block_r0_d4 (Conv2D)     (None, 32, 32, 16)   13824       concatenate_4[0][0]              
__________________________________________________________________________________________________
stage1_block_r0_d4_bn (BatchNor (None, 32, 32, 16)   64          stage1_block_r0_d4[0][0]         
__________________________________________________________________________________________________
stage1_block_r0_d4_act (Activat (None, 32, 32, 16)   0           stage1_block_r0_d4_bn[0][0]      
__________________________________________________________________________________________________
concatenate_5 (Concatenate)     (None, 32, 32, 112)  0           concatenate_4[0][0]              
                                                                 stage1_block_r0_d4_act[0][0]     
__________________________________________________________________________________________________
stage1_block_r0_d5 (Conv2D)     (None, 32, 32, 16)   16128       concatenate_5[0][0]              
__________________________________________________________________________________________________
stage1_block_r0_d5_bn (BatchNor (None, 32, 32, 16)   64          stage1_block_r0_d5[0][0]         
__________________________________________________________________________________________________
stage1_block_r0_d5_act (Activat (None, 32, 32, 16)   0           stage1_block_r0_d5_bn[0][0]      
__________________________________________________________________________________________________
concatenate_6 (Concatenate)     (None, 32, 32, 128)  0           concatenate_5[0][0]              
                                                                 stage1_block_r0_d5_act[0][0]     
__________________________________________________________________________________________________
stage1_block_r0_d6 (Conv2D)     (None, 32, 32, 16)   18432       concatenate_6[0][0]              
__________________________________________________________________________________________________
stage1_block_r0_d6_bn (BatchNor (None, 32, 32, 16)   64          stage1_block_r0_d6[0][0]         
__________________________________________________________________________________________________
stage1_block_r0_d6_act (Activat (None, 32, 32, 16)   0           stage1_block_r0_d6_bn[0][0]      
__________________________________________________________________________________________________
concatenate_7 (Concatenate)     (None, 32, 32, 144)  0           concatenate_6[0][0]              
                                                                 stage1_block_r0_d6_act[0][0]     
__________________________________________________________________________________________________
stage1_block_r0_d7 (Conv2D)     (None, 32, 32, 16)   20736       concatenate_7[0][0]              
__________________________________________________________________________________________________
stage1_block_r0_d7_bn (BatchNor (None, 32, 32, 16)   64          stage1_block_r0_d7[0][0]         
__________________________________________________________________________________________________
stage1_block_r0_d7_act (Activat (None, 32, 32, 16)   0           stage1_block_r0_d7_bn[0][0]      
__________________________________________________________________________________________________
concatenate_8 (Concatenate)     (None, 32, 32, 160)  0           concatenate_7[0][0]              
                                                                 stage1_block_r0_d7_act[0][0]     
__________________________________________________________________________________________________
stage1_block_r0_c2 (Conv2D)     (None, 32, 32, 128)  20480       concatenate_8[0][0]              
__________________________________________________________________________________________________
stage1_block_r0_c2_bn (BatchNor (None, 32, 32, 128)  512         stage1_block_r0_c2[0][0]         
__________________________________________________________________________________________________
stage1_block_r0_add (Add)       (None, 32, 32, 128)  0           stage1_block_start_bn[0][0]      
                                                                 stage1_block_r0_c2_bn[0][0]      
__________________________________________________________________________________________________
stage1_block_r1_c1 (Conv2D)     (None, 32, 32, 32)   36864       stage1_block_r0_add[0][0]        
__________________________________________________________________________________________________
stage1_block_r1_c1_bn (BatchNor (None, 32, 32, 32)   128         stage1_block_r1_c1[0][0]         
__________________________________________________________________________________________________
stage1_block_r1_c1_act (Activat (None, 32, 32, 32)   0           stage1_block_r1_c1_bn[0][0]      
__________________________________________________________________________________________________
stage1_block_r1_d0 (Conv2D)     (None, 32, 32, 16)   4608        stage1_block_r1_c1_act[0][0]     
__________________________________________________________________________________________________
stage1_block_r1_d0_bn (BatchNor (None, 32, 32, 16)   64          stage1_block_r1_d0[0][0]         
__________________________________________________________________________________________________
stage1_block_r1_d0_act (Activat (None, 32, 32, 16)   0           stage1_block_r1_d0_bn[0][0]      
__________________________________________________________________________________________________
concatenate_9 (Concatenate)     (None, 32, 32, 48)   0           stage1_block_r1_c1_act[0][0]     
                                                                 stage1_block_r1_d0_act[0][0]     
__________________________________________________________________________________________________
stage1_block_r1_d1 (Conv2D)     (None, 32, 32, 16)   6912        concatenate_9[0][0]              
__________________________________________________________________________________________________
stage1_block_r1_d1_bn (BatchNor (None, 32, 32, 16)   64          stage1_block_r1_d1[0][0]         
__________________________________________________________________________________________________
stage1_block_r1_d1_act (Activat (None, 32, 32, 16)   0           stage1_block_r1_d1_bn[0][0]      
__________________________________________________________________________________________________
concatenate_10 (Concatenate)    (None, 32, 32, 64)   0           concatenate_9[0][0]              
                                                                 stage1_block_r1_d1_act[0][0]     
__________________________________________________________________________________________________
stage1_block_r1_d2 (Conv2D)     (None, 32, 32, 16)   9216        concatenate_10[0][0]             
__________________________________________________________________________________________________
stage1_block_r1_d2_bn (BatchNor (None, 32, 32, 16)   64          stage1_block_r1_d2[0][0]         
__________________________________________________________________________________________________
stage1_block_r1_d2_act (Activat (None, 32, 32, 16)   0           stage1_block_r1_d2_bn[0][0]      
__________________________________________________________________________________________________
concatenate_11 (Concatenate)    (None, 32, 32, 80)   0           concatenate_10[0][0]             
                                                                 stage1_block_r1_d2_act[0][0]     
__________________________________________________________________________________________________
stage1_block_r1_d3 (Conv2D)     (None, 32, 32, 16)   11520       concatenate_11[0][0]             
__________________________________________________________________________________________________
stage1_block_r1_d3_bn (BatchNor (None, 32, 32, 16)   64          stage1_block_r1_d3[0][0]         
__________________________________________________________________________________________________
stage1_block_r1_d3_act (Activat (None, 32, 32, 16)   0           stage1_block_r1_d3_bn[0][0]      
__________________________________________________________________________________________________
concatenate_12 (Concatenate)    (None, 32, 32, 96)   0           concatenate_11[0][0]             
                                                                 stage1_block_r1_d3_act[0][0]     
__________________________________________________________________________________________________
stage1_block_r1_d4 (Conv2D)     (None, 32, 32, 16)   13824       concatenate_12[0][0]             
__________________________________________________________________________________________________
stage1_block_r1_d4_bn (BatchNor (None, 32, 32, 16)   64          stage1_block_r1_d4[0][0]         
__________________________________________________________________________________________________
stage1_block_r1_d4_act (Activat (None, 32, 32, 16)   0           stage1_block_r1_d4_bn[0][0]      
__________________________________________________________________________________________________
concatenate_13 (Concatenate)    (None, 32, 32, 112)  0           concatenate_12[0][0]             
                                                                 stage1_block_r1_d4_act[0][0]     
__________________________________________________________________________________________________
stage1_block_r1_d5 (Conv2D)     (None, 32, 32, 16)   16128       concatenate_13[0][0]             
__________________________________________________________________________________________________
stage1_block_r1_d5_bn (BatchNor (None, 32, 32, 16)   64          stage1_block_r1_d5[0][0]         
__________________________________________________________________________________________________
stage1_block_r1_d5_act (Activat (None, 32, 32, 16)   0           stage1_block_r1_d5_bn[0][0]      
__________________________________________________________________________________________________
concatenate_14 (Concatenate)    (None, 32, 32, 128)  0           concatenate_13[0][0]             
                                                                 stage1_block_r1_d5_act[0][0]     
__________________________________________________________________________________________________
stage1_block_r1_d6 (Conv2D)     (None, 32, 32, 16)   18432       concatenate_14[0][0]             
__________________________________________________________________________________________________
stage1_block_r1_d6_bn (BatchNor (None, 32, 32, 16)   64          stage1_block_r1_d6[0][0]         
__________________________________________________________________________________________________
stage1_block_r1_d6_act (Activat (None, 32, 32, 16)   0           stage1_block_r1_d6_bn[0][0]      
__________________________________________________________________________________________________
concatenate_15 (Concatenate)    (None, 32, 32, 144)  0           concatenate_14[0][0]             
                                                                 stage1_block_r1_d6_act[0][0]     
__________________________________________________________________________________________________
stage1_block_r1_d7 (Conv2D)     (None, 32, 32, 16)   20736       concatenate_15[0][0]             
__________________________________________________________________________________________________
stage1_block_r1_d7_bn (BatchNor (None, 32, 32, 16)   64          stage1_block_r1_d7[0][0]         
__________________________________________________________________________________________________
stage1_block_r1_d7_act (Activat (None, 32, 32, 16)   0           stage1_block_r1_d7_bn[0][0]      
__________________________________________________________________________________________________
concatenate_16 (Concatenate)    (None, 32, 32, 160)  0           concatenate_15[0][0]             
                                                                 stage1_block_r1_d7_act[0][0]     
__________________________________________________________________________________________________
stage1_block_r1_c2 (Conv2D)     (None, 32, 32, 128)  20480       concatenate_16[0][0]             
__________________________________________________________________________________________________
stage1_block_r1_c2_bn (BatchNor (None, 32, 32, 128)  512         stage1_block_r1_c2[0][0]         
__________________________________________________________________________________________________
stage1_block_r1_add (Add)       (None, 32, 32, 128)  0           stage1_block_r0_add[0][0]        
                                                                 stage1_block_r1_c2_bn[0][0]      
__________________________________________________________________________________________________
stage1_block_r2_c1 (Conv2D)     (None, 32, 32, 32)   36864       stage1_block_r1_add[0][0]        
__________________________________________________________________________________________________
stage1_block_r2_c1_bn (BatchNor (None, 32, 32, 32)   128         stage1_block_r2_c1[0][0]         
__________________________________________________________________________________________________
stage1_block_r2_c1_act (Activat (None, 32, 32, 32)   0           stage1_block_r2_c1_bn[0][0]      
__________________________________________________________________________________________________
stage1_block_r2_d0 (Conv2D)     (None, 32, 32, 16)   4608        stage1_block_r2_c1_act[0][0]     
__________________________________________________________________________________________________
stage1_block_r2_d0_bn (BatchNor (None, 32, 32, 16)   64          stage1_block_r2_d0[0][0]         
__________________________________________________________________________________________________
stage1_block_r2_d0_act (Activat (None, 32, 32, 16)   0           stage1_block_r2_d0_bn[0][0]      
__________________________________________________________________________________________________
concatenate_17 (Concatenate)    (None, 32, 32, 48)   0           stage1_block_r2_c1_act[0][0]     
                                                                 stage1_block_r2_d0_act[0][0]     
__________________________________________________________________________________________________
stage1_block_r2_d1 (Conv2D)     (None, 32, 32, 16)   6912        concatenate_17[0][0]             
__________________________________________________________________________________________________
stage1_block_r2_d1_bn (BatchNor (None, 32, 32, 16)   64          stage1_block_r2_d1[0][0]         
__________________________________________________________________________________________________
stage1_block_r2_d1_act (Activat (None, 32, 32, 16)   0           stage1_block_r2_d1_bn[0][0]      
__________________________________________________________________________________________________
concatenate_18 (Concatenate)    (None, 32, 32, 64)   0           concatenate_17[0][0]             
                                                                 stage1_block_r2_d1_act[0][0]     
__________________________________________________________________________________________________
stage1_block_r2_d2 (Conv2D)     (None, 32, 32, 16)   9216        concatenate_18[0][0]             
__________________________________________________________________________________________________
stage1_block_r2_d2_bn (BatchNor (None, 32, 32, 16)   64          stage1_block_r2_d2[0][0]         
__________________________________________________________________________________________________
stage1_block_r2_d2_act (Activat (None, 32, 32, 16)   0           stage1_block_r2_d2_bn[0][0]      
__________________________________________________________________________________________________
concatenate_19 (Concatenate)    (None, 32, 32, 80)   0           concatenate_18[0][0]             
                                                                 stage1_block_r2_d2_act[0][0]     
__________________________________________________________________________________________________
stage1_block_r2_d3 (Conv2D)     (None, 32, 32, 16)   11520       concatenate_19[0][0]             
__________________________________________________________________________________________________
stage1_block_r2_d3_bn (BatchNor (None, 32, 32, 16)   64          stage1_block_r2_d3[0][0]         
__________________________________________________________________________________________________
stage1_block_r2_d3_act (Activat (None, 32, 32, 16)   0           stage1_block_r2_d3_bn[0][0]      
__________________________________________________________________________________________________
concatenate_20 (Concatenate)    (None, 32, 32, 96)   0           concatenate_19[0][0]             
                                                                 stage1_block_r2_d3_act[0][0]     
__________________________________________________________________________________________________
stage1_block_r2_d4 (Conv2D)     (None, 32, 32, 16)   13824       concatenate_20[0][0]             
__________________________________________________________________________________________________
stage1_block_r2_d4_bn (BatchNor (None, 32, 32, 16)   64          stage1_block_r2_d4[0][0]         
__________________________________________________________________________________________________
stage1_block_r2_d4_act (Activat (None, 32, 32, 16)   0           stage1_block_r2_d4_bn[0][0]      
__________________________________________________________________________________________________
concatenate_21 (Concatenate)    (None, 32, 32, 112)  0           concatenate_20[0][0]             
                                                                 stage1_block_r2_d4_act[0][0]     
__________________________________________________________________________________________________
stage1_block_r2_d5 (Conv2D)     (None, 32, 32, 16)   16128       concatenate_21[0][0]             
__________________________________________________________________________________________________
stage1_block_r2_d5_bn (BatchNor (None, 32, 32, 16)   64          stage1_block_r2_d5[0][0]         
__________________________________________________________________________________________________
stage1_block_r2_d5_act (Activat (None, 32, 32, 16)   0           stage1_block_r2_d5_bn[0][0]      
__________________________________________________________________________________________________
concatenate_22 (Concatenate)    (None, 32, 32, 128)  0           concatenate_21[0][0]             
                                                                 stage1_block_r2_d5_act[0][0]     
__________________________________________________________________________________________________
stage1_block_r2_d6 (Conv2D)     (None, 32, 32, 16)   18432       concatenate_22[0][0]             
__________________________________________________________________________________________________
stage1_block_r2_d6_bn (BatchNor (None, 32, 32, 16)   64          stage1_block_r2_d6[0][0]         
__________________________________________________________________________________________________
stage1_block_r2_d6_act (Activat (None, 32, 32, 16)   0           stage1_block_r2_d6_bn[0][0]      
__________________________________________________________________________________________________
concatenate_23 (Concatenate)    (None, 32, 32, 144)  0           concatenate_22[0][0]             
                                                                 stage1_block_r2_d6_act[0][0]     
__________________________________________________________________________________________________
stage1_block_r2_d7 (Conv2D)     (None, 32, 32, 16)   20736       concatenate_23[0][0]             
__________________________________________________________________________________________________
stage1_block_r2_d7_bn (BatchNor (None, 32, 32, 16)   64          stage1_block_r2_d7[0][0]         
__________________________________________________________________________________________________
stage1_block_r2_d7_act (Activat (None, 32, 32, 16)   0           stage1_block_r2_d7_bn[0][0]      
__________________________________________________________________________________________________
concatenate_24 (Concatenate)    (None, 32, 32, 160)  0           concatenate_23[0][0]             
                                                                 stage1_block_r2_d7_act[0][0]     
__________________________________________________________________________________________________
stage1_block_r2_c2 (Conv2D)     (None, 32, 32, 128)  20480       concatenate_24[0][0]             
__________________________________________________________________________________________________
stage1_block_r2_c2_bn (BatchNor (None, 32, 32, 128)  512         stage1_block_r2_c2[0][0]         
__________________________________________________________________________________________________
stage1_block_r2_add (Add)       (None, 32, 32, 128)  0           stage1_block_r1_add[0][0]        
                                                                 stage1_block_r2_c2_bn[0][0]      
__________________________________________________________________________________________________
stage1_block_r3_c1 (Conv2D)     (None, 32, 32, 32)   36864       stage1_block_r2_add[0][0]        
__________________________________________________________________________________________________
stage1_block_r3_c1_bn (BatchNor (None, 32, 32, 32)   128         stage1_block_r3_c1[0][0]         
__________________________________________________________________________________________________
stage1_block_r3_c1_act (Activat (None, 32, 32, 32)   0           stage1_block_r3_c1_bn[0][0]      
__________________________________________________________________________________________________
stage1_block_r3_d0 (Conv2D)     (None, 32, 32, 16)   4608        stage1_block_r3_c1_act[0][0]     
__________________________________________________________________________________________________
stage1_block_r3_d0_bn (BatchNor (None, 32, 32, 16)   64          stage1_block_r3_d0[0][0]         
__________________________________________________________________________________________________
stage1_block_r3_d0_act (Activat (None, 32, 32, 16)   0           stage1_block_r3_d0_bn[0][0]      
__________________________________________________________________________________________________
concatenate_25 (Concatenate)    (None, 32, 32, 48)   0           stage1_block_r3_c1_act[0][0]     
                                                                 stage1_block_r3_d0_act[0][0]     
__________________________________________________________________________________________________
stage1_block_r3_d1 (Conv2D)     (None, 32, 32, 16)   6912        concatenate_25[0][0]             
__________________________________________________________________________________________________
stage1_block_r3_d1_bn (BatchNor (None, 32, 32, 16)   64          stage1_block_r3_d1[0][0]         
__________________________________________________________________________________________________
stage1_block_r3_d1_act (Activat (None, 32, 32, 16)   0           stage1_block_r3_d1_bn[0][0]      
__________________________________________________________________________________________________
concatenate_26 (Concatenate)    (None, 32, 32, 64)   0           concatenate_25[0][0]             
                                                                 stage1_block_r3_d1_act[0][0]     
__________________________________________________________________________________________________
stage1_block_r3_d2 (Conv2D)     (None, 32, 32, 16)   9216        concatenate_26[0][0]             
__________________________________________________________________________________________________
stage1_block_r3_d2_bn (BatchNor (None, 32, 32, 16)   64          stage1_block_r3_d2[0][0]         
__________________________________________________________________________________________________
stage1_block_r3_d2_act (Activat (None, 32, 32, 16)   0           stage1_block_r3_d2_bn[0][0]      
__________________________________________________________________________________________________
concatenate_27 (Concatenate)    (None, 32, 32, 80)   0           concatenate_26[0][0]             
                                                                 stage1_block_r3_d2_act[0][0]     
__________________________________________________________________________________________________
stage1_block_r3_d3 (Conv2D)     (None, 32, 32, 16)   11520       concatenate_27[0][0]             
__________________________________________________________________________________________________
stage1_block_r3_d3_bn (BatchNor (None, 32, 32, 16)   64          stage1_block_r3_d3[0][0]         
__________________________________________________________________________________________________
stage1_block_r3_d3_act (Activat (None, 32, 32, 16)   0           stage1_block_r3_d3_bn[0][0]      
__________________________________________________________________________________________________
concatenate_28 (Concatenate)    (None, 32, 32, 96)   0           concatenate_27[0][0]             
                                                                 stage1_block_r3_d3_act[0][0]     
__________________________________________________________________________________________________
stage1_block_r3_d4 (Conv2D)     (None, 32, 32, 16)   13824       concatenate_28[0][0]             
__________________________________________________________________________________________________
stage1_block_r3_d4_bn (BatchNor (None, 32, 32, 16)   64          stage1_block_r3_d4[0][0]         
__________________________________________________________________________________________________
stage1_block_r3_d4_act (Activat (None, 32, 32, 16)   0           stage1_block_r3_d4_bn[0][0]      
__________________________________________________________________________________________________
concatenate_29 (Concatenate)    (None, 32, 32, 112)  0           concatenate_28[0][0]             
                                                                 stage1_block_r3_d4_act[0][0]     
__________________________________________________________________________________________________
stage1_block_r3_d5 (Conv2D)     (None, 32, 32, 16)   16128       concatenate_29[0][0]             
__________________________________________________________________________________________________
stage1_block_r3_d5_bn (BatchNor (None, 32, 32, 16)   64          stage1_block_r3_d5[0][0]         
__________________________________________________________________________________________________
stage1_block_r3_d5_act (Activat (None, 32, 32, 16)   0           stage1_block_r3_d5_bn[0][0]      
__________________________________________________________________________________________________
concatenate_30 (Concatenate)    (None, 32, 32, 128)  0           concatenate_29[0][0]             
                                                                 stage1_block_r3_d5_act[0][0]     
__________________________________________________________________________________________________
stage1_block_r3_d6 (Conv2D)     (None, 32, 32, 16)   18432       concatenate_30[0][0]             
__________________________________________________________________________________________________
stage1_block_r3_d6_bn (BatchNor (None, 32, 32, 16)   64          stage1_block_r3_d6[0][0]         
__________________________________________________________________________________________________
stage1_block_r3_d6_act (Activat (None, 32, 32, 16)   0           stage1_block_r3_d6_bn[0][0]      
__________________________________________________________________________________________________
concatenate_31 (Concatenate)    (None, 32, 32, 144)  0           concatenate_30[0][0]             
                                                                 stage1_block_r3_d6_act[0][0]     
__________________________________________________________________________________________________
stage1_block_r3_d7 (Conv2D)     (None, 32, 32, 16)   20736       concatenate_31[0][0]             
__________________________________________________________________________________________________
stage1_block_r3_d7_bn (BatchNor (None, 32, 32, 16)   64          stage1_block_r3_d7[0][0]         
__________________________________________________________________________________________________
stage1_block_r3_d7_act (Activat (None, 32, 32, 16)   0           stage1_block_r3_d7_bn[0][0]      
__________________________________________________________________________________________________
concatenate_32 (Concatenate)    (None, 32, 32, 160)  0           concatenate_31[0][0]             
                                                                 stage1_block_r3_d7_act[0][0]     
__________________________________________________________________________________________________
stage1_block_r3_c2 (Conv2D)     (None, 32, 32, 128)  20480       concatenate_32[0][0]             
__________________________________________________________________________________________________
stage1_block_r3_c2_bn (BatchNor (None, 32, 32, 128)  512         stage1_block_r3_c2[0][0]         
__________________________________________________________________________________________________
stage1_block_r3_add (Add)       (None, 32, 32, 128)  0           stage1_block_r2_add[0][0]        
                                                                 stage1_block_r3_c2_bn[0][0]      
__________________________________________________________________________________________________
stage1_block_bn (BatchNormaliza (None, 32, 32, 128)  512         stage1_block_r3_add[0][0]        
__________________________________________________________________________________________________
stage1_block_act (Activation)   (None, 32, 32, 128)  0           stage1_block_bn[0][0]            
__________________________________________________________________________________________________
stage2_block_start (Conv2D)     (None, 32, 32, 256)  294912      stage1_block_act[0][0]           
__________________________________________________________________________________________________
stage2_block_start_bn (BatchNor (None, 32, 32, 256)  1024        stage2_block_start[0][0]         
__________________________________________________________________________________________________
stage2_block_pgp (ParallelGridP (None, 16, 16, 256)  0           stage2_block_start_bn[0][0]      
__________________________________________________________________________________________________
stage2_block_r0_c1 (Conv2D)     (None, 16, 16, 64)   147456      stage2_block_pgp[0][0]           
__________________________________________________________________________________________________
stage2_block_r0_c1_bn (BatchNor (None, 16, 16, 64)   256         stage2_block_r0_c1[0][0]         
__________________________________________________________________________________________________
stage2_block_r0_c1_act (Activat (None, 16, 16, 64)   0           stage2_block_r0_c1_bn[0][0]      
__________________________________________________________________________________________________
stage2_block_r0_d0 (Conv2D)     (None, 16, 16, 32)   18432       stage2_block_r0_c1_act[0][0]     
__________________________________________________________________________________________________
stage2_block_r0_d0_bn (BatchNor (None, 16, 16, 32)   128         stage2_block_r0_d0[0][0]         
__________________________________________________________________________________________________
stage2_block_r0_d0_act (Activat (None, 16, 16, 32)   0           stage2_block_r0_d0_bn[0][0]      
__________________________________________________________________________________________________
concatenate_33 (Concatenate)    (None, 16, 16, 96)   0           stage2_block_r0_c1_act[0][0]     
                                                                 stage2_block_r0_d0_act[0][0]     
__________________________________________________________________________________________________
stage2_block_r0_d1 (Conv2D)     (None, 16, 16, 32)   27648       concatenate_33[0][0]             
__________________________________________________________________________________________________
stage2_block_r0_d1_bn (BatchNor (None, 16, 16, 32)   128         stage2_block_r0_d1[0][0]         
__________________________________________________________________________________________________
stage2_block_r0_d1_act (Activat (None, 16, 16, 32)   0           stage2_block_r0_d1_bn[0][0]      
__________________________________________________________________________________________________
concatenate_34 (Concatenate)    (None, 16, 16, 128)  0           concatenate_33[0][0]             
                                                                 stage2_block_r0_d1_act[0][0]     
__________________________________________________________________________________________________
stage2_block_r0_d2 (Conv2D)     (None, 16, 16, 32)   36864       concatenate_34[0][0]             
__________________________________________________________________________________________________
stage2_block_r0_d2_bn (BatchNor (None, 16, 16, 32)   128         stage2_block_r0_d2[0][0]         
__________________________________________________________________________________________________
stage2_block_r0_d2_act (Activat (None, 16, 16, 32)   0           stage2_block_r0_d2_bn[0][0]      
__________________________________________________________________________________________________
concatenate_35 (Concatenate)    (None, 16, 16, 160)  0           concatenate_34[0][0]             
                                                                 stage2_block_r0_d2_act[0][0]     
__________________________________________________________________________________________________
stage2_block_r0_d3 (Conv2D)     (None, 16, 16, 32)   46080       concatenate_35[0][0]             
__________________________________________________________________________________________________
stage2_block_r0_d3_bn (BatchNor (None, 16, 16, 32)   128         stage2_block_r0_d3[0][0]         
__________________________________________________________________________________________________
stage2_block_r0_d3_act (Activat (None, 16, 16, 32)   0           stage2_block_r0_d3_bn[0][0]      
__________________________________________________________________________________________________
concatenate_36 (Concatenate)    (None, 16, 16, 192)  0           concatenate_35[0][0]             
                                                                 stage2_block_r0_d3_act[0][0]     
__________________________________________________________________________________________________
stage2_block_r0_d4 (Conv2D)     (None, 16, 16, 32)   55296       concatenate_36[0][0]             
__________________________________________________________________________________________________
stage2_block_r0_d4_bn (BatchNor (None, 16, 16, 32)   128         stage2_block_r0_d4[0][0]         
__________________________________________________________________________________________________
stage2_block_r0_d4_act (Activat (None, 16, 16, 32)   0           stage2_block_r0_d4_bn[0][0]      
__________________________________________________________________________________________________
concatenate_37 (Concatenate)    (None, 16, 16, 224)  0           concatenate_36[0][0]             
                                                                 stage2_block_r0_d4_act[0][0]     
__________________________________________________________________________________________________
stage2_block_r0_d5 (Conv2D)     (None, 16, 16, 32)   64512       concatenate_37[0][0]             
__________________________________________________________________________________________________
stage2_block_r0_d5_bn (BatchNor (None, 16, 16, 32)   128         stage2_block_r0_d5[0][0]         
__________________________________________________________________________________________________
stage2_block_r0_d5_act (Activat (None, 16, 16, 32)   0           stage2_block_r0_d5_bn[0][0]      
__________________________________________________________________________________________________
concatenate_38 (Concatenate)    (None, 16, 16, 256)  0           concatenate_37[0][0]             
                                                                 stage2_block_r0_d5_act[0][0]     
__________________________________________________________________________________________________
stage2_block_r0_d6 (Conv2D)     (None, 16, 16, 32)   73728       concatenate_38[0][0]             
__________________________________________________________________________________________________
stage2_block_r0_d6_bn (BatchNor (None, 16, 16, 32)   128         stage2_block_r0_d6[0][0]         
__________________________________________________________________________________________________
stage2_block_r0_d6_act (Activat (None, 16, 16, 32)   0           stage2_block_r0_d6_bn[0][0]      
__________________________________________________________________________________________________
concatenate_39 (Concatenate)    (None, 16, 16, 288)  0           concatenate_38[0][0]             
                                                                 stage2_block_r0_d6_act[0][0]     
__________________________________________________________________________________________________
stage2_block_r0_d7 (Conv2D)     (None, 16, 16, 32)   82944       concatenate_39[0][0]             
__________________________________________________________________________________________________
stage2_block_r0_d7_bn (BatchNor (None, 16, 16, 32)   128         stage2_block_r0_d7[0][0]         
__________________________________________________________________________________________________
stage2_block_r0_d7_act (Activat (None, 16, 16, 32)   0           stage2_block_r0_d7_bn[0][0]      
__________________________________________________________________________________________________
concatenate_40 (Concatenate)    (None, 16, 16, 320)  0           concatenate_39[0][0]             
                                                                 stage2_block_r0_d7_act[0][0]     
__________________________________________________________________________________________________
stage2_block_r0_c2 (Conv2D)     (None, 16, 16, 256)  81920       concatenate_40[0][0]             
__________________________________________________________________________________________________
stage2_block_r0_c2_bn (BatchNor (None, 16, 16, 256)  1024        stage2_block_r0_c2[0][0]         
__________________________________________________________________________________________________
stage2_block_r0_add (Add)       (None, 16, 16, 256)  0           stage2_block_pgp[0][0]           
                                                                 stage2_block_r0_c2_bn[0][0]      
__________________________________________________________________________________________________
stage2_block_r1_c1 (Conv2D)     (None, 16, 16, 64)   147456      stage2_block_r0_add[0][0]        
__________________________________________________________________________________________________
stage2_block_r1_c1_bn (BatchNor (None, 16, 16, 64)   256         stage2_block_r1_c1[0][0]         
__________________________________________________________________________________________________
stage2_block_r1_c1_act (Activat (None, 16, 16, 64)   0           stage2_block_r1_c1_bn[0][0]      
__________________________________________________________________________________________________
stage2_block_r1_d0 (Conv2D)     (None, 16, 16, 32)   18432       stage2_block_r1_c1_act[0][0]     
__________________________________________________________________________________________________
stage2_block_r1_d0_bn (BatchNor (None, 16, 16, 32)   128         stage2_block_r1_d0[0][0]         
__________________________________________________________________________________________________
stage2_block_r1_d0_act (Activat (None, 16, 16, 32)   0           stage2_block_r1_d0_bn[0][0]      
__________________________________________________________________________________________________
concatenate_41 (Concatenate)    (None, 16, 16, 96)   0           stage2_block_r1_c1_act[0][0]     
                                                                 stage2_block_r1_d0_act[0][0]     
__________________________________________________________________________________________________
stage2_block_r1_d1 (Conv2D)     (None, 16, 16, 32)   27648       concatenate_41[0][0]             
__________________________________________________________________________________________________
stage2_block_r1_d1_bn (BatchNor (None, 16, 16, 32)   128         stage2_block_r1_d1[0][0]         
__________________________________________________________________________________________________
stage2_block_r1_d1_act (Activat (None, 16, 16, 32)   0           stage2_block_r1_d1_bn[0][0]      
__________________________________________________________________________________________________
concatenate_42 (Concatenate)    (None, 16, 16, 128)  0           concatenate_41[0][0]             
                                                                 stage2_block_r1_d1_act[0][0]     
__________________________________________________________________________________________________
stage2_block_r1_d2 (Conv2D)     (None, 16, 16, 32)   36864       concatenate_42[0][0]             
__________________________________________________________________________________________________
stage2_block_r1_d2_bn (BatchNor (None, 16, 16, 32)   128         stage2_block_r1_d2[0][0]         
__________________________________________________________________________________________________
stage2_block_r1_d2_act (Activat (None, 16, 16, 32)   0           stage2_block_r1_d2_bn[0][0]      
__________________________________________________________________________________________________
concatenate_43 (Concatenate)    (None, 16, 16, 160)  0           concatenate_42[0][0]             
                                                                 stage2_block_r1_d2_act[0][0]     
__________________________________________________________________________________________________
stage2_block_r1_d3 (Conv2D)     (None, 16, 16, 32)   46080       concatenate_43[0][0]             
__________________________________________________________________________________________________
stage2_block_r1_d3_bn (BatchNor (None, 16, 16, 32)   128         stage2_block_r1_d3[0][0]         
__________________________________________________________________________________________________
stage2_block_r1_d3_act (Activat (None, 16, 16, 32)   0           stage2_block_r1_d3_bn[0][0]      
__________________________________________________________________________________________________
concatenate_44 (Concatenate)    (None, 16, 16, 192)  0           concatenate_43[0][0]             
                                                                 stage2_block_r1_d3_act[0][0]     
__________________________________________________________________________________________________
stage2_block_r1_d4 (Conv2D)     (None, 16, 16, 32)   55296       concatenate_44[0][0]             
__________________________________________________________________________________________________
stage2_block_r1_d4_bn (BatchNor (None, 16, 16, 32)   128         stage2_block_r1_d4[0][0]         
__________________________________________________________________________________________________
stage2_block_r1_d4_act (Activat (None, 16, 16, 32)   0           stage2_block_r1_d4_bn[0][0]      
__________________________________________________________________________________________________
concatenate_45 (Concatenate)    (None, 16, 16, 224)  0           concatenate_44[0][0]             
                                                                 stage2_block_r1_d4_act[0][0]     
__________________________________________________________________________________________________
stage2_block_r1_d5 (Conv2D)     (None, 16, 16, 32)   64512       concatenate_45[0][0]             
__________________________________________________________________________________________________
stage2_block_r1_d5_bn (BatchNor (None, 16, 16, 32)   128         stage2_block_r1_d5[0][0]         
__________________________________________________________________________________________________
stage2_block_r1_d5_act (Activat (None, 16, 16, 32)   0           stage2_block_r1_d5_bn[0][0]      
__________________________________________________________________________________________________
concatenate_46 (Concatenate)    (None, 16, 16, 256)  0           concatenate_45[0][0]             
                                                                 stage2_block_r1_d5_act[0][0]     
__________________________________________________________________________________________________
stage2_block_r1_d6 (Conv2D)     (None, 16, 16, 32)   73728       concatenate_46[0][0]             
__________________________________________________________________________________________________
stage2_block_r1_d6_bn (BatchNor (None, 16, 16, 32)   128         stage2_block_r1_d6[0][0]         
__________________________________________________________________________________________________
stage2_block_r1_d6_act (Activat (None, 16, 16, 32)   0           stage2_block_r1_d6_bn[0][0]      
__________________________________________________________________________________________________
concatenate_47 (Concatenate)    (None, 16, 16, 288)  0           concatenate_46[0][0]             
                                                                 stage2_block_r1_d6_act[0][0]     
__________________________________________________________________________________________________
stage2_block_r1_d7 (Conv2D)     (None, 16, 16, 32)   82944       concatenate_47[0][0]             
__________________________________________________________________________________________________
stage2_block_r1_d7_bn (BatchNor (None, 16, 16, 32)   128         stage2_block_r1_d7[0][0]         
__________________________________________________________________________________________________
stage2_block_r1_d7_act (Activat (None, 16, 16, 32)   0           stage2_block_r1_d7_bn[0][0]      
__________________________________________________________________________________________________
concatenate_48 (Concatenate)    (None, 16, 16, 320)  0           concatenate_47[0][0]             
                                                                 stage2_block_r1_d7_act[0][0]     
__________________________________________________________________________________________________
stage2_block_r1_c2 (Conv2D)     (None, 16, 16, 256)  81920       concatenate_48[0][0]             
__________________________________________________________________________________________________
stage2_block_r1_c2_bn (BatchNor (None, 16, 16, 256)  1024        stage2_block_r1_c2[0][0]         
__________________________________________________________________________________________________
stage2_block_r1_add (Add)       (None, 16, 16, 256)  0           stage2_block_r0_add[0][0]        
                                                                 stage2_block_r1_c2_bn[0][0]      
__________________________________________________________________________________________________
stage2_block_r2_c1 (Conv2D)     (None, 16, 16, 64)   147456      stage2_block_r1_add[0][0]        
__________________________________________________________________________________________________
stage2_block_r2_c1_bn (BatchNor (None, 16, 16, 64)   256         stage2_block_r2_c1[0][0]         
__________________________________________________________________________________________________
stage2_block_r2_c1_act (Activat (None, 16, 16, 64)   0           stage2_block_r2_c1_bn[0][0]      
__________________________________________________________________________________________________
stage2_block_r2_d0 (Conv2D)     (None, 16, 16, 32)   18432       stage2_block_r2_c1_act[0][0]     
__________________________________________________________________________________________________
stage2_block_r2_d0_bn (BatchNor (None, 16, 16, 32)   128         stage2_block_r2_d0[0][0]         
__________________________________________________________________________________________________
stage2_block_r2_d0_act (Activat (None, 16, 16, 32)   0           stage2_block_r2_d0_bn[0][0]      
__________________________________________________________________________________________________
concatenate_49 (Concatenate)    (None, 16, 16, 96)   0           stage2_block_r2_c1_act[0][0]     
                                                                 stage2_block_r2_d0_act[0][0]     
__________________________________________________________________________________________________
stage2_block_r2_d1 (Conv2D)     (None, 16, 16, 32)   27648       concatenate_49[0][0]             
__________________________________________________________________________________________________
stage2_block_r2_d1_bn (BatchNor (None, 16, 16, 32)   128         stage2_block_r2_d1[0][0]         
__________________________________________________________________________________________________
stage2_block_r2_d1_act (Activat (None, 16, 16, 32)   0           stage2_block_r2_d1_bn[0][0]      
__________________________________________________________________________________________________
concatenate_50 (Concatenate)    (None, 16, 16, 128)  0           concatenate_49[0][0]             
                                                                 stage2_block_r2_d1_act[0][0]     
__________________________________________________________________________________________________
stage2_block_r2_d2 (Conv2D)     (None, 16, 16, 32)   36864       concatenate_50[0][0]             
__________________________________________________________________________________________________
stage2_block_r2_d2_bn (BatchNor (None, 16, 16, 32)   128         stage2_block_r2_d2[0][0]         
__________________________________________________________________________________________________
stage2_block_r2_d2_act (Activat (None, 16, 16, 32)   0           stage2_block_r2_d2_bn[0][0]      
__________________________________________________________________________________________________
concatenate_51 (Concatenate)    (None, 16, 16, 160)  0           concatenate_50[0][0]             
                                                                 stage2_block_r2_d2_act[0][0]     
__________________________________________________________________________________________________
stage2_block_r2_d3 (Conv2D)     (None, 16, 16, 32)   46080       concatenate_51[0][0]             
__________________________________________________________________________________________________
stage2_block_r2_d3_bn (BatchNor (None, 16, 16, 32)   128         stage2_block_r2_d3[0][0]         
__________________________________________________________________________________________________
stage2_block_r2_d3_act (Activat (None, 16, 16, 32)   0           stage2_block_r2_d3_bn[0][0]      
__________________________________________________________________________________________________
concatenate_52 (Concatenate)    (None, 16, 16, 192)  0           concatenate_51[0][0]             
                                                                 stage2_block_r2_d3_act[0][0]     
__________________________________________________________________________________________________
stage2_block_r2_d4 (Conv2D)     (None, 16, 16, 32)   55296       concatenate_52[0][0]             
__________________________________________________________________________________________________
stage2_block_r2_d4_bn (BatchNor (None, 16, 16, 32)   128         stage2_block_r2_d4[0][0]         
__________________________________________________________________________________________________
stage2_block_r2_d4_act (Activat (None, 16, 16, 32)   0           stage2_block_r2_d4_bn[0][0]      
__________________________________________________________________________________________________
concatenate_53 (Concatenate)    (None, 16, 16, 224)  0           concatenate_52[0][0]             
                                                                 stage2_block_r2_d4_act[0][0]     
__________________________________________________________________________________________________
stage2_block_r2_d5 (Conv2D)     (None, 16, 16, 32)   64512       concatenate_53[0][0]             
__________________________________________________________________________________________________
stage2_block_r2_d5_bn (BatchNor (None, 16, 16, 32)   128         stage2_block_r2_d5[0][0]         
__________________________________________________________________________________________________
stage2_block_r2_d5_act (Activat (None, 16, 16, 32)   0           stage2_block_r2_d5_bn[0][0]      
__________________________________________________________________________________________________
concatenate_54 (Concatenate)    (None, 16, 16, 256)  0           concatenate_53[0][0]             
                                                                 stage2_block_r2_d5_act[0][0]     
__________________________________________________________________________________________________
stage2_block_r2_d6 (Conv2D)     (None, 16, 16, 32)   73728       concatenate_54[0][0]             
__________________________________________________________________________________________________
stage2_block_r2_d6_bn (BatchNor (None, 16, 16, 32)   128         stage2_block_r2_d6[0][0]         
__________________________________________________________________________________________________
stage2_block_r2_d6_act (Activat (None, 16, 16, 32)   0           stage2_block_r2_d6_bn[0][0]      
__________________________________________________________________________________________________
concatenate_55 (Concatenate)    (None, 16, 16, 288)  0           concatenate_54[0][0]             
                                                                 stage2_block_r2_d6_act[0][0]     
__________________________________________________________________________________________________
stage2_block_r2_d7 (Conv2D)     (None, 16, 16, 32)   82944       concatenate_55[0][0]             
__________________________________________________________________________________________________
stage2_block_r2_d7_bn (BatchNor (None, 16, 16, 32)   128         stage2_block_r2_d7[0][0]         
__________________________________________________________________________________________________
stage2_block_r2_d7_act (Activat (None, 16, 16, 32)   0           stage2_block_r2_d7_bn[0][0]      
__________________________________________________________________________________________________
concatenate_56 (Concatenate)    (None, 16, 16, 320)  0           concatenate_55[0][0]             
                                                                 stage2_block_r2_d7_act[0][0]     
__________________________________________________________________________________________________
stage2_block_r2_c2 (Conv2D)     (None, 16, 16, 256)  81920       concatenate_56[0][0]             
__________________________________________________________________________________________________
stage2_block_r2_c2_bn (BatchNor (None, 16, 16, 256)  1024        stage2_block_r2_c2[0][0]         
__________________________________________________________________________________________________
stage2_block_r2_add (Add)       (None, 16, 16, 256)  0           stage2_block_r1_add[0][0]        
                                                                 stage2_block_r2_c2_bn[0][0]      
__________________________________________________________________________________________________
stage2_block_r3_c1 (Conv2D)     (None, 16, 16, 64)   147456      stage2_block_r2_add[0][0]        
__________________________________________________________________________________________________
stage2_block_r3_c1_bn (BatchNor (None, 16, 16, 64)   256         stage2_block_r3_c1[0][0]         
__________________________________________________________________________________________________
stage2_block_r3_c1_act (Activat (None, 16, 16, 64)   0           stage2_block_r3_c1_bn[0][0]      
__________________________________________________________________________________________________
stage2_block_r3_d0 (Conv2D)     (None, 16, 16, 32)   18432       stage2_block_r3_c1_act[0][0]     
__________________________________________________________________________________________________
stage2_block_r3_d0_bn (BatchNor (None, 16, 16, 32)   128         stage2_block_r3_d0[0][0]         
__________________________________________________________________________________________________
stage2_block_r3_d0_act (Activat (None, 16, 16, 32)   0           stage2_block_r3_d0_bn[0][0]      
__________________________________________________________________________________________________
concatenate_57 (Concatenate)    (None, 16, 16, 96)   0           stage2_block_r3_c1_act[0][0]     
                                                                 stage2_block_r3_d0_act[0][0]     
__________________________________________________________________________________________________
stage2_block_r3_d1 (Conv2D)     (None, 16, 16, 32)   27648       concatenate_57[0][0]             
__________________________________________________________________________________________________
stage2_block_r3_d1_bn (BatchNor (None, 16, 16, 32)   128         stage2_block_r3_d1[0][0]         
__________________________________________________________________________________________________
stage2_block_r3_d1_act (Activat (None, 16, 16, 32)   0           stage2_block_r3_d1_bn[0][0]      
__________________________________________________________________________________________________
concatenate_58 (Concatenate)    (None, 16, 16, 128)  0           concatenate_57[0][0]             
                                                                 stage2_block_r3_d1_act[0][0]     
__________________________________________________________________________________________________
stage2_block_r3_d2 (Conv2D)     (None, 16, 16, 32)   36864       concatenate_58[0][0]             
__________________________________________________________________________________________________
stage2_block_r3_d2_bn (BatchNor (None, 16, 16, 32)   128         stage2_block_r3_d2[0][0]         
__________________________________________________________________________________________________
stage2_block_r3_d2_act (Activat (None, 16, 16, 32)   0           stage2_block_r3_d2_bn[0][0]      
__________________________________________________________________________________________________
concatenate_59 (Concatenate)    (None, 16, 16, 160)  0           concatenate_58[0][0]             
                                                                 stage2_block_r3_d2_act[0][0]     
__________________________________________________________________________________________________
stage2_block_r3_d3 (Conv2D)     (None, 16, 16, 32)   46080       concatenate_59[0][0]             
__________________________________________________________________________________________________
stage2_block_r3_d3_bn (BatchNor (None, 16, 16, 32)   128         stage2_block_r3_d3[0][0]         
__________________________________________________________________________________________________
stage2_block_r3_d3_act (Activat (None, 16, 16, 32)   0           stage2_block_r3_d3_bn[0][0]      
__________________________________________________________________________________________________
concatenate_60 (Concatenate)    (None, 16, 16, 192)  0           concatenate_59[0][0]             
                                                                 stage2_block_r3_d3_act[0][0]     
__________________________________________________________________________________________________
stage2_block_r3_d4 (Conv2D)     (None, 16, 16, 32)   55296       concatenate_60[0][0]             
__________________________________________________________________________________________________
stage2_block_r3_d4_bn (BatchNor (None, 16, 16, 32)   128         stage2_block_r3_d4[0][0]         
__________________________________________________________________________________________________
stage2_block_r3_d4_act (Activat (None, 16, 16, 32)   0           stage2_block_r3_d4_bn[0][0]      
__________________________________________________________________________________________________
concatenate_61 (Concatenate)    (None, 16, 16, 224)  0           concatenate_60[0][0]             
                                                                 stage2_block_r3_d4_act[0][0]     
__________________________________________________________________________________________________
stage2_block_r3_d5 (Conv2D)     (None, 16, 16, 32)   64512       concatenate_61[0][0]             
__________________________________________________________________________________________________
stage2_block_r3_d5_bn (BatchNor (None, 16, 16, 32)   128         stage2_block_r3_d5[0][0]         
__________________________________________________________________________________________________
stage2_block_r3_d5_act (Activat (None, 16, 16, 32)   0           stage2_block_r3_d5_bn[0][0]      
__________________________________________________________________________________________________
concatenate_62 (Concatenate)    (None, 16, 16, 256)  0           concatenate_61[0][0]             
                                                                 stage2_block_r3_d5_act[0][0]     
__________________________________________________________________________________________________
stage2_block_r3_d6 (Conv2D)     (None, 16, 16, 32)   73728       concatenate_62[0][0]             
__________________________________________________________________________________________________
stage2_block_r3_d6_bn (BatchNor (None, 16, 16, 32)   128         stage2_block_r3_d6[0][0]         
__________________________________________________________________________________________________
stage2_block_r3_d6_act (Activat (None, 16, 16, 32)   0           stage2_block_r3_d6_bn[0][0]      
__________________________________________________________________________________________________
concatenate_63 (Concatenate)    (None, 16, 16, 288)  0           concatenate_62[0][0]             
                                                                 stage2_block_r3_d6_act[0][0]     
__________________________________________________________________________________________________
stage2_block_r3_d7 (Conv2D)     (None, 16, 16, 32)   82944       concatenate_63[0][0]             
__________________________________________________________________________________________________
stage2_block_r3_d7_bn (BatchNor (None, 16, 16, 32)   128         stage2_block_r3_d7[0][0]         
__________________________________________________________________________________________________
stage2_block_r3_d7_act (Activat (None, 16, 16, 32)   0           stage2_block_r3_d7_bn[0][0]      
__________________________________________________________________________________________________
concatenate_64 (Concatenate)    (None, 16, 16, 320)  0           concatenate_63[0][0]             
                                                                 stage2_block_r3_d7_act[0][0]     
__________________________________________________________________________________________________
stage2_block_r3_c2 (Conv2D)     (None, 16, 16, 256)  81920       concatenate_64[0][0]             
__________________________________________________________________________________________________
stage2_block_r3_c2_bn (BatchNor (None, 16, 16, 256)  1024        stage2_block_r3_c2[0][0]         
__________________________________________________________________________________________________
stage2_block_r3_add (Add)       (None, 16, 16, 256)  0           stage2_block_r2_add[0][0]        
                                                                 stage2_block_r3_c2_bn[0][0]      
__________________________________________________________________________________________________
stage2_block_bn (BatchNormaliza (None, 16, 16, 256)  1024        stage2_block_r3_add[0][0]        
__________________________________________________________________________________________________
stage2_block_act (Activation)   (None, 16, 16, 256)  0           stage2_block_bn[0][0]            
__________________________________________________________________________________________________
stage3_block_start (Conv2D)     (None, 16, 16, 512)  1179648     stage2_block_act[0][0]           
__________________________________________________________________________________________________
stage3_block_start_bn (BatchNor (None, 16, 16, 512)  2048        stage3_block_start[0][0]         
__________________________________________________________________________________________________
stage3_block_pgp (ParallelGridP (None, 8, 8, 512)    0           stage3_block_start_bn[0][0]      
__________________________________________________________________________________________________
stage3_block_r0_c1 (Conv2D)     (None, 8, 8, 128)    589824      stage3_block_pgp[0][0]           
__________________________________________________________________________________________________
stage3_block_r0_c1_bn (BatchNor (None, 8, 8, 128)    512         stage3_block_r0_c1[0][0]         
__________________________________________________________________________________________________
stage3_block_r0_c1_act (Activat (None, 8, 8, 128)    0           stage3_block_r0_c1_bn[0][0]      
__________________________________________________________________________________________________
stage3_block_r0_d0 (Conv2D)     (None, 8, 8, 64)     73728       stage3_block_r0_c1_act[0][0]     
__________________________________________________________________________________________________
stage3_block_r0_d0_bn (BatchNor (None, 8, 8, 64)     256         stage3_block_r0_d0[0][0]         
__________________________________________________________________________________________________
stage3_block_r0_d0_act (Activat (None, 8, 8, 64)     0           stage3_block_r0_d0_bn[0][0]      
__________________________________________________________________________________________________
concatenate_65 (Concatenate)    (None, 8, 8, 192)    0           stage3_block_r0_c1_act[0][0]     
                                                                 stage3_block_r0_d0_act[0][0]     
__________________________________________________________________________________________________
stage3_block_r0_d1 (Conv2D)     (None, 8, 8, 64)     110592      concatenate_65[0][0]             
__________________________________________________________________________________________________
stage3_block_r0_d1_bn (BatchNor (None, 8, 8, 64)     256         stage3_block_r0_d1[0][0]         
__________________________________________________________________________________________________
stage3_block_r0_d1_act (Activat (None, 8, 8, 64)     0           stage3_block_r0_d1_bn[0][0]      
__________________________________________________________________________________________________
concatenate_66 (Concatenate)    (None, 8, 8, 256)    0           concatenate_65[0][0]             
                                                                 stage3_block_r0_d1_act[0][0]     
__________________________________________________________________________________________________
stage3_block_r0_d2 (Conv2D)     (None, 8, 8, 64)     147456      concatenate_66[0][0]             
__________________________________________________________________________________________________
stage3_block_r0_d2_bn (BatchNor (None, 8, 8, 64)     256         stage3_block_r0_d2[0][0]         
__________________________________________________________________________________________________
stage3_block_r0_d2_act (Activat (None, 8, 8, 64)     0           stage3_block_r0_d2_bn[0][0]      
__________________________________________________________________________________________________
concatenate_67 (Concatenate)    (None, 8, 8, 320)    0           concatenate_66[0][0]             
                                                                 stage3_block_r0_d2_act[0][0]     
__________________________________________________________________________________________________
stage3_block_r0_d3 (Conv2D)     (None, 8, 8, 64)     184320      concatenate_67[0][0]             
__________________________________________________________________________________________________
stage3_block_r0_d3_bn (BatchNor (None, 8, 8, 64)     256         stage3_block_r0_d3[0][0]         
__________________________________________________________________________________________________
stage3_block_r0_d3_act (Activat (None, 8, 8, 64)     0           stage3_block_r0_d3_bn[0][0]      
__________________________________________________________________________________________________
concatenate_68 (Concatenate)    (None, 8, 8, 384)    0           concatenate_67[0][0]             
                                                                 stage3_block_r0_d3_act[0][0]     
__________________________________________________________________________________________________
stage3_block_r0_d4 (Conv2D)     (None, 8, 8, 64)     221184      concatenate_68[0][0]             
__________________________________________________________________________________________________
stage3_block_r0_d4_bn (BatchNor (None, 8, 8, 64)     256         stage3_block_r0_d4[0][0]         
__________________________________________________________________________________________________
stage3_block_r0_d4_act (Activat (None, 8, 8, 64)     0           stage3_block_r0_d4_bn[0][0]      
__________________________________________________________________________________________________
concatenate_69 (Concatenate)    (None, 8, 8, 448)    0           concatenate_68[0][0]             
                                                                 stage3_block_r0_d4_act[0][0]     
__________________________________________________________________________________________________
stage3_block_r0_d5 (Conv2D)     (None, 8, 8, 64)     258048      concatenate_69[0][0]             
__________________________________________________________________________________________________
stage3_block_r0_d5_bn (BatchNor (None, 8, 8, 64)     256         stage3_block_r0_d5[0][0]         
__________________________________________________________________________________________________
stage3_block_r0_d5_act (Activat (None, 8, 8, 64)     0           stage3_block_r0_d5_bn[0][0]      
__________________________________________________________________________________________________
concatenate_70 (Concatenate)    (None, 8, 8, 512)    0           concatenate_69[0][0]             
                                                                 stage3_block_r0_d5_act[0][0]     
__________________________________________________________________________________________________
stage3_block_r0_d6 (Conv2D)     (None, 8, 8, 64)     294912      concatenate_70[0][0]             
__________________________________________________________________________________________________
stage3_block_r0_d6_bn (BatchNor (None, 8, 8, 64)     256         stage3_block_r0_d6[0][0]         
__________________________________________________________________________________________________
stage3_block_r0_d6_act (Activat (None, 8, 8, 64)     0           stage3_block_r0_d6_bn[0][0]      
__________________________________________________________________________________________________
concatenate_71 (Concatenate)    (None, 8, 8, 576)    0           concatenate_70[0][0]             
                                                                 stage3_block_r0_d6_act[0][0]     
__________________________________________________________________________________________________
stage3_block_r0_d7 (Conv2D)     (None, 8, 8, 64)     331776      concatenate_71[0][0]             
__________________________________________________________________________________________________
stage3_block_r0_d7_bn (BatchNor (None, 8, 8, 64)     256         stage3_block_r0_d7[0][0]         
__________________________________________________________________________________________________
stage3_block_r0_d7_act (Activat (None, 8, 8, 64)     0           stage3_block_r0_d7_bn[0][0]      
__________________________________________________________________________________________________
concatenate_72 (Concatenate)    (None, 8, 8, 640)    0           concatenate_71[0][0]             
                                                                 stage3_block_r0_d7_act[0][0]     
__________________________________________________________________________________________________
stage3_block_r0_c2 (Conv2D)     (None, 8, 8, 512)    327680      concatenate_72[0][0]             
__________________________________________________________________________________________________
stage3_block_r0_c2_bn (BatchNor (None, 8, 8, 512)    2048        stage3_block_r0_c2[0][0]         
__________________________________________________________________________________________________
stage3_block_r0_add (Add)       (None, 8, 8, 512)    0           stage3_block_pgp[0][0]           
                                                                 stage3_block_r0_c2_bn[0][0]      
__________________________________________________________________________________________________
stage3_block_r1_c1 (Conv2D)     (None, 8, 8, 128)    589824      stage3_block_r0_add[0][0]        
__________________________________________________________________________________________________
stage3_block_r1_c1_bn (BatchNor (None, 8, 8, 128)    512         stage3_block_r1_c1[0][0]         
__________________________________________________________________________________________________
stage3_block_r1_c1_act (Activat (None, 8, 8, 128)    0           stage3_block_r1_c1_bn[0][0]      
__________________________________________________________________________________________________
stage3_block_r1_d0 (Conv2D)     (None, 8, 8, 64)     73728       stage3_block_r1_c1_act[0][0]     
__________________________________________________________________________________________________
stage3_block_r1_d0_bn (BatchNor (None, 8, 8, 64)     256         stage3_block_r1_d0[0][0]         
__________________________________________________________________________________________________
stage3_block_r1_d0_act (Activat (None, 8, 8, 64)     0           stage3_block_r1_d0_bn[0][0]      
__________________________________________________________________________________________________
concatenate_73 (Concatenate)    (None, 8, 8, 192)    0           stage3_block_r1_c1_act[0][0]     
                                                                 stage3_block_r1_d0_act[0][0]     
__________________________________________________________________________________________________
stage3_block_r1_d1 (Conv2D)     (None, 8, 8, 64)     110592      concatenate_73[0][0]             
__________________________________________________________________________________________________
stage3_block_r1_d1_bn (BatchNor (None, 8, 8, 64)     256         stage3_block_r1_d1[0][0]         
__________________________________________________________________________________________________
stage3_block_r1_d1_act (Activat (None, 8, 8, 64)     0           stage3_block_r1_d1_bn[0][0]      
__________________________________________________________________________________________________
concatenate_74 (Concatenate)    (None, 8, 8, 256)    0           concatenate_73[0][0]             
                                                                 stage3_block_r1_d1_act[0][0]     
__________________________________________________________________________________________________
stage3_block_r1_d2 (Conv2D)     (None, 8, 8, 64)     147456      concatenate_74[0][0]             
__________________________________________________________________________________________________
stage3_block_r1_d2_bn (BatchNor (None, 8, 8, 64)     256         stage3_block_r1_d2[0][0]         
__________________________________________________________________________________________________
stage3_block_r1_d2_act (Activat (None, 8, 8, 64)     0           stage3_block_r1_d2_bn[0][0]      
__________________________________________________________________________________________________
concatenate_75 (Concatenate)    (None, 8, 8, 320)    0           concatenate_74[0][0]             
                                                                 stage3_block_r1_d2_act[0][0]     
__________________________________________________________________________________________________
stage3_block_r1_d3 (Conv2D)     (None, 8, 8, 64)     184320      concatenate_75[0][0]             
__________________________________________________________________________________________________
stage3_block_r1_d3_bn (BatchNor (None, 8, 8, 64)     256         stage3_block_r1_d3[0][0]         
__________________________________________________________________________________________________
stage3_block_r1_d3_act (Activat (None, 8, 8, 64)     0           stage3_block_r1_d3_bn[0][0]      
__________________________________________________________________________________________________
concatenate_76 (Concatenate)    (None, 8, 8, 384)    0           concatenate_75[0][0]             
                                                                 stage3_block_r1_d3_act[0][0]     
__________________________________________________________________________________________________
stage3_block_r1_d4 (Conv2D)     (None, 8, 8, 64)     221184      concatenate_76[0][0]             
__________________________________________________________________________________________________
stage3_block_r1_d4_bn (BatchNor (None, 8, 8, 64)     256         stage3_block_r1_d4[0][0]         
__________________________________________________________________________________________________
stage3_block_r1_d4_act (Activat (None, 8, 8, 64)     0           stage3_block_r1_d4_bn[0][0]      
__________________________________________________________________________________________________
concatenate_77 (Concatenate)    (None, 8, 8, 448)    0           concatenate_76[0][0]             
                                                                 stage3_block_r1_d4_act[0][0]     
__________________________________________________________________________________________________
stage3_block_r1_d5 (Conv2D)     (None, 8, 8, 64)     258048      concatenate_77[0][0]             
__________________________________________________________________________________________________
stage3_block_r1_d5_bn (BatchNor (None, 8, 8, 64)     256         stage3_block_r1_d5[0][0]         
__________________________________________________________________________________________________
stage3_block_r1_d5_act (Activat (None, 8, 8, 64)     0           stage3_block_r1_d5_bn[0][0]      
__________________________________________________________________________________________________
concatenate_78 (Concatenate)    (None, 8, 8, 512)    0           concatenate_77[0][0]             
                                                                 stage3_block_r1_d5_act[0][0]     
__________________________________________________________________________________________________
stage3_block_r1_d6 (Conv2D)     (None, 8, 8, 64)     294912      concatenate_78[0][0]             
__________________________________________________________________________________________________
stage3_block_r1_d6_bn (BatchNor (None, 8, 8, 64)     256         stage3_block_r1_d6[0][0]         
__________________________________________________________________________________________________
stage3_block_r1_d6_act (Activat (None, 8, 8, 64)     0           stage3_block_r1_d6_bn[0][0]      
__________________________________________________________________________________________________
concatenate_79 (Concatenate)    (None, 8, 8, 576)    0           concatenate_78[0][0]             
                                                                 stage3_block_r1_d6_act[0][0]     
__________________________________________________________________________________________________
stage3_block_r1_d7 (Conv2D)     (None, 8, 8, 64)     331776      concatenate_79[0][0]             
__________________________________________________________________________________________________
stage3_block_r1_d7_bn (BatchNor (None, 8, 8, 64)     256         stage3_block_r1_d7[0][0]         
__________________________________________________________________________________________________
stage3_block_r1_d7_act (Activat (None, 8, 8, 64)     0           stage3_block_r1_d7_bn[0][0]      
__________________________________________________________________________________________________
concatenate_80 (Concatenate)    (None, 8, 8, 640)    0           concatenate_79[0][0]             
                                                                 stage3_block_r1_d7_act[0][0]     
__________________________________________________________________________________________________
stage3_block_r1_c2 (Conv2D)     (None, 8, 8, 512)    327680      concatenate_80[0][0]             
__________________________________________________________________________________________________
stage3_block_r1_c2_bn (BatchNor (None, 8, 8, 512)    2048        stage3_block_r1_c2[0][0]         
__________________________________________________________________________________________________
stage3_block_r1_add (Add)       (None, 8, 8, 512)    0           stage3_block_r0_add[0][0]        
                                                                 stage3_block_r1_c2_bn[0][0]      
__________________________________________________________________________________________________
stage3_block_r2_c1 (Conv2D)     (None, 8, 8, 128)    589824      stage3_block_r1_add[0][0]        
__________________________________________________________________________________________________
stage3_block_r2_c1_bn (BatchNor (None, 8, 8, 128)    512         stage3_block_r2_c1[0][0]         
__________________________________________________________________________________________________
stage3_block_r2_c1_act (Activat (None, 8, 8, 128)    0           stage3_block_r2_c1_bn[0][0]      
__________________________________________________________________________________________________
stage3_block_r2_d0 (Conv2D)     (None, 8, 8, 64)     73728       stage3_block_r2_c1_act[0][0]     
__________________________________________________________________________________________________
stage3_block_r2_d0_bn (BatchNor (None, 8, 8, 64)     256         stage3_block_r2_d0[0][0]         
__________________________________________________________________________________________________
stage3_block_r2_d0_act (Activat (None, 8, 8, 64)     0           stage3_block_r2_d0_bn[0][0]      
__________________________________________________________________________________________________
concatenate_81 (Concatenate)    (None, 8, 8, 192)    0           stage3_block_r2_c1_act[0][0]     
                                                                 stage3_block_r2_d0_act[0][0]     
__________________________________________________________________________________________________
stage3_block_r2_d1 (Conv2D)     (None, 8, 8, 64)     110592      concatenate_81[0][0]             
__________________________________________________________________________________________________
stage3_block_r2_d1_bn (BatchNor (None, 8, 8, 64)     256         stage3_block_r2_d1[0][0]         
__________________________________________________________________________________________________
stage3_block_r2_d1_act (Activat (None, 8, 8, 64)     0           stage3_block_r2_d1_bn[0][0]      
__________________________________________________________________________________________________
concatenate_82 (Concatenate)    (None, 8, 8, 256)    0           concatenate_81[0][0]             
                                                                 stage3_block_r2_d1_act[0][0]     
__________________________________________________________________________________________________
stage3_block_r2_d2 (Conv2D)     (None, 8, 8, 64)     147456      concatenate_82[0][0]             
__________________________________________________________________________________________________
stage3_block_r2_d2_bn (BatchNor (None, 8, 8, 64)     256         stage3_block_r2_d2[0][0]         
__________________________________________________________________________________________________
stage3_block_r2_d2_act (Activat (None, 8, 8, 64)     0           stage3_block_r2_d2_bn[0][0]      
__________________________________________________________________________________________________
concatenate_83 (Concatenate)    (None, 8, 8, 320)    0           concatenate_82[0][0]             
                                                                 stage3_block_r2_d2_act[0][0]     
__________________________________________________________________________________________________
stage3_block_r2_d3 (Conv2D)     (None, 8, 8, 64)     184320      concatenate_83[0][0]             
__________________________________________________________________________________________________
stage3_block_r2_d3_bn (BatchNor (None, 8, 8, 64)     256         stage3_block_r2_d3[0][0]         
__________________________________________________________________________________________________
stage3_block_r2_d3_act (Activat (None, 8, 8, 64)     0           stage3_block_r2_d3_bn[0][0]      
__________________________________________________________________________________________________
concatenate_84 (Concatenate)    (None, 8, 8, 384)    0           concatenate_83[0][0]             
                                                                 stage3_block_r2_d3_act[0][0]     
__________________________________________________________________________________________________
stage3_block_r2_d4 (Conv2D)     (None, 8, 8, 64)     221184      concatenate_84[0][0]             
__________________________________________________________________________________________________
stage3_block_r2_d4_bn (BatchNor (None, 8, 8, 64)     256         stage3_block_r2_d4[0][0]         
__________________________________________________________________________________________________
stage3_block_r2_d4_act (Activat (None, 8, 8, 64)     0           stage3_block_r2_d4_bn[0][0]      
__________________________________________________________________________________________________
concatenate_85 (Concatenate)    (None, 8, 8, 448)    0           concatenate_84[0][0]             
                                                                 stage3_block_r2_d4_act[0][0]     
__________________________________________________________________________________________________
stage3_block_r2_d5 (Conv2D)     (None, 8, 8, 64)     258048      concatenate_85[0][0]             
__________________________________________________________________________________________________
stage3_block_r2_d5_bn (BatchNor (None, 8, 8, 64)     256         stage3_block_r2_d5[0][0]         
__________________________________________________________________________________________________
stage3_block_r2_d5_act (Activat (None, 8, 8, 64)     0           stage3_block_r2_d5_bn[0][0]      
__________________________________________________________________________________________________
concatenate_86 (Concatenate)    (None, 8, 8, 512)    0           concatenate_85[0][0]             
                                                                 stage3_block_r2_d5_act[0][0]     
__________________________________________________________________________________________________
stage3_block_r2_d6 (Conv2D)     (None, 8, 8, 64)     294912      concatenate_86[0][0]             
__________________________________________________________________________________________________
stage3_block_r2_d6_bn (BatchNor (None, 8, 8, 64)     256         stage3_block_r2_d6[0][0]         
__________________________________________________________________________________________________
stage3_block_r2_d6_act (Activat (None, 8, 8, 64)     0           stage3_block_r2_d6_bn[0][0]      
__________________________________________________________________________________________________
concatenate_87 (Concatenate)    (None, 8, 8, 576)    0           concatenate_86[0][0]             
                                                                 stage3_block_r2_d6_act[0][0]     
__________________________________________________________________________________________________
stage3_block_r2_d7 (Conv2D)     (None, 8, 8, 64)     331776      concatenate_87[0][0]             
__________________________________________________________________________________________________
stage3_block_r2_d7_bn (BatchNor (None, 8, 8, 64)     256         stage3_block_r2_d7[0][0]         
__________________________________________________________________________________________________
stage3_block_r2_d7_act (Activat (None, 8, 8, 64)     0           stage3_block_r2_d7_bn[0][0]      
__________________________________________________________________________________________________
concatenate_88 (Concatenate)    (None, 8, 8, 640)    0           concatenate_87[0][0]             
                                                                 stage3_block_r2_d7_act[0][0]     
__________________________________________________________________________________________________
stage3_block_r2_c2 (Conv2D)     (None, 8, 8, 512)    327680      concatenate_88[0][0]             
__________________________________________________________________________________________________
stage3_block_r2_c2_bn (BatchNor (None, 8, 8, 512)    2048        stage3_block_r2_c2[0][0]         
__________________________________________________________________________________________________
stage3_block_r2_add (Add)       (None, 8, 8, 512)    0           stage3_block_r1_add[0][0]        
                                                                 stage3_block_r2_c2_bn[0][0]      
__________________________________________________________________________________________________
stage3_block_r3_c1 (Conv2D)     (None, 8, 8, 128)    589824      stage3_block_r2_add[0][0]        
__________________________________________________________________________________________________
stage3_block_r3_c1_bn (BatchNor (None, 8, 8, 128)    512         stage3_block_r3_c1[0][0]         
__________________________________________________________________________________________________
stage3_block_r3_c1_act (Activat (None, 8, 8, 128)    0           stage3_block_r3_c1_bn[0][0]      
__________________________________________________________________________________________________
stage3_block_r3_d0 (Conv2D)     (None, 8, 8, 64)     73728       stage3_block_r3_c1_act[0][0]     
__________________________________________________________________________________________________
stage3_block_r3_d0_bn (BatchNor (None, 8, 8, 64)     256         stage3_block_r3_d0[0][0]         
__________________________________________________________________________________________________
stage3_block_r3_d0_act (Activat (None, 8, 8, 64)     0           stage3_block_r3_d0_bn[0][0]      
__________________________________________________________________________________________________
concatenate_89 (Concatenate)    (None, 8, 8, 192)    0           stage3_block_r3_c1_act[0][0]     
                                                                 stage3_block_r3_d0_act[0][0]     
__________________________________________________________________________________________________
stage3_block_r3_d1 (Conv2D)     (None, 8, 8, 64)     110592      concatenate_89[0][0]             
__________________________________________________________________________________________________
stage3_block_r3_d1_bn (BatchNor (None, 8, 8, 64)     256         stage3_block_r3_d1[0][0]         
__________________________________________________________________________________________________
stage3_block_r3_d1_act (Activat (None, 8, 8, 64)     0           stage3_block_r3_d1_bn[0][0]      
__________________________________________________________________________________________________
concatenate_90 (Concatenate)    (None, 8, 8, 256)    0           concatenate_89[0][0]             
                                                                 stage3_block_r3_d1_act[0][0]     
__________________________________________________________________________________________________
stage3_block_r3_d2 (Conv2D)     (None, 8, 8, 64)     147456      concatenate_90[0][0]             
__________________________________________________________________________________________________
stage3_block_r3_d2_bn (BatchNor (None, 8, 8, 64)     256         stage3_block_r3_d2[0][0]         
__________________________________________________________________________________________________
stage3_block_r3_d2_act (Activat (None, 8, 8, 64)     0           stage3_block_r3_d2_bn[0][0]      
__________________________________________________________________________________________________
concatenate_91 (Concatenate)    (None, 8, 8, 320)    0           concatenate_90[0][0]             
                                                                 stage3_block_r3_d2_act[0][0]     
__________________________________________________________________________________________________
stage3_block_r3_d3 (Conv2D)     (None, 8, 8, 64)     184320      concatenate_91[0][0]             
__________________________________________________________________________________________________
stage3_block_r3_d3_bn (BatchNor (None, 8, 8, 64)     256         stage3_block_r3_d3[0][0]         
__________________________________________________________________________________________________
stage3_block_r3_d3_act (Activat (None, 8, 8, 64)     0           stage3_block_r3_d3_bn[0][0]      
__________________________________________________________________________________________________
concatenate_92 (Concatenate)    (None, 8, 8, 384)    0           concatenate_91[0][0]             
                                                                 stage3_block_r3_d3_act[0][0]     
__________________________________________________________________________________________________
stage3_block_r3_d4 (Conv2D)     (None, 8, 8, 64)     221184      concatenate_92[0][0]             
__________________________________________________________________________________________________
stage3_block_r3_d4_bn (BatchNor (None, 8, 8, 64)     256         stage3_block_r3_d4[0][0]         
__________________________________________________________________________________________________
stage3_block_r3_d4_act (Activat (None, 8, 8, 64)     0           stage3_block_r3_d4_bn[0][0]      
__________________________________________________________________________________________________
concatenate_93 (Concatenate)    (None, 8, 8, 448)    0           concatenate_92[0][0]             
                                                                 stage3_block_r3_d4_act[0][0]     
__________________________________________________________________________________________________
stage3_block_r3_d5 (Conv2D)     (None, 8, 8, 64)     258048      concatenate_93[0][0]             
__________________________________________________________________________________________________
stage3_block_r3_d5_bn (BatchNor (None, 8, 8, 64)     256         stage3_block_r3_d5[0][0]         
__________________________________________________________________________________________________
stage3_block_r3_d5_act (Activat (None, 8, 8, 64)     0           stage3_block_r3_d5_bn[0][0]      
__________________________________________________________________________________________________
concatenate_94 (Concatenate)    (None, 8, 8, 512)    0           concatenate_93[0][0]             
                                                                 stage3_block_r3_d5_act[0][0]     
__________________________________________________________________________________________________
stage3_block_r3_d6 (Conv2D)     (None, 8, 8, 64)     294912      concatenate_94[0][0]             
__________________________________________________________________________________________________
stage3_block_r3_d6_bn (BatchNor (None, 8, 8, 64)     256         stage3_block_r3_d6[0][0]         
__________________________________________________________________________________________________
stage3_block_r3_d6_act (Activat (None, 8, 8, 64)     0           stage3_block_r3_d6_bn[0][0]      
__________________________________________________________________________________________________
concatenate_95 (Concatenate)    (None, 8, 8, 576)    0           concatenate_94[0][0]             
                                                                 stage3_block_r3_d6_act[0][0]     
__________________________________________________________________________________________________
stage3_block_r3_d7 (Conv2D)     (None, 8, 8, 64)     331776      concatenate_95[0][0]             
__________________________________________________________________________________________________
stage3_block_r3_d7_bn (BatchNor (None, 8, 8, 64)     256         stage3_block_r3_d7[0][0]         
__________________________________________________________________________________________________
stage3_block_r3_d7_act (Activat (None, 8, 8, 64)     0           stage3_block_r3_d7_bn[0][0]      
__________________________________________________________________________________________________
concatenate_96 (Concatenate)    (None, 8, 8, 640)    0           concatenate_95[0][0]             
                                                                 stage3_block_r3_d7_act[0][0]     
__________________________________________________________________________________________________
stage3_block_r3_c2 (Conv2D)     (None, 8, 8, 512)    327680      concatenate_96[0][0]             
__________________________________________________________________________________________________
stage3_block_r3_c2_bn (BatchNor (None, 8, 8, 512)    2048        stage3_block_r3_c2[0][0]         
__________________________________________________________________________________________________
stage3_block_r3_add (Add)       (None, 8, 8, 512)    0           stage3_block_r2_add[0][0]        
                                                                 stage3_block_r3_c2_bn[0][0]      
__________________________________________________________________________________________________
stage3_block_bn (BatchNormaliza (None, 8, 8, 512)    2048        stage3_block_r3_add[0][0]        
__________________________________________________________________________________________________
stage3_block_act (Activation)   (None, 8, 8, 512)    0           stage3_block_bn[0][0]            
__________________________________________________________________________________________________
dropout (Dropout)               (None, 8, 8, 512)    0           stage3_block_act[0][0]           
__________________________________________________________________________________________________
pooling (GlobalAveragePooling2D (None, 512)          0           dropout[0][0]                    
__________________________________________________________________________________________________
predictions (Dense)             (None, 100)          51300       pooling[0][0]                    
__________________________________________________________________________________________________
pgg (ParallelGridGather2D)      (None, 100)          0           predictions[0][0]                
==================================================================================================
Total params: 14,901,220
Trainable params: 14,881,508
Non-trainable params: 19,712
__________________________________________________________________________________________________
network depth: 124
fit 開始
Epoch 150: Learning rate 2.5e-01 -> 2.5e-02
Epoch 225: Learning rate 2.5e-02 -> 2.5e-03
…
