____________________________________________________________________________________________________
Layer (type)                     Output Shape          Param #     Connected to                     
====================================================================================================
input_1 (InputLayer)             (None, 32, 32, 3)     0                                            
____________________________________________________________________________________________________
start_conv (Conv2D)              (None, 32, 32, 64)    1728        input_1[0][0]                    
____________________________________________________________________________________________________
start_bn (BatchNormalization)    (None, 32, 32, 64)    256         start_conv[0][0]                 
____________________________________________________________________________________________________
start_act (ELU)                  (None, 32, 32, 64)    0           start_bn[0][0]                   
____________________________________________________________________________________________________
stage1_block_b0_sq_conv (Conv2D) (None, 32, 32, 128)   8192        start_act[0][0]                  
____________________________________________________________________________________________________
stage1_block_b0_sq_bn (BatchNorm (None, 32, 32, 128)   512         stage1_block_b0_sq_conv[0][0]    
____________________________________________________________________________________________________
stage1_block_b0_sq_act (ELU)     (None, 32, 32, 128)   0           stage1_block_b0_sq_bn[0][0]      
____________________________________________________________________________________________________
stage1_block_b0_drop (Dropout)   (None, 32, 32, 128)   0           stage1_block_b0_sq_act[0][0]     
____________________________________________________________________________________________________
stage1_block_b0_ex_conv (Conv2D) (None, 32, 32, 32)    36864       stage1_block_b0_drop[0][0]       
____________________________________________________________________________________________________
stage1_block_b0_ex_bn (BatchNorm (None, 32, 32, 32)    128         stage1_block_b0_ex_conv[0][0]    
____________________________________________________________________________________________________
stage1_block_b0_ex_act (ELU)     (None, 32, 32, 32)    0           stage1_block_b0_ex_bn[0][0]      
____________________________________________________________________________________________________
concatenate_1 (Concatenate)      (None, 32, 32, 96)    0           start_act[0][0]                  
                                                                   stage1_block_b0_ex_act[0][0]     
____________________________________________________________________________________________________
stage1_block_b1_sq_conv (Conv2D) (None, 32, 32, 128)   12288       concatenate_1[0][0]              
____________________________________________________________________________________________________
stage1_block_b1_sq_bn (BatchNorm (None, 32, 32, 128)   512         stage1_block_b1_sq_conv[0][0]    
____________________________________________________________________________________________________
stage1_block_b1_sq_act (ELU)     (None, 32, 32, 128)   0           stage1_block_b1_sq_bn[0][0]      
____________________________________________________________________________________________________
stage1_block_b1_drop (Dropout)   (None, 32, 32, 128)   0           stage1_block_b1_sq_act[0][0]     
____________________________________________________________________________________________________
stage1_block_b1_ex_conv (Conv2D) (None, 32, 32, 32)    36864       stage1_block_b1_drop[0][0]       
____________________________________________________________________________________________________
stage1_block_b1_ex_bn (BatchNorm (None, 32, 32, 32)    128         stage1_block_b1_ex_conv[0][0]    
____________________________________________________________________________________________________
stage1_block_b1_ex_act (ELU)     (None, 32, 32, 32)    0           stage1_block_b1_ex_bn[0][0]      
____________________________________________________________________________________________________
concatenate_2 (Concatenate)      (None, 32, 32, 128)   0           concatenate_1[0][0]              
                                                                   stage1_block_b1_ex_act[0][0]     
____________________________________________________________________________________________________
stage1_block_b2_sq_conv (Conv2D) (None, 32, 32, 128)   16384       concatenate_2[0][0]              
____________________________________________________________________________________________________
stage1_block_b2_sq_bn (BatchNorm (None, 32, 32, 128)   512         stage1_block_b2_sq_conv[0][0]    
____________________________________________________________________________________________________
stage1_block_b2_sq_act (ELU)     (None, 32, 32, 128)   0           stage1_block_b2_sq_bn[0][0]      
____________________________________________________________________________________________________
stage1_block_b2_drop (Dropout)   (None, 32, 32, 128)   0           stage1_block_b2_sq_act[0][0]     
____________________________________________________________________________________________________
stage1_block_b2_ex_conv (Conv2D) (None, 32, 32, 32)    36864       stage1_block_b2_drop[0][0]       
____________________________________________________________________________________________________
stage1_block_b2_ex_bn (BatchNorm (None, 32, 32, 32)    128         stage1_block_b2_ex_conv[0][0]    
____________________________________________________________________________________________________
stage1_block_b2_ex_act (ELU)     (None, 32, 32, 32)    0           stage1_block_b2_ex_bn[0][0]      
____________________________________________________________________________________________________
concatenate_3 (Concatenate)      (None, 32, 32, 160)   0           concatenate_2[0][0]              
                                                                   stage1_block_b2_ex_act[0][0]     
____________________________________________________________________________________________________
stage1_block_b3_sq_conv (Conv2D) (None, 32, 32, 128)   20480       concatenate_3[0][0]              
____________________________________________________________________________________________________
stage1_block_b3_sq_bn (BatchNorm (None, 32, 32, 128)   512         stage1_block_b3_sq_conv[0][0]    
____________________________________________________________________________________________________
stage1_block_b3_sq_act (ELU)     (None, 32, 32, 128)   0           stage1_block_b3_sq_bn[0][0]      
____________________________________________________________________________________________________
stage1_block_b3_drop (Dropout)   (None, 32, 32, 128)   0           stage1_block_b3_sq_act[0][0]     
____________________________________________________________________________________________________
stage1_block_b3_ex_conv (Conv2D) (None, 32, 32, 32)    36864       stage1_block_b3_drop[0][0]       
____________________________________________________________________________________________________
stage1_block_b3_ex_bn (BatchNorm (None, 32, 32, 32)    128         stage1_block_b3_ex_conv[0][0]    
____________________________________________________________________________________________________
stage1_block_b3_ex_act (ELU)     (None, 32, 32, 32)    0           stage1_block_b3_ex_bn[0][0]      
____________________________________________________________________________________________________
concatenate_4 (Concatenate)      (None, 32, 32, 192)   0           concatenate_3[0][0]              
                                                                   stage1_block_b3_ex_act[0][0]     
____________________________________________________________________________________________________
stage1_block_b4_sq_conv (Conv2D) (None, 32, 32, 128)   24576       concatenate_4[0][0]              
____________________________________________________________________________________________________
stage1_block_b4_sq_bn (BatchNorm (None, 32, 32, 128)   512         stage1_block_b4_sq_conv[0][0]    
____________________________________________________________________________________________________
stage1_block_b4_sq_act (ELU)     (None, 32, 32, 128)   0           stage1_block_b4_sq_bn[0][0]      
____________________________________________________________________________________________________
stage1_block_b4_drop (Dropout)   (None, 32, 32, 128)   0           stage1_block_b4_sq_act[0][0]     
____________________________________________________________________________________________________
stage1_block_b4_ex_conv (Conv2D) (None, 32, 32, 32)    36864       stage1_block_b4_drop[0][0]       
____________________________________________________________________________________________________
stage1_block_b4_ex_bn (BatchNorm (None, 32, 32, 32)    128         stage1_block_b4_ex_conv[0][0]    
____________________________________________________________________________________________________
stage1_block_b4_ex_act (ELU)     (None, 32, 32, 32)    0           stage1_block_b4_ex_bn[0][0]      
____________________________________________________________________________________________________
concatenate_5 (Concatenate)      (None, 32, 32, 224)   0           concatenate_4[0][0]              
                                                                   stage1_block_b4_ex_act[0][0]     
____________________________________________________________________________________________________
stage1_block_b5_sq_conv (Conv2D) (None, 32, 32, 128)   28672       concatenate_5[0][0]              
____________________________________________________________________________________________________
stage1_block_b5_sq_bn (BatchNorm (None, 32, 32, 128)   512         stage1_block_b5_sq_conv[0][0]    
____________________________________________________________________________________________________
stage1_block_b5_sq_act (ELU)     (None, 32, 32, 128)   0           stage1_block_b5_sq_bn[0][0]      
____________________________________________________________________________________________________
stage1_block_b5_drop (Dropout)   (None, 32, 32, 128)   0           stage1_block_b5_sq_act[0][0]     
____________________________________________________________________________________________________
stage1_block_b5_ex_conv (Conv2D) (None, 32, 32, 32)    36864       stage1_block_b5_drop[0][0]       
____________________________________________________________________________________________________
stage1_block_b5_ex_bn (BatchNorm (None, 32, 32, 32)    128         stage1_block_b5_ex_conv[0][0]    
____________________________________________________________________________________________________
stage1_block_b5_ex_act (ELU)     (None, 32, 32, 32)    0           stage1_block_b5_ex_bn[0][0]      
____________________________________________________________________________________________________
concatenate_6 (Concatenate)      (None, 32, 32, 256)   0           concatenate_5[0][0]              
                                                                   stage1_block_b5_ex_act[0][0]     
____________________________________________________________________________________________________
stage1_block_sq_conv (Conv2D)    (None, 32, 32, 128)   32768       concatenate_6[0][0]              
____________________________________________________________________________________________________
stage1_block_sq_bn (BatchNormali (None, 32, 32, 128)   512         stage1_block_sq_conv[0][0]       
____________________________________________________________________________________________________
stage1_block_sq_act (ELU)        (None, 32, 32, 128)   0           stage1_block_sq_bn[0][0]         
____________________________________________________________________________________________________
stage1_ds_c2sq_conv (Conv2D)     (None, 32, 32, 32)    4096        stage1_block_sq_act[0][0]        
____________________________________________________________________________________________________
stage1_ds_c2sq_bn (BatchNormaliz (None, 32, 32, 32)    128         stage1_ds_c2sq_conv[0][0]        
____________________________________________________________________________________________________
stage1_ds_c2sq_act (ELU)         (None, 32, 32, 32)    0           stage1_ds_c2sq_bn[0][0]          
____________________________________________________________________________________________________
stage1_ds_c2c_conv (Conv2D)      (None, 32, 32, 32)    9216        stage1_ds_c2sq_act[0][0]         
____________________________________________________________________________________________________
stage1_ds_c2c_bn (BatchNormaliza (None, 32, 32, 32)    128         stage1_ds_c2c_conv[0][0]         
____________________________________________________________________________________________________
stage1_ds_avgsq_conv (Conv2D)    (None, 32, 32, 64)    8192        stage1_block_sq_act[0][0]        
____________________________________________________________________________________________________
stage1_ds_c2c_act (ELU)          (None, 32, 32, 32)    0           stage1_ds_c2c_bn[0][0]           
____________________________________________________________________________________________________
stage1_ds_avgsq_bn (BatchNormali (None, 32, 32, 64)    256         stage1_ds_avgsq_conv[0][0]       
____________________________________________________________________________________________________
stage1_ds_c1_conv (Conv2D)       (None, 16, 16, 32)    36864       stage1_block_sq_act[0][0]        
____________________________________________________________________________________________________
stage1_ds_c2ex_conv (Conv2D)     (None, 16, 16, 32)    9216        stage1_ds_c2c_act[0][0]          
____________________________________________________________________________________________________
stage1_ds_avgsq_act (ELU)        (None, 32, 32, 64)    0           stage1_ds_avgsq_bn[0][0]         
____________________________________________________________________________________________________
stage1_ds_c1_bn (BatchNormalizat (None, 16, 16, 32)    128         stage1_ds_c1_conv[0][0]          
____________________________________________________________________________________________________
stage1_ds_c2ex_bn (BatchNormaliz (None, 16, 16, 32)    128         stage1_ds_c2ex_conv[0][0]        
____________________________________________________________________________________________________
max_pooling2d_1 (MaxPooling2D)   (None, 16, 16, 128)   0           stage1_block_sq_act[0][0]        
____________________________________________________________________________________________________
average_pooling2d_1 (AveragePool (None, 16, 16, 64)    0           stage1_ds_avgsq_act[0][0]        
____________________________________________________________________________________________________
stage1_ds_c1_act (ELU)           (None, 16, 16, 32)    0           stage1_ds_c1_bn[0][0]            
____________________________________________________________________________________________________
stage1_ds_c2ex_act (ELU)         (None, 16, 16, 32)    0           stage1_ds_c2ex_bn[0][0]          
____________________________________________________________________________________________________
concatenate_7 (Concatenate)      (None, 16, 16, 256)   0           max_pooling2d_1[0][0]            
                                                                   average_pooling2d_1[0][0]        
                                                                   stage1_ds_c1_act[0][0]           
                                                                   stage1_ds_c2ex_act[0][0]         
____________________________________________________________________________________________________
stage1_ds_sq_conv (Conv2D)       (None, 16, 16, 128)   32768       concatenate_7[0][0]              
____________________________________________________________________________________________________
stage1_ds_sq_bn (BatchNormalizat (None, 16, 16, 128)   512         stage1_ds_sq_conv[0][0]          
____________________________________________________________________________________________________
stage1_ds_sq_act (ELU)           (None, 16, 16, 128)   0           stage1_ds_sq_bn[0][0]            
____________________________________________________________________________________________________
stage2_block_b0_sq_conv (Conv2D) (None, 16, 16, 192)   24576       stage1_ds_sq_act[0][0]           
____________________________________________________________________________________________________
stage2_block_b0_sq_bn (BatchNorm (None, 16, 16, 192)   768         stage2_block_b0_sq_conv[0][0]    
____________________________________________________________________________________________________
stage2_block_b0_sq_act (ELU)     (None, 16, 16, 192)   0           stage2_block_b0_sq_bn[0][0]      
____________________________________________________________________________________________________
stage2_block_b0_drop (Dropout)   (None, 16, 16, 192)   0           stage2_block_b0_sq_act[0][0]     
____________________________________________________________________________________________________
stage2_block_b0_ex_conv (Conv2D) (None, 16, 16, 48)    82944       stage2_block_b0_drop[0][0]       
____________________________________________________________________________________________________
stage2_block_b0_ex_bn (BatchNorm (None, 16, 16, 48)    192         stage2_block_b0_ex_conv[0][0]    
____________________________________________________________________________________________________
stage2_block_b0_ex_act (ELU)     (None, 16, 16, 48)    0           stage2_block_b0_ex_bn[0][0]      
____________________________________________________________________________________________________
concatenate_8 (Concatenate)      (None, 16, 16, 176)   0           stage1_ds_sq_act[0][0]           
                                                                   stage2_block_b0_ex_act[0][0]     
____________________________________________________________________________________________________
stage2_block_b1_sq_conv (Conv2D) (None, 16, 16, 192)   33792       concatenate_8[0][0]              
____________________________________________________________________________________________________
stage2_block_b1_sq_bn (BatchNorm (None, 16, 16, 192)   768         stage2_block_b1_sq_conv[0][0]    
____________________________________________________________________________________________________
stage2_block_b1_sq_act (ELU)     (None, 16, 16, 192)   0           stage2_block_b1_sq_bn[0][0]      
____________________________________________________________________________________________________
stage2_block_b1_drop (Dropout)   (None, 16, 16, 192)   0           stage2_block_b1_sq_act[0][0]     
____________________________________________________________________________________________________
stage2_block_b1_ex_conv (Conv2D) (None, 16, 16, 48)    82944       stage2_block_b1_drop[0][0]       
____________________________________________________________________________________________________
stage2_block_b1_ex_bn (BatchNorm (None, 16, 16, 48)    192         stage2_block_b1_ex_conv[0][0]    
____________________________________________________________________________________________________
stage2_block_b1_ex_act (ELU)     (None, 16, 16, 48)    0           stage2_block_b1_ex_bn[0][0]      
____________________________________________________________________________________________________
concatenate_9 (Concatenate)      (None, 16, 16, 224)   0           concatenate_8[0][0]              
                                                                   stage2_block_b1_ex_act[0][0]     
____________________________________________________________________________________________________
stage2_block_b2_sq_conv (Conv2D) (None, 16, 16, 192)   43008       concatenate_9[0][0]              
____________________________________________________________________________________________________
stage2_block_b2_sq_bn (BatchNorm (None, 16, 16, 192)   768         stage2_block_b2_sq_conv[0][0]    
____________________________________________________________________________________________________
stage2_block_b2_sq_act (ELU)     (None, 16, 16, 192)   0           stage2_block_b2_sq_bn[0][0]      
____________________________________________________________________________________________________
stage2_block_b2_drop (Dropout)   (None, 16, 16, 192)   0           stage2_block_b2_sq_act[0][0]     
____________________________________________________________________________________________________
stage2_block_b2_ex_conv (Conv2D) (None, 16, 16, 48)    82944       stage2_block_b2_drop[0][0]       
____________________________________________________________________________________________________
stage2_block_b2_ex_bn (BatchNorm (None, 16, 16, 48)    192         stage2_block_b2_ex_conv[0][0]    
____________________________________________________________________________________________________
stage2_block_b2_ex_act (ELU)     (None, 16, 16, 48)    0           stage2_block_b2_ex_bn[0][0]      
____________________________________________________________________________________________________
concatenate_10 (Concatenate)     (None, 16, 16, 272)   0           concatenate_9[0][0]              
                                                                   stage2_block_b2_ex_act[0][0]     
____________________________________________________________________________________________________
stage2_block_b3_sq_conv (Conv2D) (None, 16, 16, 192)   52224       concatenate_10[0][0]             
____________________________________________________________________________________________________
stage2_block_b3_sq_bn (BatchNorm (None, 16, 16, 192)   768         stage2_block_b3_sq_conv[0][0]    
____________________________________________________________________________________________________
stage2_block_b3_sq_act (ELU)     (None, 16, 16, 192)   0           stage2_block_b3_sq_bn[0][0]      
____________________________________________________________________________________________________
stage2_block_b3_drop (Dropout)   (None, 16, 16, 192)   0           stage2_block_b3_sq_act[0][0]     
____________________________________________________________________________________________________
stage2_block_b3_ex_conv (Conv2D) (None, 16, 16, 48)    82944       stage2_block_b3_drop[0][0]       
____________________________________________________________________________________________________
stage2_block_b3_ex_bn (BatchNorm (None, 16, 16, 48)    192         stage2_block_b3_ex_conv[0][0]    
____________________________________________________________________________________________________
stage2_block_b3_ex_act (ELU)     (None, 16, 16, 48)    0           stage2_block_b3_ex_bn[0][0]      
____________________________________________________________________________________________________
concatenate_11 (Concatenate)     (None, 16, 16, 320)   0           concatenate_10[0][0]             
                                                                   stage2_block_b3_ex_act[0][0]     
____________________________________________________________________________________________________
stage2_block_b4_sq_conv (Conv2D) (None, 16, 16, 192)   61440       concatenate_11[0][0]             
____________________________________________________________________________________________________
stage2_block_b4_sq_bn (BatchNorm (None, 16, 16, 192)   768         stage2_block_b4_sq_conv[0][0]    
____________________________________________________________________________________________________
stage2_block_b4_sq_act (ELU)     (None, 16, 16, 192)   0           stage2_block_b4_sq_bn[0][0]      
____________________________________________________________________________________________________
stage2_block_b4_drop (Dropout)   (None, 16, 16, 192)   0           stage2_block_b4_sq_act[0][0]     
____________________________________________________________________________________________________
stage2_block_b4_ex_conv (Conv2D) (None, 16, 16, 48)    82944       stage2_block_b4_drop[0][0]       
____________________________________________________________________________________________________
stage2_block_b4_ex_bn (BatchNorm (None, 16, 16, 48)    192         stage2_block_b4_ex_conv[0][0]    
____________________________________________________________________________________________________
stage2_block_b4_ex_act (ELU)     (None, 16, 16, 48)    0           stage2_block_b4_ex_bn[0][0]      
____________________________________________________________________________________________________
concatenate_12 (Concatenate)     (None, 16, 16, 368)   0           concatenate_11[0][0]             
                                                                   stage2_block_b4_ex_act[0][0]     
____________________________________________________________________________________________________
stage2_block_b5_sq_conv (Conv2D) (None, 16, 16, 192)   70656       concatenate_12[0][0]             
____________________________________________________________________________________________________
stage2_block_b5_sq_bn (BatchNorm (None, 16, 16, 192)   768         stage2_block_b5_sq_conv[0][0]    
____________________________________________________________________________________________________
stage2_block_b5_sq_act (ELU)     (None, 16, 16, 192)   0           stage2_block_b5_sq_bn[0][0]      
____________________________________________________________________________________________________
stage2_block_b5_drop (Dropout)   (None, 16, 16, 192)   0           stage2_block_b5_sq_act[0][0]     
____________________________________________________________________________________________________
stage2_block_b5_ex_conv (Conv2D) (None, 16, 16, 48)    82944       stage2_block_b5_drop[0][0]       
____________________________________________________________________________________________________
stage2_block_b5_ex_bn (BatchNorm (None, 16, 16, 48)    192         stage2_block_b5_ex_conv[0][0]    
____________________________________________________________________________________________________
stage2_block_b5_ex_act (ELU)     (None, 16, 16, 48)    0           stage2_block_b5_ex_bn[0][0]      
____________________________________________________________________________________________________
concatenate_13 (Concatenate)     (None, 16, 16, 416)   0           concatenate_12[0][0]             
                                                                   stage2_block_b5_ex_act[0][0]     
____________________________________________________________________________________________________
stage2_block_sq_conv (Conv2D)    (None, 16, 16, 208)   86528       concatenate_13[0][0]             
____________________________________________________________________________________________________
stage2_block_sq_bn (BatchNormali (None, 16, 16, 208)   832         stage2_block_sq_conv[0][0]       
____________________________________________________________________________________________________
stage2_block_sq_act (ELU)        (None, 16, 16, 208)   0           stage2_block_sq_bn[0][0]         
____________________________________________________________________________________________________
stage2_ds_c2sq_conv (Conv2D)     (None, 16, 16, 52)    10816       stage2_block_sq_act[0][0]        
____________________________________________________________________________________________________
stage2_ds_c2sq_bn (BatchNormaliz (None, 16, 16, 52)    208         stage2_ds_c2sq_conv[0][0]        
____________________________________________________________________________________________________
stage2_ds_c2sq_act (ELU)         (None, 16, 16, 52)    0           stage2_ds_c2sq_bn[0][0]          
____________________________________________________________________________________________________
stage2_ds_c2c_conv (Conv2D)      (None, 16, 16, 52)    24336       stage2_ds_c2sq_act[0][0]         
____________________________________________________________________________________________________
stage2_ds_c2c_bn (BatchNormaliza (None, 16, 16, 52)    208         stage2_ds_c2c_conv[0][0]         
____________________________________________________________________________________________________
stage2_ds_avgsq_conv (Conv2D)    (None, 16, 16, 104)   21632       stage2_block_sq_act[0][0]        
____________________________________________________________________________________________________
stage2_ds_c2c_act (ELU)          (None, 16, 16, 52)    0           stage2_ds_c2c_bn[0][0]           
____________________________________________________________________________________________________
stage2_ds_avgsq_bn (BatchNormali (None, 16, 16, 104)   416         stage2_ds_avgsq_conv[0][0]       
____________________________________________________________________________________________________
stage2_ds_c1_conv (Conv2D)       (None, 8, 8, 52)      97344       stage2_block_sq_act[0][0]        
____________________________________________________________________________________________________
stage2_ds_c2ex_conv (Conv2D)     (None, 8, 8, 52)      24336       stage2_ds_c2c_act[0][0]          
____________________________________________________________________________________________________
stage2_ds_avgsq_act (ELU)        (None, 16, 16, 104)   0           stage2_ds_avgsq_bn[0][0]         
____________________________________________________________________________________________________
stage2_ds_c1_bn (BatchNormalizat (None, 8, 8, 52)      208         stage2_ds_c1_conv[0][0]          
____________________________________________________________________________________________________
stage2_ds_c2ex_bn (BatchNormaliz (None, 8, 8, 52)      208         stage2_ds_c2ex_conv[0][0]        
____________________________________________________________________________________________________
max_pooling2d_2 (MaxPooling2D)   (None, 8, 8, 208)     0           stage2_block_sq_act[0][0]        
____________________________________________________________________________________________________
average_pooling2d_2 (AveragePool (None, 8, 8, 104)     0           stage2_ds_avgsq_act[0][0]        
____________________________________________________________________________________________________
stage2_ds_c1_act (ELU)           (None, 8, 8, 52)      0           stage2_ds_c1_bn[0][0]            
____________________________________________________________________________________________________
stage2_ds_c2ex_act (ELU)         (None, 8, 8, 52)      0           stage2_ds_c2ex_bn[0][0]          
____________________________________________________________________________________________________
concatenate_14 (Concatenate)     (None, 8, 8, 416)     0           max_pooling2d_2[0][0]            
                                                                   average_pooling2d_2[0][0]        
                                                                   stage2_ds_c1_act[0][0]           
                                                                   stage2_ds_c2ex_act[0][0]         
____________________________________________________________________________________________________
stage2_ds_sq_conv (Conv2D)       (None, 8, 8, 208)     86528       concatenate_14[0][0]             
____________________________________________________________________________________________________
stage2_ds_sq_bn (BatchNormalizat (None, 8, 8, 208)     832         stage2_ds_sq_conv[0][0]          
____________________________________________________________________________________________________
stage2_ds_sq_act (ELU)           (None, 8, 8, 208)     0           stage2_ds_sq_bn[0][0]            
____________________________________________________________________________________________________
stage3_block_b0_sq_conv (Conv2D) (None, 8, 8, 256)     53248       stage2_ds_sq_act[0][0]           
____________________________________________________________________________________________________
stage3_block_b0_sq_bn (BatchNorm (None, 8, 8, 256)     1024        stage3_block_b0_sq_conv[0][0]    
____________________________________________________________________________________________________
stage3_block_b0_sq_act (ELU)     (None, 8, 8, 256)     0           stage3_block_b0_sq_bn[0][0]      
____________________________________________________________________________________________________
stage3_block_b0_drop (Dropout)   (None, 8, 8, 256)     0           stage3_block_b0_sq_act[0][0]     
____________________________________________________________________________________________________
stage3_block_b0_ex_conv (Conv2D) (None, 8, 8, 64)      147456      stage3_block_b0_drop[0][0]       
____________________________________________________________________________________________________
stage3_block_b0_ex_bn (BatchNorm (None, 8, 8, 64)      256         stage3_block_b0_ex_conv[0][0]    
____________________________________________________________________________________________________
stage3_block_b0_ex_act (ELU)     (None, 8, 8, 64)      0           stage3_block_b0_ex_bn[0][0]      
____________________________________________________________________________________________________
concatenate_15 (Concatenate)     (None, 8, 8, 272)     0           stage2_ds_sq_act[0][0]           
                                                                   stage3_block_b0_ex_act[0][0]     
____________________________________________________________________________________________________
stage3_block_b1_sq_conv (Conv2D) (None, 8, 8, 256)     69632       concatenate_15[0][0]             
____________________________________________________________________________________________________
stage3_block_b1_sq_bn (BatchNorm (None, 8, 8, 256)     1024        stage3_block_b1_sq_conv[0][0]    
____________________________________________________________________________________________________
stage3_block_b1_sq_act (ELU)     (None, 8, 8, 256)     0           stage3_block_b1_sq_bn[0][0]      
____________________________________________________________________________________________________
stage3_block_b1_drop (Dropout)   (None, 8, 8, 256)     0           stage3_block_b1_sq_act[0][0]     
____________________________________________________________________________________________________
stage3_block_b1_ex_conv (Conv2D) (None, 8, 8, 64)      147456      stage3_block_b1_drop[0][0]       
____________________________________________________________________________________________________
stage3_block_b1_ex_bn (BatchNorm (None, 8, 8, 64)      256         stage3_block_b1_ex_conv[0][0]    
____________________________________________________________________________________________________
stage3_block_b1_ex_act (ELU)     (None, 8, 8, 64)      0           stage3_block_b1_ex_bn[0][0]      
____________________________________________________________________________________________________
concatenate_16 (Concatenate)     (None, 8, 8, 336)     0           concatenate_15[0][0]             
                                                                   stage3_block_b1_ex_act[0][0]     
____________________________________________________________________________________________________
stage3_block_b2_sq_conv (Conv2D) (None, 8, 8, 256)     86016       concatenate_16[0][0]             
____________________________________________________________________________________________________
stage3_block_b2_sq_bn (BatchNorm (None, 8, 8, 256)     1024        stage3_block_b2_sq_conv[0][0]    
____________________________________________________________________________________________________
stage3_block_b2_sq_act (ELU)     (None, 8, 8, 256)     0           stage3_block_b2_sq_bn[0][0]      
____________________________________________________________________________________________________
stage3_block_b2_drop (Dropout)   (None, 8, 8, 256)     0           stage3_block_b2_sq_act[0][0]     
____________________________________________________________________________________________________
stage3_block_b2_ex_conv (Conv2D) (None, 8, 8, 64)      147456      stage3_block_b2_drop[0][0]       
____________________________________________________________________________________________________
stage3_block_b2_ex_bn (BatchNorm (None, 8, 8, 64)      256         stage3_block_b2_ex_conv[0][0]    
____________________________________________________________________________________________________
stage3_block_b2_ex_act (ELU)     (None, 8, 8, 64)      0           stage3_block_b2_ex_bn[0][0]      
____________________________________________________________________________________________________
concatenate_17 (Concatenate)     (None, 8, 8, 400)     0           concatenate_16[0][0]             
                                                                   stage3_block_b2_ex_act[0][0]     
____________________________________________________________________________________________________
stage3_block_b3_sq_conv (Conv2D) (None, 8, 8, 256)     102400      concatenate_17[0][0]             
____________________________________________________________________________________________________
stage3_block_b3_sq_bn (BatchNorm (None, 8, 8, 256)     1024        stage3_block_b3_sq_conv[0][0]    
____________________________________________________________________________________________________
stage3_block_b3_sq_act (ELU)     (None, 8, 8, 256)     0           stage3_block_b3_sq_bn[0][0]      
____________________________________________________________________________________________________
stage3_block_b3_drop (Dropout)   (None, 8, 8, 256)     0           stage3_block_b3_sq_act[0][0]     
____________________________________________________________________________________________________
stage3_block_b3_ex_conv (Conv2D) (None, 8, 8, 64)      147456      stage3_block_b3_drop[0][0]       
____________________________________________________________________________________________________
stage3_block_b3_ex_bn (BatchNorm (None, 8, 8, 64)      256         stage3_block_b3_ex_conv[0][0]    
____________________________________________________________________________________________________
stage3_block_b3_ex_act (ELU)     (None, 8, 8, 64)      0           stage3_block_b3_ex_bn[0][0]      
____________________________________________________________________________________________________
concatenate_18 (Concatenate)     (None, 8, 8, 464)     0           concatenate_17[0][0]             
                                                                   stage3_block_b3_ex_act[0][0]     
____________________________________________________________________________________________________
stage3_block_b4_sq_conv (Conv2D) (None, 8, 8, 256)     118784      concatenate_18[0][0]             
____________________________________________________________________________________________________
stage3_block_b4_sq_bn (BatchNorm (None, 8, 8, 256)     1024        stage3_block_b4_sq_conv[0][0]    
____________________________________________________________________________________________________
stage3_block_b4_sq_act (ELU)     (None, 8, 8, 256)     0           stage3_block_b4_sq_bn[0][0]      
____________________________________________________________________________________________________
stage3_block_b4_drop (Dropout)   (None, 8, 8, 256)     0           stage3_block_b4_sq_act[0][0]     
____________________________________________________________________________________________________
stage3_block_b4_ex_conv (Conv2D) (None, 8, 8, 64)      147456      stage3_block_b4_drop[0][0]       
____________________________________________________________________________________________________
stage3_block_b4_ex_bn (BatchNorm (None, 8, 8, 64)      256         stage3_block_b4_ex_conv[0][0]    
____________________________________________________________________________________________________
stage3_block_b4_ex_act (ELU)     (None, 8, 8, 64)      0           stage3_block_b4_ex_bn[0][0]      
____________________________________________________________________________________________________
concatenate_19 (Concatenate)     (None, 8, 8, 528)     0           concatenate_18[0][0]             
                                                                   stage3_block_b4_ex_act[0][0]     
____________________________________________________________________________________________________
stage3_block_b5_sq_conv (Conv2D) (None, 8, 8, 256)     135168      concatenate_19[0][0]             
____________________________________________________________________________________________________
stage3_block_b5_sq_bn (BatchNorm (None, 8, 8, 256)     1024        stage3_block_b5_sq_conv[0][0]    
____________________________________________________________________________________________________
stage3_block_b5_sq_act (ELU)     (None, 8, 8, 256)     0           stage3_block_b5_sq_bn[0][0]      
____________________________________________________________________________________________________
stage3_block_b5_drop (Dropout)   (None, 8, 8, 256)     0           stage3_block_b5_sq_act[0][0]     
____________________________________________________________________________________________________
stage3_block_b5_ex_conv (Conv2D) (None, 8, 8, 64)      147456      stage3_block_b5_drop[0][0]       
____________________________________________________________________________________________________
stage3_block_b5_ex_bn (BatchNorm (None, 8, 8, 64)      256         stage3_block_b5_ex_conv[0][0]    
____________________________________________________________________________________________________
stage3_block_b5_ex_act (ELU)     (None, 8, 8, 64)      0           stage3_block_b5_ex_bn[0][0]      
____________________________________________________________________________________________________
concatenate_20 (Concatenate)     (None, 8, 8, 592)     0           concatenate_19[0][0]             
                                                                   stage3_block_b5_ex_act[0][0]     
____________________________________________________________________________________________________
stage3_block_sq_conv (Conv2D)    (None, 8, 8, 296)     175232      concatenate_20[0][0]             
____________________________________________________________________________________________________
stage3_block_sq_bn (BatchNormali (None, 8, 8, 296)     1184        stage3_block_sq_conv[0][0]       
____________________________________________________________________________________________________
stage3_block_sq_act (ELU)        (None, 8, 8, 296)     0           stage3_block_sq_bn[0][0]         
____________________________________________________________________________________________________
global_average_pooling2d_1 (Glob (None, 296)           0           stage3_block_sq_act[0][0]        
____________________________________________________________________________________________________
dense_1 (Dense)                  (None, 100)           29700       global_average_pooling2d_1[0][0] 
====================================================================================================
Total params: 3,279,844
Trainable params: 3,268,132
Non-trainable params: 11,712
____________________________________________________________________________________________________
Test loss:     1.0181709235906602
Test accuracy: 0.7720999747514725
Test error:    0.22790002524852748
…
