____________________________________________________________________________________________________
Layer (type)                     Output Shape          Param #     Connected to                     
====================================================================================================
input_1 (InputLayer)             (None, 32, 32, 3)     0                                            
____________________________________________________________________________________________________
start_conv (Conv2D)              (None, 32, 32, 64)    1728        input_1[0][0]                    
____________________________________________________________________________________________________
start_bn (BatchNormalization)    (None, 32, 32, 64)    256         start_conv[0][0]                 
____________________________________________________________________________________________________
start_act (ELU)                  (None, 32, 32, 64)    0           start_bn[0][0]                   
____________________________________________________________________________________________________
stage1_block_b0_sq_conv (Conv2D) (None, 32, 32, 128)   8192        start_act[0][0]                  
____________________________________________________________________________________________________
stage1_block_b0_sq_bn (BatchNorm (None, 32, 32, 128)   512         stage1_block_b0_sq_conv[0][0]    
____________________________________________________________________________________________________
stage1_block_b0_sq_act (ELU)     (None, 32, 32, 128)   0           stage1_block_b0_sq_bn[0][0]      
____________________________________________________________________________________________________
stage1_block_b0_drop (Dropout)   (None, 32, 32, 128)   0           stage1_block_b0_sq_act[0][0]     
____________________________________________________________________________________________________
stage1_block_b0_ex_conv (Conv2D) (None, 32, 32, 32)    36864       stage1_block_b0_drop[0][0]       
____________________________________________________________________________________________________
stage1_block_b0_ex_bn (BatchNorm (None, 32, 32, 32)    128         stage1_block_b0_ex_conv[0][0]    
____________________________________________________________________________________________________
stage1_block_b0_ex_act (ELU)     (None, 32, 32, 32)    0           stage1_block_b0_ex_bn[0][0]      
____________________________________________________________________________________________________
concatenate_1 (Concatenate)      (None, 32, 32, 96)    0           start_act[0][0]                  
                                                                   stage1_block_b0_ex_act[0][0]     
____________________________________________________________________________________________________
stage1_block_b1_sq_conv (Conv2D) (None, 32, 32, 128)   12288       concatenate_1[0][0]              
____________________________________________________________________________________________________
stage1_block_b1_sq_bn (BatchNorm (None, 32, 32, 128)   512         stage1_block_b1_sq_conv[0][0]    
____________________________________________________________________________________________________
stage1_block_b1_sq_act (ELU)     (None, 32, 32, 128)   0           stage1_block_b1_sq_bn[0][0]      
____________________________________________________________________________________________________
stage1_block_b1_drop (Dropout)   (None, 32, 32, 128)   0           stage1_block_b1_sq_act[0][0]     
____________________________________________________________________________________________________
stage1_block_b1_ex_conv (Conv2D) (None, 32, 32, 32)    36864       stage1_block_b1_drop[0][0]       
____________________________________________________________________________________________________
stage1_block_b1_ex_bn (BatchNorm (None, 32, 32, 32)    128         stage1_block_b1_ex_conv[0][0]    
____________________________________________________________________________________________________
stage1_block_b1_ex_act (ELU)     (None, 32, 32, 32)    0           stage1_block_b1_ex_bn[0][0]      
____________________________________________________________________________________________________
concatenate_2 (Concatenate)      (None, 32, 32, 128)   0           concatenate_1[0][0]              
                                                                   stage1_block_b1_ex_act[0][0]     
____________________________________________________________________________________________________
stage1_block_b2_sq_conv (Conv2D) (None, 32, 32, 128)   16384       concatenate_2[0][0]              
____________________________________________________________________________________________________
stage1_block_b2_sq_bn (BatchNorm (None, 32, 32, 128)   512         stage1_block_b2_sq_conv[0][0]    
____________________________________________________________________________________________________
stage1_block_b2_sq_act (ELU)     (None, 32, 32, 128)   0           stage1_block_b2_sq_bn[0][0]      
____________________________________________________________________________________________________
stage1_block_b2_drop (Dropout)   (None, 32, 32, 128)   0           stage1_block_b2_sq_act[0][0]     
____________________________________________________________________________________________________
stage1_block_b2_ex_conv (Conv2D) (None, 32, 32, 32)    36864       stage1_block_b2_drop[0][0]       
____________________________________________________________________________________________________
stage1_block_b2_ex_bn (BatchNorm (None, 32, 32, 32)    128         stage1_block_b2_ex_conv[0][0]    
____________________________________________________________________________________________________
stage1_block_b2_ex_act (ELU)     (None, 32, 32, 32)    0           stage1_block_b2_ex_bn[0][0]      
____________________________________________________________________________________________________
concatenate_3 (Concatenate)      (None, 32, 32, 160)   0           concatenate_2[0][0]              
                                                                   stage1_block_b2_ex_act[0][0]     
____________________________________________________________________________________________________
stage1_block_b3_sq_conv (Conv2D) (None, 32, 32, 128)   20480       concatenate_3[0][0]              
____________________________________________________________________________________________________
stage1_block_b3_sq_bn (BatchNorm (None, 32, 32, 128)   512         stage1_block_b3_sq_conv[0][0]    
____________________________________________________________________________________________________
stage1_block_b3_sq_act (ELU)     (None, 32, 32, 128)   0           stage1_block_b3_sq_bn[0][0]      
____________________________________________________________________________________________________
stage1_block_b3_drop (Dropout)   (None, 32, 32, 128)   0           stage1_block_b3_sq_act[0][0]     
____________________________________________________________________________________________________
stage1_block_b3_ex_conv (Conv2D) (None, 32, 32, 32)    36864       stage1_block_b3_drop[0][0]       
____________________________________________________________________________________________________
stage1_block_b3_ex_bn (BatchNorm (None, 32, 32, 32)    128         stage1_block_b3_ex_conv[0][0]    
____________________________________________________________________________________________________
stage1_block_b3_ex_act (ELU)     (None, 32, 32, 32)    0           stage1_block_b3_ex_bn[0][0]      
____________________________________________________________________________________________________
concatenate_4 (Concatenate)      (None, 32, 32, 192)   0           concatenate_3[0][0]              
                                                                   stage1_block_b3_ex_act[0][0]     
____________________________________________________________________________________________________
stage1_block_sq_conv (Conv2D)    (None, 32, 32, 96)    18432       concatenate_4[0][0]              
____________________________________________________________________________________________________
stage1_block_sq_bn (BatchNormali (None, 32, 32, 96)    384         stage1_block_sq_conv[0][0]       
____________________________________________________________________________________________________
stage1_block_sq_act (ELU)        (None, 32, 32, 96)    0           stage1_block_sq_bn[0][0]         
____________________________________________________________________________________________________
stage1_ds_c2sq_conv (Conv2D)     (None, 32, 32, 24)    2304        stage1_block_sq_act[0][0]        
____________________________________________________________________________________________________
stage1_ds_c2sq_bn (BatchNormaliz (None, 32, 32, 24)    96          stage1_ds_c2sq_conv[0][0]        
____________________________________________________________________________________________________
stage1_ds_c2sq_act (ELU)         (None, 32, 32, 24)    0           stage1_ds_c2sq_bn[0][0]          
____________________________________________________________________________________________________
stage1_ds_c2c_conv (Conv2D)      (None, 32, 32, 24)    5184        stage1_ds_c2sq_act[0][0]         
____________________________________________________________________________________________________
stage1_ds_c2c_bn (BatchNormaliza (None, 32, 32, 24)    96          stage1_ds_c2c_conv[0][0]         
____________________________________________________________________________________________________
stage1_ds_avgsq_conv (Conv2D)    (None, 32, 32, 48)    4608        stage1_block_sq_act[0][0]        
____________________________________________________________________________________________________
stage1_ds_c2c_act (ELU)          (None, 32, 32, 24)    0           stage1_ds_c2c_bn[0][0]           
____________________________________________________________________________________________________
stage1_ds_avgsq_bn (BatchNormali (None, 32, 32, 48)    192         stage1_ds_avgsq_conv[0][0]       
____________________________________________________________________________________________________
stage1_ds_c1_conv (Conv2D)       (None, 16, 16, 24)    20736       stage1_block_sq_act[0][0]        
____________________________________________________________________________________________________
stage1_ds_c2ex_conv (Conv2D)     (None, 16, 16, 24)    5184        stage1_ds_c2c_act[0][0]          
____________________________________________________________________________________________________
stage1_ds_avgsq_act (ELU)        (None, 32, 32, 48)    0           stage1_ds_avgsq_bn[0][0]         
____________________________________________________________________________________________________
stage1_ds_c1_bn (BatchNormalizat (None, 16, 16, 24)    96          stage1_ds_c1_conv[0][0]          
____________________________________________________________________________________________________
stage1_ds_c2ex_bn (BatchNormaliz (None, 16, 16, 24)    96          stage1_ds_c2ex_conv[0][0]        
____________________________________________________________________________________________________
max_pooling2d_1 (MaxPooling2D)   (None, 16, 16, 96)    0           stage1_block_sq_act[0][0]        
____________________________________________________________________________________________________
average_pooling2d_1 (AveragePool (None, 16, 16, 48)    0           stage1_ds_avgsq_act[0][0]        
____________________________________________________________________________________________________
stage1_ds_c1_act (ELU)           (None, 16, 16, 24)    0           stage1_ds_c1_bn[0][0]            
____________________________________________________________________________________________________
stage1_ds_c2ex_act (ELU)         (None, 16, 16, 24)    0           stage1_ds_c2ex_bn[0][0]          
____________________________________________________________________________________________________
concatenate_5 (Concatenate)      (None, 16, 16, 192)   0           max_pooling2d_1[0][0]            
                                                                   average_pooling2d_1[0][0]        
                                                                   stage1_ds_c1_act[0][0]           
                                                                   stage1_ds_c2ex_act[0][0]         
____________________________________________________________________________________________________
stage1_ds_sq_conv (Conv2D)       (None, 16, 16, 96)    18432       concatenate_5[0][0]              
____________________________________________________________________________________________________
stage1_ds_sq_bn (BatchNormalizat (None, 16, 16, 96)    384         stage1_ds_sq_conv[0][0]          
____________________________________________________________________________________________________
stage1_ds_sq_act (ELU)           (None, 16, 16, 96)    0           stage1_ds_sq_bn[0][0]            
____________________________________________________________________________________________________
stage2_block_b0_sq_conv (Conv2D) (None, 16, 16, 192)   18432       stage1_ds_sq_act[0][0]           
____________________________________________________________________________________________________
stage2_block_b0_sq_bn (BatchNorm (None, 16, 16, 192)   768         stage2_block_b0_sq_conv[0][0]    
____________________________________________________________________________________________________
stage2_block_b0_sq_act (ELU)     (None, 16, 16, 192)   0           stage2_block_b0_sq_bn[0][0]      
____________________________________________________________________________________________________
stage2_block_b0_drop (Dropout)   (None, 16, 16, 192)   0           stage2_block_b0_sq_act[0][0]     
____________________________________________________________________________________________________
stage2_block_b0_ex_conv (Conv2D) (None, 16, 16, 48)    82944       stage2_block_b0_drop[0][0]       
____________________________________________________________________________________________________
stage2_block_b0_ex_bn (BatchNorm (None, 16, 16, 48)    192         stage2_block_b0_ex_conv[0][0]    
____________________________________________________________________________________________________
stage2_block_b0_ex_act (ELU)     (None, 16, 16, 48)    0           stage2_block_b0_ex_bn[0][0]      
____________________________________________________________________________________________________
concatenate_6 (Concatenate)      (None, 16, 16, 144)   0           stage1_ds_sq_act[0][0]           
                                                                   stage2_block_b0_ex_act[0][0]     
____________________________________________________________________________________________________
stage2_block_b1_sq_conv (Conv2D) (None, 16, 16, 192)   27648       concatenate_6[0][0]              
____________________________________________________________________________________________________
stage2_block_b1_sq_bn (BatchNorm (None, 16, 16, 192)   768         stage2_block_b1_sq_conv[0][0]    
____________________________________________________________________________________________________
stage2_block_b1_sq_act (ELU)     (None, 16, 16, 192)   0           stage2_block_b1_sq_bn[0][0]      
____________________________________________________________________________________________________
stage2_block_b1_drop (Dropout)   (None, 16, 16, 192)   0           stage2_block_b1_sq_act[0][0]     
____________________________________________________________________________________________________
stage2_block_b1_ex_conv (Conv2D) (None, 16, 16, 48)    82944       stage2_block_b1_drop[0][0]       
____________________________________________________________________________________________________
stage2_block_b1_ex_bn (BatchNorm (None, 16, 16, 48)    192         stage2_block_b1_ex_conv[0][0]    
____________________________________________________________________________________________________
stage2_block_b1_ex_act (ELU)     (None, 16, 16, 48)    0           stage2_block_b1_ex_bn[0][0]      
____________________________________________________________________________________________________
concatenate_7 (Concatenate)      (None, 16, 16, 192)   0           concatenate_6[0][0]              
                                                                   stage2_block_b1_ex_act[0][0]     
____________________________________________________________________________________________________
stage2_block_b2_sq_conv (Conv2D) (None, 16, 16, 192)   36864       concatenate_7[0][0]              
____________________________________________________________________________________________________
stage2_block_b2_sq_bn (BatchNorm (None, 16, 16, 192)   768         stage2_block_b2_sq_conv[0][0]    
____________________________________________________________________________________________________
stage2_block_b2_sq_act (ELU)     (None, 16, 16, 192)   0           stage2_block_b2_sq_bn[0][0]      
____________________________________________________________________________________________________
stage2_block_b2_drop (Dropout)   (None, 16, 16, 192)   0           stage2_block_b2_sq_act[0][0]     
____________________________________________________________________________________________________
stage2_block_b2_ex_conv (Conv2D) (None, 16, 16, 48)    82944       stage2_block_b2_drop[0][0]       
____________________________________________________________________________________________________
stage2_block_b2_ex_bn (BatchNorm (None, 16, 16, 48)    192         stage2_block_b2_ex_conv[0][0]    
____________________________________________________________________________________________________
stage2_block_b2_ex_act (ELU)     (None, 16, 16, 48)    0           stage2_block_b2_ex_bn[0][0]      
____________________________________________________________________________________________________
concatenate_8 (Concatenate)      (None, 16, 16, 240)   0           concatenate_7[0][0]              
                                                                   stage2_block_b2_ex_act[0][0]     
____________________________________________________________________________________________________
stage2_block_b3_sq_conv (Conv2D) (None, 16, 16, 192)   46080       concatenate_8[0][0]              
____________________________________________________________________________________________________
stage2_block_b3_sq_bn (BatchNorm (None, 16, 16, 192)   768         stage2_block_b3_sq_conv[0][0]    
____________________________________________________________________________________________________
stage2_block_b3_sq_act (ELU)     (None, 16, 16, 192)   0           stage2_block_b3_sq_bn[0][0]      
____________________________________________________________________________________________________
stage2_block_b3_drop (Dropout)   (None, 16, 16, 192)   0           stage2_block_b3_sq_act[0][0]     
____________________________________________________________________________________________________
stage2_block_b3_ex_conv (Conv2D) (None, 16, 16, 48)    82944       stage2_block_b3_drop[0][0]       
____________________________________________________________________________________________________
stage2_block_b3_ex_bn (BatchNorm (None, 16, 16, 48)    192         stage2_block_b3_ex_conv[0][0]    
____________________________________________________________________________________________________
stage2_block_b3_ex_act (ELU)     (None, 16, 16, 48)    0           stage2_block_b3_ex_bn[0][0]      
____________________________________________________________________________________________________
concatenate_9 (Concatenate)      (None, 16, 16, 288)   0           concatenate_8[0][0]              
                                                                   stage2_block_b3_ex_act[0][0]     
____________________________________________________________________________________________________
stage2_block_sq_conv (Conv2D)    (None, 16, 16, 144)   41472       concatenate_9[0][0]              
____________________________________________________________________________________________________
stage2_block_sq_bn (BatchNormali (None, 16, 16, 144)   576         stage2_block_sq_conv[0][0]       
____________________________________________________________________________________________________
stage2_block_sq_act (ELU)        (None, 16, 16, 144)   0           stage2_block_sq_bn[0][0]         
____________________________________________________________________________________________________
stage2_ds_c2sq_conv (Conv2D)     (None, 16, 16, 36)    5184        stage2_block_sq_act[0][0]        
____________________________________________________________________________________________________
stage2_ds_c2sq_bn (BatchNormaliz (None, 16, 16, 36)    144         stage2_ds_c2sq_conv[0][0]        
____________________________________________________________________________________________________
stage2_ds_c2sq_act (ELU)         (None, 16, 16, 36)    0           stage2_ds_c2sq_bn[0][0]          
____________________________________________________________________________________________________
stage2_ds_c2c_conv (Conv2D)      (None, 16, 16, 36)    11664       stage2_ds_c2sq_act[0][0]         
____________________________________________________________________________________________________
stage2_ds_c2c_bn (BatchNormaliza (None, 16, 16, 36)    144         stage2_ds_c2c_conv[0][0]         
____________________________________________________________________________________________________
stage2_ds_avgsq_conv (Conv2D)    (None, 16, 16, 72)    10368       stage2_block_sq_act[0][0]        
____________________________________________________________________________________________________
stage2_ds_c2c_act (ELU)          (None, 16, 16, 36)    0           stage2_ds_c2c_bn[0][0]           
____________________________________________________________________________________________________
stage2_ds_avgsq_bn (BatchNormali (None, 16, 16, 72)    288         stage2_ds_avgsq_conv[0][0]       
____________________________________________________________________________________________________
stage2_ds_c1_conv (Conv2D)       (None, 8, 8, 36)      46656       stage2_block_sq_act[0][0]        
____________________________________________________________________________________________________
stage2_ds_c2ex_conv (Conv2D)     (None, 8, 8, 36)      11664       stage2_ds_c2c_act[0][0]          
____________________________________________________________________________________________________
stage2_ds_avgsq_act (ELU)        (None, 16, 16, 72)    0           stage2_ds_avgsq_bn[0][0]         
____________________________________________________________________________________________________
stage2_ds_c1_bn (BatchNormalizat (None, 8, 8, 36)      144         stage2_ds_c1_conv[0][0]          
____________________________________________________________________________________________________
stage2_ds_c2ex_bn (BatchNormaliz (None, 8, 8, 36)      144         stage2_ds_c2ex_conv[0][0]        
____________________________________________________________________________________________________
max_pooling2d_2 (MaxPooling2D)   (None, 8, 8, 144)     0           stage2_block_sq_act[0][0]        
____________________________________________________________________________________________________
average_pooling2d_2 (AveragePool (None, 8, 8, 72)      0           stage2_ds_avgsq_act[0][0]        
____________________________________________________________________________________________________
stage2_ds_c1_act (ELU)           (None, 8, 8, 36)      0           stage2_ds_c1_bn[0][0]            
____________________________________________________________________________________________________
stage2_ds_c2ex_act (ELU)         (None, 8, 8, 36)      0           stage2_ds_c2ex_bn[0][0]          
____________________________________________________________________________________________________
concatenate_10 (Concatenate)     (None, 8, 8, 288)     0           max_pooling2d_2[0][0]            
                                                                   average_pooling2d_2[0][0]        
                                                                   stage2_ds_c1_act[0][0]           
                                                                   stage2_ds_c2ex_act[0][0]         
____________________________________________________________________________________________________
stage2_ds_sq_conv (Conv2D)       (None, 8, 8, 144)     41472       concatenate_10[0][0]             
____________________________________________________________________________________________________
stage2_ds_sq_bn (BatchNormalizat (None, 8, 8, 144)     576         stage2_ds_sq_conv[0][0]          
____________________________________________________________________________________________________
stage2_ds_sq_act (ELU)           (None, 8, 8, 144)     0           stage2_ds_sq_bn[0][0]            
____________________________________________________________________________________________________
stage3_block_b0_sq_conv (Conv2D) (None, 8, 8, 256)     36864       stage2_ds_sq_act[0][0]           
____________________________________________________________________________________________________
stage3_block_b0_sq_bn (BatchNorm (None, 8, 8, 256)     1024        stage3_block_b0_sq_conv[0][0]    
____________________________________________________________________________________________________
stage3_block_b0_sq_act (ELU)     (None, 8, 8, 256)     0           stage3_block_b0_sq_bn[0][0]      
____________________________________________________________________________________________________
stage3_block_b0_drop (Dropout)   (None, 8, 8, 256)     0           stage3_block_b0_sq_act[0][0]     
____________________________________________________________________________________________________
stage3_block_b0_ex_conv (Conv2D) (None, 8, 8, 64)      147456      stage3_block_b0_drop[0][0]       
____________________________________________________________________________________________________
stage3_block_b0_ex_bn (BatchNorm (None, 8, 8, 64)      256         stage3_block_b0_ex_conv[0][0]    
____________________________________________________________________________________________________
stage3_block_b0_ex_act (ELU)     (None, 8, 8, 64)      0           stage3_block_b0_ex_bn[0][0]      
____________________________________________________________________________________________________
concatenate_11 (Concatenate)     (None, 8, 8, 208)     0           stage2_ds_sq_act[0][0]           
                                                                   stage3_block_b0_ex_act[0][0]     
____________________________________________________________________________________________________
stage3_block_b1_sq_conv (Conv2D) (None, 8, 8, 256)     53248       concatenate_11[0][0]             
____________________________________________________________________________________________________
stage3_block_b1_sq_bn (BatchNorm (None, 8, 8, 256)     1024        stage3_block_b1_sq_conv[0][0]    
____________________________________________________________________________________________________
stage3_block_b1_sq_act (ELU)     (None, 8, 8, 256)     0           stage3_block_b1_sq_bn[0][0]      
____________________________________________________________________________________________________
stage3_block_b1_drop (Dropout)   (None, 8, 8, 256)     0           stage3_block_b1_sq_act[0][0]     
____________________________________________________________________________________________________
stage3_block_b1_ex_conv (Conv2D) (None, 8, 8, 64)      147456      stage3_block_b1_drop[0][0]       
____________________________________________________________________________________________________
stage3_block_b1_ex_bn (BatchNorm (None, 8, 8, 64)      256         stage3_block_b1_ex_conv[0][0]    
____________________________________________________________________________________________________
stage3_block_b1_ex_act (ELU)     (None, 8, 8, 64)      0           stage3_block_b1_ex_bn[0][0]      
____________________________________________________________________________________________________
concatenate_12 (Concatenate)     (None, 8, 8, 272)     0           concatenate_11[0][0]             
                                                                   stage3_block_b1_ex_act[0][0]     
____________________________________________________________________________________________________
stage3_block_b2_sq_conv (Conv2D) (None, 8, 8, 256)     69632       concatenate_12[0][0]             
____________________________________________________________________________________________________
stage3_block_b2_sq_bn (BatchNorm (None, 8, 8, 256)     1024        stage3_block_b2_sq_conv[0][0]    
____________________________________________________________________________________________________
stage3_block_b2_sq_act (ELU)     (None, 8, 8, 256)     0           stage3_block_b2_sq_bn[0][0]      
____________________________________________________________________________________________________
stage3_block_b2_drop (Dropout)   (None, 8, 8, 256)     0           stage3_block_b2_sq_act[0][0]     
____________________________________________________________________________________________________
stage3_block_b2_ex_conv (Conv2D) (None, 8, 8, 64)      147456      stage3_block_b2_drop[0][0]       
____________________________________________________________________________________________________
stage3_block_b2_ex_bn (BatchNorm (None, 8, 8, 64)      256         stage3_block_b2_ex_conv[0][0]    
____________________________________________________________________________________________________
stage3_block_b2_ex_act (ELU)     (None, 8, 8, 64)      0           stage3_block_b2_ex_bn[0][0]      
____________________________________________________________________________________________________
concatenate_13 (Concatenate)     (None, 8, 8, 336)     0           concatenate_12[0][0]             
                                                                   stage3_block_b2_ex_act[0][0]     
____________________________________________________________________________________________________
stage3_block_b3_sq_conv (Conv2D) (None, 8, 8, 256)     86016       concatenate_13[0][0]             
____________________________________________________________________________________________________
stage3_block_b3_sq_bn (BatchNorm (None, 8, 8, 256)     1024        stage3_block_b3_sq_conv[0][0]    
____________________________________________________________________________________________________
stage3_block_b3_sq_act (ELU)     (None, 8, 8, 256)     0           stage3_block_b3_sq_bn[0][0]      
____________________________________________________________________________________________________
stage3_block_b3_drop (Dropout)   (None, 8, 8, 256)     0           stage3_block_b3_sq_act[0][0]     
____________________________________________________________________________________________________
stage3_block_b3_ex_conv (Conv2D) (None, 8, 8, 64)      147456      stage3_block_b3_drop[0][0]       
____________________________________________________________________________________________________
stage3_block_b3_ex_bn (BatchNorm (None, 8, 8, 64)      256         stage3_block_b3_ex_conv[0][0]    
____________________________________________________________________________________________________
stage3_block_b3_ex_act (ELU)     (None, 8, 8, 64)      0           stage3_block_b3_ex_bn[0][0]      
____________________________________________________________________________________________________
concatenate_14 (Concatenate)     (None, 8, 8, 400)     0           concatenate_13[0][0]             
                                                                   stage3_block_b3_ex_act[0][0]     
____________________________________________________________________________________________________
stage3_block_sq_conv (Conv2D)    (None, 8, 8, 200)     80000       concatenate_14[0][0]             
____________________________________________________________________________________________________
stage3_block_sq_bn (BatchNormali (None, 8, 8, 200)     800         stage3_block_sq_conv[0][0]       
____________________________________________________________________________________________________
stage3_block_sq_act (ELU)        (None, 8, 8, 200)     0           stage3_block_sq_bn[0][0]         
____________________________________________________________________________________________________
global_average_pooling2d_1 (Glob (None, 200)           0           stage3_block_sq_act[0][0]        
____________________________________________________________________________________________________
dense_1 (Dense)                  (None, 100)           20100       global_average_pooling2d_1[0][0] 
====================================================================================================
Total params: 1,862,308
Trainable params: 1,854,340
Non-trainable params: 7,968
____________________________________________________________________________________________________
Test loss:     1.1062771397829056
Test accuracy: 0.7546999764442444
Test error:    0.24530002355575564
…
