____________________________________________________________________________________________________
Layer (type)                     Output Shape          Param #     Connected to                     
====================================================================================================
input_1 (InputLayer)             (None, 32, 32, 3)     0                                            
____________________________________________________________________________________________________
start (Conv2D)                   (None, 32, 32, 160)   4320        input_1[0][0]                    
____________________________________________________________________________________________________
start_bn (BatchNormalization)    (None, 32, 32, 160)   640         start[0][0]                      
____________________________________________________________________________________________________
start_act (Activation)           (None, 32, 32, 160)   0           start_bn[0][0]                   
____________________________________________________________________________________________________
stage1_block_r0c1 (Conv2D)       (None, 32, 32, 160)   230400      start_act[0][0]                  
____________________________________________________________________________________________________
stage1_block_r0c1_bn (BatchNorma (None, 32, 32, 160)   640         stage1_block_r0c1[0][0]          
____________________________________________________________________________________________________
stage1_block_r0c1_act (Activatio (None, 32, 32, 160)   0           stage1_block_r0c1_bn[0][0]       
____________________________________________________________________________________________________
dropout_1 (Dropout)              (None, 32, 32, 160)   0           stage1_block_r0c1_act[0][0]      
____________________________________________________________________________________________________
stage1_block_r0c2 (Conv2D)       (None, 32, 32, 160)   230400      dropout_1[0][0]                  
____________________________________________________________________________________________________
stage1_block_r0c2_bn (BatchNorma (None, 32, 32, 160)   640         stage1_block_r0c2[0][0]          
____________________________________________________________________________________________________
stage1_block_r0c2_act (Activatio (None, 32, 32, 160)   0           stage1_block_r0c2_bn[0][0]       
____________________________________________________________________________________________________
add_1 (Add)                      (None, 32, 32, 160)   0           start_act[0][0]                  
                                                                   stage1_block_r0c2_act[0][0]      
____________________________________________________________________________________________________
stage1_block_r1c1 (Conv2D)       (None, 32, 32, 160)   230400      add_1[0][0]                      
____________________________________________________________________________________________________
stage1_block_r1c1_bn (BatchNorma (None, 32, 32, 160)   640         stage1_block_r1c1[0][0]          
____________________________________________________________________________________________________
stage1_block_r1c1_act (Activatio (None, 32, 32, 160)   0           stage1_block_r1c1_bn[0][0]       
____________________________________________________________________________________________________
dropout_2 (Dropout)              (None, 32, 32, 160)   0           stage1_block_r1c1_act[0][0]      
____________________________________________________________________________________________________
stage1_block_r1c2 (Conv2D)       (None, 32, 32, 160)   230400      dropout_2[0][0]                  
____________________________________________________________________________________________________
stage1_block_r1c2_bn (BatchNorma (None, 32, 32, 160)   640         stage1_block_r1c2[0][0]          
____________________________________________________________________________________________________
stage1_block_r1c2_act (Activatio (None, 32, 32, 160)   0           stage1_block_r1c2_bn[0][0]       
____________________________________________________________________________________________________
add_2 (Add)                      (None, 32, 32, 160)   0           add_1[0][0]                      
                                                                   stage1_block_r1c2_act[0][0]      
____________________________________________________________________________________________________
stage1_block_r2c1 (Conv2D)       (None, 32, 32, 160)   230400      add_2[0][0]                      
____________________________________________________________________________________________________
stage1_block_r2c1_bn (BatchNorma (None, 32, 32, 160)   640         stage1_block_r2c1[0][0]          
____________________________________________________________________________________________________
stage1_block_r2c1_act (Activatio (None, 32, 32, 160)   0           stage1_block_r2c1_bn[0][0]       
____________________________________________________________________________________________________
dropout_3 (Dropout)              (None, 32, 32, 160)   0           stage1_block_r2c1_act[0][0]      
____________________________________________________________________________________________________
stage1_block_r2c2 (Conv2D)       (None, 32, 32, 160)   230400      dropout_3[0][0]                  
____________________________________________________________________________________________________
stage1_block_r2c2_bn (BatchNorma (None, 32, 32, 160)   640         stage1_block_r2c2[0][0]          
____________________________________________________________________________________________________
stage1_block_r2c2_act (Activatio (None, 32, 32, 160)   0           stage1_block_r2c2_bn[0][0]       
____________________________________________________________________________________________________
add_3 (Add)                      (None, 32, 32, 160)   0           add_2[0][0]                      
                                                                   stage1_block_r2c2_act[0][0]      
____________________________________________________________________________________________________
stage1_block_r3c1 (Conv2D)       (None, 32, 32, 160)   230400      add_3[0][0]                      
____________________________________________________________________________________________________
stage1_block_r3c1_bn (BatchNorma (None, 32, 32, 160)   640         stage1_block_r3c1[0][0]          
____________________________________________________________________________________________________
stage1_block_r3c1_act (Activatio (None, 32, 32, 160)   0           stage1_block_r3c1_bn[0][0]       
____________________________________________________________________________________________________
dropout_4 (Dropout)              (None, 32, 32, 160)   0           stage1_block_r3c1_act[0][0]      
____________________________________________________________________________________________________
stage1_block_r3c2 (Conv2D)       (None, 32, 32, 160)   230400      dropout_4[0][0]                  
____________________________________________________________________________________________________
stage1_block_r3c2_bn (BatchNorma (None, 32, 32, 160)   640         stage1_block_r3c2[0][0]          
____________________________________________________________________________________________________
stage1_block_r3c2_act (Activatio (None, 32, 32, 160)   0           stage1_block_r3c2_bn[0][0]       
____________________________________________________________________________________________________
add_4 (Add)                      (None, 32, 32, 160)   0           add_3[0][0]                      
                                                                   stage1_block_r3c2_act[0][0]      
____________________________________________________________________________________________________
batch_normalization_1 (BatchNorm (None, 32, 32, 160)   640         add_4[0][0]                      
____________________________________________________________________________________________________
activation_1 (Activation)        (None, 32, 32, 160)   0           batch_normalization_1[0][0]      
____________________________________________________________________________________________________
stage1_tran_ex (Conv2D)          (None, 32, 32, 320)   51200       activation_1[0][0]               
____________________________________________________________________________________________________
stage1_tran_ex_bn (BatchNormaliz (None, 32, 32, 320)   1280        stage1_tran_ex[0][0]             
____________________________________________________________________________________________________
stage1_tran_ex_act (Activation)  (None, 32, 32, 320)   0           stage1_tran_ex_bn[0][0]          
____________________________________________________________________________________________________
max_pooling2d_1 (MaxPooling2D)   (None, 16, 16, 320)   0           stage1_tran_ex_act[0][0]         
____________________________________________________________________________________________________
stage2_block_r0c1 (Conv2D)       (None, 16, 16, 320)   921600      max_pooling2d_1[0][0]            
____________________________________________________________________________________________________
stage2_block_r0c1_bn (BatchNorma (None, 16, 16, 320)   1280        stage2_block_r0c1[0][0]          
____________________________________________________________________________________________________
stage2_block_r0c1_act (Activatio (None, 16, 16, 320)   0           stage2_block_r0c1_bn[0][0]       
____________________________________________________________________________________________________
dropout_5 (Dropout)              (None, 16, 16, 320)   0           stage2_block_r0c1_act[0][0]      
____________________________________________________________________________________________________
stage2_block_r0c2 (Conv2D)       (None, 16, 16, 320)   921600      dropout_5[0][0]                  
____________________________________________________________________________________________________
stage2_block_r0c2_bn (BatchNorma (None, 16, 16, 320)   1280        stage2_block_r0c2[0][0]          
____________________________________________________________________________________________________
stage2_block_r0c2_act (Activatio (None, 16, 16, 320)   0           stage2_block_r0c2_bn[0][0]       
____________________________________________________________________________________________________
add_5 (Add)                      (None, 16, 16, 320)   0           max_pooling2d_1[0][0]            
                                                                   stage2_block_r0c2_act[0][0]      
____________________________________________________________________________________________________
stage2_block_r1c1 (Conv2D)       (None, 16, 16, 320)   921600      add_5[0][0]                      
____________________________________________________________________________________________________
stage2_block_r1c1_bn (BatchNorma (None, 16, 16, 320)   1280        stage2_block_r1c1[0][0]          
____________________________________________________________________________________________________
stage2_block_r1c1_act (Activatio (None, 16, 16, 320)   0           stage2_block_r1c1_bn[0][0]       
____________________________________________________________________________________________________
dropout_6 (Dropout)              (None, 16, 16, 320)   0           stage2_block_r1c1_act[0][0]      
____________________________________________________________________________________________________
stage2_block_r1c2 (Conv2D)       (None, 16, 16, 320)   921600      dropout_6[0][0]                  
____________________________________________________________________________________________________
stage2_block_r1c2_bn (BatchNorma (None, 16, 16, 320)   1280        stage2_block_r1c2[0][0]          
____________________________________________________________________________________________________
stage2_block_r1c2_act (Activatio (None, 16, 16, 320)   0           stage2_block_r1c2_bn[0][0]       
____________________________________________________________________________________________________
add_6 (Add)                      (None, 16, 16, 320)   0           add_5[0][0]                      
                                                                   stage2_block_r1c2_act[0][0]      
____________________________________________________________________________________________________
stage2_block_r2c1 (Conv2D)       (None, 16, 16, 320)   921600      add_6[0][0]                      
____________________________________________________________________________________________________
stage2_block_r2c1_bn (BatchNorma (None, 16, 16, 320)   1280        stage2_block_r2c1[0][0]          
____________________________________________________________________________________________________
stage2_block_r2c1_act (Activatio (None, 16, 16, 320)   0           stage2_block_r2c1_bn[0][0]       
____________________________________________________________________________________________________
dropout_7 (Dropout)              (None, 16, 16, 320)   0           stage2_block_r2c1_act[0][0]      
____________________________________________________________________________________________________
stage2_block_r2c2 (Conv2D)       (None, 16, 16, 320)   921600      dropout_7[0][0]                  
____________________________________________________________________________________________________
stage2_block_r2c2_bn (BatchNorma (None, 16, 16, 320)   1280        stage2_block_r2c2[0][0]          
____________________________________________________________________________________________________
stage2_block_r2c2_act (Activatio (None, 16, 16, 320)   0           stage2_block_r2c2_bn[0][0]       
____________________________________________________________________________________________________
add_7 (Add)                      (None, 16, 16, 320)   0           add_6[0][0]                      
                                                                   stage2_block_r2c2_act[0][0]      
____________________________________________________________________________________________________
stage2_block_r3c1 (Conv2D)       (None, 16, 16, 320)   921600      add_7[0][0]                      
____________________________________________________________________________________________________
stage2_block_r3c1_bn (BatchNorma (None, 16, 16, 320)   1280        stage2_block_r3c1[0][0]          
____________________________________________________________________________________________________
stage2_block_r3c1_act (Activatio (None, 16, 16, 320)   0           stage2_block_r3c1_bn[0][0]       
____________________________________________________________________________________________________
dropout_8 (Dropout)              (None, 16, 16, 320)   0           stage2_block_r3c1_act[0][0]      
____________________________________________________________________________________________________
stage2_block_r3c2 (Conv2D)       (None, 16, 16, 320)   921600      dropout_8[0][0]                  
____________________________________________________________________________________________________
stage2_block_r3c2_bn (BatchNorma (None, 16, 16, 320)   1280        stage2_block_r3c2[0][0]          
____________________________________________________________________________________________________
stage2_block_r3c2_act (Activatio (None, 16, 16, 320)   0           stage2_block_r3c2_bn[0][0]       
____________________________________________________________________________________________________
add_8 (Add)                      (None, 16, 16, 320)   0           add_7[0][0]                      
                                                                   stage2_block_r3c2_act[0][0]      
____________________________________________________________________________________________________
batch_normalization_2 (BatchNorm (None, 16, 16, 320)   1280        add_8[0][0]                      
____________________________________________________________________________________________________
activation_2 (Activation)        (None, 16, 16, 320)   0           batch_normalization_2[0][0]      
____________________________________________________________________________________________________
stage2_tran_ex (Conv2D)          (None, 16, 16, 640)   204800      activation_2[0][0]               
____________________________________________________________________________________________________
stage2_tran_ex_bn (BatchNormaliz (None, 16, 16, 640)   2560        stage2_tran_ex[0][0]             
____________________________________________________________________________________________________
stage2_tran_ex_act (Activation)  (None, 16, 16, 640)   0           stage2_tran_ex_bn[0][0]          
____________________________________________________________________________________________________
max_pooling2d_2 (MaxPooling2D)   (None, 8, 8, 640)     0           stage2_tran_ex_act[0][0]         
____________________________________________________________________________________________________
stage3_block_r0c1 (Conv2D)       (None, 8, 8, 640)     3686400     max_pooling2d_2[0][0]            
____________________________________________________________________________________________________
stage3_block_r0c1_bn (BatchNorma (None, 8, 8, 640)     2560        stage3_block_r0c1[0][0]          
____________________________________________________________________________________________________
stage3_block_r0c1_act (Activatio (None, 8, 8, 640)     0           stage3_block_r0c1_bn[0][0]       
____________________________________________________________________________________________________
dropout_9 (Dropout)              (None, 8, 8, 640)     0           stage3_block_r0c1_act[0][0]      
____________________________________________________________________________________________________
stage3_block_r0c2 (Conv2D)       (None, 8, 8, 640)     3686400     dropout_9[0][0]                  
____________________________________________________________________________________________________
stage3_block_r0c2_bn (BatchNorma (None, 8, 8, 640)     2560        stage3_block_r0c2[0][0]          
____________________________________________________________________________________________________
stage3_block_r0c2_act (Activatio (None, 8, 8, 640)     0           stage3_block_r0c2_bn[0][0]       
____________________________________________________________________________________________________
add_9 (Add)                      (None, 8, 8, 640)     0           max_pooling2d_2[0][0]            
                                                                   stage3_block_r0c2_act[0][0]      
____________________________________________________________________________________________________
stage3_block_r1c1 (Conv2D)       (None, 8, 8, 640)     3686400     add_9[0][0]                      
____________________________________________________________________________________________________
stage3_block_r1c1_bn (BatchNorma (None, 8, 8, 640)     2560        stage3_block_r1c1[0][0]          
____________________________________________________________________________________________________
stage3_block_r1c1_act (Activatio (None, 8, 8, 640)     0           stage3_block_r1c1_bn[0][0]       
____________________________________________________________________________________________________
dropout_10 (Dropout)             (None, 8, 8, 640)     0           stage3_block_r1c1_act[0][0]      
____________________________________________________________________________________________________
stage3_block_r1c2 (Conv2D)       (None, 8, 8, 640)     3686400     dropout_10[0][0]                 
____________________________________________________________________________________________________
stage3_block_r1c2_bn (BatchNorma (None, 8, 8, 640)     2560        stage3_block_r1c2[0][0]          
____________________________________________________________________________________________________
stage3_block_r1c2_act (Activatio (None, 8, 8, 640)     0           stage3_block_r1c2_bn[0][0]       
____________________________________________________________________________________________________
add_10 (Add)                     (None, 8, 8, 640)     0           add_9[0][0]                      
                                                                   stage3_block_r1c2_act[0][0]      
____________________________________________________________________________________________________
stage3_block_r2c1 (Conv2D)       (None, 8, 8, 640)     3686400     add_10[0][0]                     
____________________________________________________________________________________________________
stage3_block_r2c1_bn (BatchNorma (None, 8, 8, 640)     2560        stage3_block_r2c1[0][0]          
____________________________________________________________________________________________________
stage3_block_r2c1_act (Activatio (None, 8, 8, 640)     0           stage3_block_r2c1_bn[0][0]       
____________________________________________________________________________________________________
dropout_11 (Dropout)             (None, 8, 8, 640)     0           stage3_block_r2c1_act[0][0]      
____________________________________________________________________________________________________
stage3_block_r2c2 (Conv2D)       (None, 8, 8, 640)     3686400     dropout_11[0][0]                 
____________________________________________________________________________________________________
stage3_block_r2c2_bn (BatchNorma (None, 8, 8, 640)     2560        stage3_block_r2c2[0][0]          
____________________________________________________________________________________________________
stage3_block_r2c2_act (Activatio (None, 8, 8, 640)     0           stage3_block_r2c2_bn[0][0]       
____________________________________________________________________________________________________
add_11 (Add)                     (None, 8, 8, 640)     0           add_10[0][0]                     
                                                                   stage3_block_r2c2_act[0][0]      
____________________________________________________________________________________________________
stage3_block_r3c1 (Conv2D)       (None, 8, 8, 640)     3686400     add_11[0][0]                     
____________________________________________________________________________________________________
stage3_block_r3c1_bn (BatchNorma (None, 8, 8, 640)     2560        stage3_block_r3c1[0][0]          
____________________________________________________________________________________________________
stage3_block_r3c1_act (Activatio (None, 8, 8, 640)     0           stage3_block_r3c1_bn[0][0]       
____________________________________________________________________________________________________
dropout_12 (Dropout)             (None, 8, 8, 640)     0           stage3_block_r3c1_act[0][0]      
____________________________________________________________________________________________________
stage3_block_r3c2 (Conv2D)       (None, 8, 8, 640)     3686400     dropout_12[0][0]                 
____________________________________________________________________________________________________
stage3_block_r3c2_bn (BatchNorma (None, 8, 8, 640)     2560        stage3_block_r3c2[0][0]          
____________________________________________________________________________________________________
stage3_block_r3c2_act (Activatio (None, 8, 8, 640)     0           stage3_block_r3c2_bn[0][0]       
____________________________________________________________________________________________________
add_12 (Add)                     (None, 8, 8, 640)     0           add_11[0][0]                     
                                                                   stage3_block_r3c2_act[0][0]      
____________________________________________________________________________________________________
batch_normalization_3 (BatchNorm (None, 8, 8, 640)     2560        add_12[0][0]                     
____________________________________________________________________________________________________
activation_3 (Activation)        (None, 8, 8, 640)     0           batch_normalization_3[0][0]      
____________________________________________________________________________________________________
global_average_pooling2d_1 (Glob (None, 640)           0           activation_3[0][0]               
____________________________________________________________________________________________________
predictions (Dense)              (None, 100)           64100       global_average_pooling2d_1[0][0] 
====================================================================================================
Total params: 39,076,420
Trainable params: 39,054,020
Non-trainable params: 22,400
____________________________________________________________________________________________________
network depth: 28
Test loss:     0.9649586721137166
Test accuracy: 0.7974999740719795
…
