____________________________________________________________________________________________________
Layer (type)                     Output Shape          Param #     Connected to                     
====================================================================================================
input_1 (InputLayer)             (None, 32, 32, 3)     0                                            
____________________________________________________________________________________________________
start (Conv2D)                   (None, 32, 32, 16)    432         input_1[0][0]                    
____________________________________________________________________________________________________
start_bn (BatchNormalization)    (None, 32, 32, 16)    64          start[0][0]                      
____________________________________________________________________________________________________
start_act (Activation)           (None, 32, 32, 16)    0           start_bn[0][0]                   
____________________________________________________________________________________________________
stage0_ex_c1 (Conv2D)            (None, 32, 32, 160)   23040       start_act[0][0]                  
____________________________________________________________________________________________________
stage0_ex_c1_bn (BatchNormalizat (None, 32, 32, 160)   640         stage0_ex_c1[0][0]               
____________________________________________________________________________________________________
stage0_ex_c1_act (Activation)    (None, 32, 32, 160)   0           stage0_ex_c1_bn[0][0]            
____________________________________________________________________________________________________
conv2d_1 (Conv2D)                (None, 32, 32, 160)   2560        start_act[0][0]                  
____________________________________________________________________________________________________
conv2d_2 (Conv2D)                (None, 32, 32, 160)   230400      stage0_ex_c1_act[0][0]           
____________________________________________________________________________________________________
add_1 (Add)                      (None, 32, 32, 160)   0           conv2d_1[0][0]                   
                                                                   conv2d_2[0][0]                   
____________________________________________________________________________________________________
stage1_block_r0c1_bn (BatchNorma (None, 32, 32, 160)   640         add_1[0][0]                      
____________________________________________________________________________________________________
stage1_block_r0c1_act (Activatio (None, 32, 32, 160)   0           stage1_block_r0c1_bn[0][0]       
____________________________________________________________________________________________________
stage1_block_r0c1 (Conv2D)       (None, 32, 32, 160)   230400      stage1_block_r0c1_act[0][0]      
____________________________________________________________________________________________________
dropout_1 (Dropout)              (None, 32, 32, 160)   0           stage1_block_r0c1[0][0]          
____________________________________________________________________________________________________
stage1_block_r0c2_bn (BatchNorma (None, 32, 32, 160)   640         dropout_1[0][0]                  
____________________________________________________________________________________________________
stage1_block_r0c2_act (Activatio (None, 32, 32, 160)   0           stage1_block_r0c2_bn[0][0]       
____________________________________________________________________________________________________
stage1_block_r0c2 (Conv2D)       (None, 32, 32, 160)   230400      stage1_block_r0c2_act[0][0]      
____________________________________________________________________________________________________
add_2 (Add)                      (None, 32, 32, 160)   0           add_1[0][0]                      
                                                                   stage1_block_r0c2[0][0]          
____________________________________________________________________________________________________
stage1_block_r1c1_bn (BatchNorma (None, 32, 32, 160)   640         add_2[0][0]                      
____________________________________________________________________________________________________
stage1_block_r1c1_act (Activatio (None, 32, 32, 160)   0           stage1_block_r1c1_bn[0][0]       
____________________________________________________________________________________________________
stage1_block_r1c1 (Conv2D)       (None, 32, 32, 160)   230400      stage1_block_r1c1_act[0][0]      
____________________________________________________________________________________________________
dropout_2 (Dropout)              (None, 32, 32, 160)   0           stage1_block_r1c1[0][0]          
____________________________________________________________________________________________________
stage1_block_r1c2_bn (BatchNorma (None, 32, 32, 160)   640         dropout_2[0][0]                  
____________________________________________________________________________________________________
stage1_block_r1c2_act (Activatio (None, 32, 32, 160)   0           stage1_block_r1c2_bn[0][0]       
____________________________________________________________________________________________________
stage1_block_r1c2 (Conv2D)       (None, 32, 32, 160)   230400      stage1_block_r1c2_act[0][0]      
____________________________________________________________________________________________________
add_3 (Add)                      (None, 32, 32, 160)   0           add_2[0][0]                      
                                                                   stage1_block_r1c2[0][0]          
____________________________________________________________________________________________________
stage1_block_r2c1_bn (BatchNorma (None, 32, 32, 160)   640         add_3[0][0]                      
____________________________________________________________________________________________________
stage1_block_r2c1_act (Activatio (None, 32, 32, 160)   0           stage1_block_r2c1_bn[0][0]       
____________________________________________________________________________________________________
stage1_block_r2c1 (Conv2D)       (None, 32, 32, 160)   230400      stage1_block_r2c1_act[0][0]      
____________________________________________________________________________________________________
dropout_3 (Dropout)              (None, 32, 32, 160)   0           stage1_block_r2c1[0][0]          
____________________________________________________________________________________________________
stage1_block_r2c2_bn (BatchNorma (None, 32, 32, 160)   640         dropout_3[0][0]                  
____________________________________________________________________________________________________
stage1_block_r2c2_act (Activatio (None, 32, 32, 160)   0           stage1_block_r2c2_bn[0][0]       
____________________________________________________________________________________________________
stage1_block_r2c2 (Conv2D)       (None, 32, 32, 160)   230400      stage1_block_r2c2_act[0][0]      
____________________________________________________________________________________________________
add_4 (Add)                      (None, 32, 32, 160)   0           add_3[0][0]                      
                                                                   stage1_block_r2c2[0][0]          
____________________________________________________________________________________________________
batch_normalization_1 (BatchNorm (None, 32, 32, 160)   640         add_4[0][0]                      
____________________________________________________________________________________________________
activation_1 (Activation)        (None, 32, 32, 160)   0           batch_normalization_1[0][0]      
____________________________________________________________________________________________________
stage1_ex_c1 (Conv2D)            (None, 16, 16, 320)   460800      activation_1[0][0]               
____________________________________________________________________________________________________
stage1_ex_c1_bn (BatchNormalizat (None, 16, 16, 320)   1280        stage1_ex_c1[0][0]               
____________________________________________________________________________________________________
stage1_ex_c1_act (Activation)    (None, 16, 16, 320)   0           stage1_ex_c1_bn[0][0]            
____________________________________________________________________________________________________
conv2d_3 (Conv2D)                (None, 16, 16, 320)   51200       activation_1[0][0]               
____________________________________________________________________________________________________
conv2d_4 (Conv2D)                (None, 16, 16, 320)   921600      stage1_ex_c1_act[0][0]           
____________________________________________________________________________________________________
add_5 (Add)                      (None, 16, 16, 320)   0           conv2d_3[0][0]                   
                                                                   conv2d_4[0][0]                   
____________________________________________________________________________________________________
stage2_block_r0c1_bn (BatchNorma (None, 16, 16, 320)   1280        add_5[0][0]                      
____________________________________________________________________________________________________
stage2_block_r0c1_act (Activatio (None, 16, 16, 320)   0           stage2_block_r0c1_bn[0][0]       
____________________________________________________________________________________________________
stage2_block_r0c1 (Conv2D)       (None, 16, 16, 320)   921600      stage2_block_r0c1_act[0][0]      
____________________________________________________________________________________________________
dropout_4 (Dropout)              (None, 16, 16, 320)   0           stage2_block_r0c1[0][0]          
____________________________________________________________________________________________________
stage2_block_r0c2_bn (BatchNorma (None, 16, 16, 320)   1280        dropout_4[0][0]                  
____________________________________________________________________________________________________
stage2_block_r0c2_act (Activatio (None, 16, 16, 320)   0           stage2_block_r0c2_bn[0][0]       
____________________________________________________________________________________________________
stage2_block_r0c2 (Conv2D)       (None, 16, 16, 320)   921600      stage2_block_r0c2_act[0][0]      
____________________________________________________________________________________________________
add_6 (Add)                      (None, 16, 16, 320)   0           add_5[0][0]                      
                                                                   stage2_block_r0c2[0][0]          
____________________________________________________________________________________________________
stage2_block_r1c1_bn (BatchNorma (None, 16, 16, 320)   1280        add_6[0][0]                      
____________________________________________________________________________________________________
stage2_block_r1c1_act (Activatio (None, 16, 16, 320)   0           stage2_block_r1c1_bn[0][0]       
____________________________________________________________________________________________________
stage2_block_r1c1 (Conv2D)       (None, 16, 16, 320)   921600      stage2_block_r1c1_act[0][0]      
____________________________________________________________________________________________________
dropout_5 (Dropout)              (None, 16, 16, 320)   0           stage2_block_r1c1[0][0]          
____________________________________________________________________________________________________
stage2_block_r1c2_bn (BatchNorma (None, 16, 16, 320)   1280        dropout_5[0][0]                  
____________________________________________________________________________________________________
stage2_block_r1c2_act (Activatio (None, 16, 16, 320)   0           stage2_block_r1c2_bn[0][0]       
____________________________________________________________________________________________________
stage2_block_r1c2 (Conv2D)       (None, 16, 16, 320)   921600      stage2_block_r1c2_act[0][0]      
____________________________________________________________________________________________________
add_7 (Add)                      (None, 16, 16, 320)   0           add_6[0][0]                      
                                                                   stage2_block_r1c2[0][0]          
____________________________________________________________________________________________________
stage2_block_r2c1_bn (BatchNorma (None, 16, 16, 320)   1280        add_7[0][0]                      
____________________________________________________________________________________________________
stage2_block_r2c1_act (Activatio (None, 16, 16, 320)   0           stage2_block_r2c1_bn[0][0]       
____________________________________________________________________________________________________
stage2_block_r2c1 (Conv2D)       (None, 16, 16, 320)   921600      stage2_block_r2c1_act[0][0]      
____________________________________________________________________________________________________
dropout_6 (Dropout)              (None, 16, 16, 320)   0           stage2_block_r2c1[0][0]          
____________________________________________________________________________________________________
stage2_block_r2c2_bn (BatchNorma (None, 16, 16, 320)   1280        dropout_6[0][0]                  
____________________________________________________________________________________________________
stage2_block_r2c2_act (Activatio (None, 16, 16, 320)   0           stage2_block_r2c2_bn[0][0]       
____________________________________________________________________________________________________
stage2_block_r2c2 (Conv2D)       (None, 16, 16, 320)   921600      stage2_block_r2c2_act[0][0]      
____________________________________________________________________________________________________
add_8 (Add)                      (None, 16, 16, 320)   0           add_7[0][0]                      
                                                                   stage2_block_r2c2[0][0]          
____________________________________________________________________________________________________
batch_normalization_2 (BatchNorm (None, 16, 16, 320)   1280        add_8[0][0]                      
____________________________________________________________________________________________________
activation_2 (Activation)        (None, 16, 16, 320)   0           batch_normalization_2[0][0]      
____________________________________________________________________________________________________
stage2_ex_c1 (Conv2D)            (None, 8, 8, 640)     1843200     activation_2[0][0]               
____________________________________________________________________________________________________
stage2_ex_c1_bn (BatchNormalizat (None, 8, 8, 640)     2560        stage2_ex_c1[0][0]               
____________________________________________________________________________________________________
stage2_ex_c1_act (Activation)    (None, 8, 8, 640)     0           stage2_ex_c1_bn[0][0]            
____________________________________________________________________________________________________
conv2d_5 (Conv2D)                (None, 8, 8, 640)     204800      activation_2[0][0]               
____________________________________________________________________________________________________
conv2d_6 (Conv2D)                (None, 8, 8, 640)     3686400     stage2_ex_c1_act[0][0]           
____________________________________________________________________________________________________
add_9 (Add)                      (None, 8, 8, 640)     0           conv2d_5[0][0]                   
                                                                   conv2d_6[0][0]                   
____________________________________________________________________________________________________
stage3_block_r0c1_bn (BatchNorma (None, 8, 8, 640)     2560        add_9[0][0]                      
____________________________________________________________________________________________________
stage3_block_r0c1_act (Activatio (None, 8, 8, 640)     0           stage3_block_r0c1_bn[0][0]       
____________________________________________________________________________________________________
stage3_block_r0c1 (Conv2D)       (None, 8, 8, 640)     3686400     stage3_block_r0c1_act[0][0]      
____________________________________________________________________________________________________
dropout_7 (Dropout)              (None, 8, 8, 640)     0           stage3_block_r0c1[0][0]          
____________________________________________________________________________________________________
stage3_block_r0c2_bn (BatchNorma (None, 8, 8, 640)     2560        dropout_7[0][0]                  
____________________________________________________________________________________________________
stage3_block_r0c2_act (Activatio (None, 8, 8, 640)     0           stage3_block_r0c2_bn[0][0]       
____________________________________________________________________________________________________
stage3_block_r0c2 (Conv2D)       (None, 8, 8, 640)     3686400     stage3_block_r0c2_act[0][0]      
____________________________________________________________________________________________________
add_10 (Add)                     (None, 8, 8, 640)     0           add_9[0][0]                      
                                                                   stage3_block_r0c2[0][0]          
____________________________________________________________________________________________________
stage3_block_r1c1_bn (BatchNorma (None, 8, 8, 640)     2560        add_10[0][0]                     
____________________________________________________________________________________________________
stage3_block_r1c1_act (Activatio (None, 8, 8, 640)     0           stage3_block_r1c1_bn[0][0]       
____________________________________________________________________________________________________
stage3_block_r1c1 (Conv2D)       (None, 8, 8, 640)     3686400     stage3_block_r1c1_act[0][0]      
____________________________________________________________________________________________________
dropout_8 (Dropout)              (None, 8, 8, 640)     0           stage3_block_r1c1[0][0]          
____________________________________________________________________________________________________
stage3_block_r1c2_bn (BatchNorma (None, 8, 8, 640)     2560        dropout_8[0][0]                  
____________________________________________________________________________________________________
stage3_block_r1c2_act (Activatio (None, 8, 8, 640)     0           stage3_block_r1c2_bn[0][0]       
____________________________________________________________________________________________________
stage3_block_r1c2 (Conv2D)       (None, 8, 8, 640)     3686400     stage3_block_r1c2_act[0][0]      
____________________________________________________________________________________________________
add_11 (Add)                     (None, 8, 8, 640)     0           add_10[0][0]                     
                                                                   stage3_block_r1c2[0][0]          
____________________________________________________________________________________________________
stage3_block_r2c1_bn (BatchNorma (None, 8, 8, 640)     2560        add_11[0][0]                     
____________________________________________________________________________________________________
stage3_block_r2c1_act (Activatio (None, 8, 8, 640)     0           stage3_block_r2c1_bn[0][0]       
____________________________________________________________________________________________________
stage3_block_r2c1 (Conv2D)       (None, 8, 8, 640)     3686400     stage3_block_r2c1_act[0][0]      
____________________________________________________________________________________________________
dropout_9 (Dropout)              (None, 8, 8, 640)     0           stage3_block_r2c1[0][0]          
____________________________________________________________________________________________________
stage3_block_r2c2_bn (BatchNorma (None, 8, 8, 640)     2560        dropout_9[0][0]                  
____________________________________________________________________________________________________
stage3_block_r2c2_act (Activatio (None, 8, 8, 640)     0           stage3_block_r2c2_bn[0][0]       
____________________________________________________________________________________________________
stage3_block_r2c2 (Conv2D)       (None, 8, 8, 640)     3686400     stage3_block_r2c2_act[0][0]      
____________________________________________________________________________________________________
add_12 (Add)                     (None, 8, 8, 640)     0           add_11[0][0]                     
                                                                   stage3_block_r2c2[0][0]          
____________________________________________________________________________________________________
batch_normalization_3 (BatchNorm (None, 8, 8, 640)     2560        add_12[0][0]                     
____________________________________________________________________________________________________
activation_3 (Activation)        (None, 8, 8, 640)     0           batch_normalization_3[0][0]      
____________________________________________________________________________________________________
global_average_pooling2d_1 (Glob (None, 640)           0           activation_3[0][0]               
____________________________________________________________________________________________________
predictions (Dense)              (None, 100)           64100       global_average_pooling2d_1[0][0] 
====================================================================================================
Total params: 36,554,836
Trainable params: 36,536,884
Non-trainable params: 17,952
____________________________________________________________________________________________________
network depth: 29
Test loss:     1.1081163469329476
Test accuracy: 0.7902999745309353
…
