____________________________________________________________________________________________________
Layer (type)                     Output Shape          Param #     Connected to                     
====================================================================================================
input_1 (InputLayer)             (None, 32, 32, 3)     0                                            
____________________________________________________________________________________________________
start_conv (Conv2D)              (None, 32, 32, 64)    1728        input_1[0][0]                    
____________________________________________________________________________________________________
start_bn (BatchNormalization)    (None, 32, 32, 64)    256         start_conv[0][0]                 
____________________________________________________________________________________________________
start_act (ELU)                  (None, 32, 32, 64)    0           start_bn[0][0]                   
____________________________________________________________________________________________________
stage1_block1_sq_conv (Conv2D)   (None, 32, 32, 64)    4096        start_act[0][0]                  
____________________________________________________________________________________________________
stage1_block1_sq_bn (BatchNormal (None, 32, 32, 64)    256         stage1_block1_sq_conv[0][0]      
____________________________________________________________________________________________________
stage1_block1_sq_act (ELU)       (None, 32, 32, 64)    0           stage1_block1_sq_bn[0][0]        
____________________________________________________________________________________________________
stage1_block1_b0_c1_conv (Conv2D (None, 32, 32, 16)    9216        stage1_block1_sq_act[0][0]       
____________________________________________________________________________________________________
stage1_block1_b0_c1_bn (BatchNor (None, 32, 32, 16)    64          stage1_block1_b0_c1_conv[0][0]   
____________________________________________________________________________________________________
stage1_block1_b0_c1_act (ELU)    (None, 32, 32, 16)    0           stage1_block1_b0_c1_bn[0][0]     
____________________________________________________________________________________________________
stage1_block1_b0_drop (Dropout)  (None, 32, 32, 16)    0           stage1_block1_b0_c1_act[0][0]    
____________________________________________________________________________________________________
stage1_block1_b0_c2_conv (Conv2D (None, 32, 32, 16)    2304        stage1_block1_b0_drop[0][0]      
____________________________________________________________________________________________________
stage1_block1_b0_c2_bn (BatchNor (None, 32, 32, 16)    64          stage1_block1_b0_c2_conv[0][0]   
____________________________________________________________________________________________________
stage1_block1_b0_c2_act (ELU)    (None, 32, 32, 16)    0           stage1_block1_b0_c2_bn[0][0]     
____________________________________________________________________________________________________
concatenate_1 (Concatenate)      (None, 32, 32, 80)    0           stage1_block1_sq_act[0][0]       
                                                                   stage1_block1_b0_c2_act[0][0]    
____________________________________________________________________________________________________
stage1_block1_b1_c1_conv (Conv2D (None, 32, 32, 16)    11520       concatenate_1[0][0]              
____________________________________________________________________________________________________
stage1_block1_b1_c1_bn (BatchNor (None, 32, 32, 16)    64          stage1_block1_b1_c1_conv[0][0]   
____________________________________________________________________________________________________
stage1_block1_b1_c1_act (ELU)    (None, 32, 32, 16)    0           stage1_block1_b1_c1_bn[0][0]     
____________________________________________________________________________________________________
stage1_block1_b1_drop (Dropout)  (None, 32, 32, 16)    0           stage1_block1_b1_c1_act[0][0]    
____________________________________________________________________________________________________
stage1_block1_b1_c2_conv (Conv2D (None, 32, 32, 16)    2304        stage1_block1_b1_drop[0][0]      
____________________________________________________________________________________________________
stage1_block1_b1_c2_bn (BatchNor (None, 32, 32, 16)    64          stage1_block1_b1_c2_conv[0][0]   
____________________________________________________________________________________________________
stage1_block1_b1_c2_act (ELU)    (None, 32, 32, 16)    0           stage1_block1_b1_c2_bn[0][0]     
____________________________________________________________________________________________________
concatenate_2 (Concatenate)      (None, 32, 32, 96)    0           concatenate_1[0][0]              
                                                                   stage1_block1_b1_c2_act[0][0]    
____________________________________________________________________________________________________
stage1_block1_b2_c1_conv (Conv2D (None, 32, 32, 16)    13824       concatenate_2[0][0]              
____________________________________________________________________________________________________
stage1_block1_b2_c1_bn (BatchNor (None, 32, 32, 16)    64          stage1_block1_b2_c1_conv[0][0]   
____________________________________________________________________________________________________
stage1_block1_b2_c1_act (ELU)    (None, 32, 32, 16)    0           stage1_block1_b2_c1_bn[0][0]     
____________________________________________________________________________________________________
stage1_block1_b2_drop (Dropout)  (None, 32, 32, 16)    0           stage1_block1_b2_c1_act[0][0]    
____________________________________________________________________________________________________
stage1_block1_b2_c2_conv (Conv2D (None, 32, 32, 16)    2304        stage1_block1_b2_drop[0][0]      
____________________________________________________________________________________________________
stage1_block1_b2_c2_bn (BatchNor (None, 32, 32, 16)    64          stage1_block1_b2_c2_conv[0][0]   
____________________________________________________________________________________________________
stage1_block1_b2_c2_act (ELU)    (None, 32, 32, 16)    0           stage1_block1_b2_c2_bn[0][0]     
____________________________________________________________________________________________________
concatenate_3 (Concatenate)      (None, 32, 32, 112)   0           concatenate_2[0][0]              
                                                                   stage1_block1_b2_c2_act[0][0]    
____________________________________________________________________________________________________
stage1_block1_b3_c1_conv (Conv2D (None, 32, 32, 16)    16128       concatenate_3[0][0]              
____________________________________________________________________________________________________
stage1_block1_b3_c1_bn (BatchNor (None, 32, 32, 16)    64          stage1_block1_b3_c1_conv[0][0]   
____________________________________________________________________________________________________
stage1_block1_b3_c1_act (ELU)    (None, 32, 32, 16)    0           stage1_block1_b3_c1_bn[0][0]     
____________________________________________________________________________________________________
stage1_block1_b3_drop (Dropout)  (None, 32, 32, 16)    0           stage1_block1_b3_c1_act[0][0]    
____________________________________________________________________________________________________
stage1_block1_b3_c2_conv (Conv2D (None, 32, 32, 16)    2304        stage1_block1_b3_drop[0][0]      
____________________________________________________________________________________________________
stage1_block1_b3_c2_bn (BatchNor (None, 32, 32, 16)    64          stage1_block1_b3_c2_conv[0][0]   
____________________________________________________________________________________________________
stage1_block1_b3_c2_act (ELU)    (None, 32, 32, 16)    0           stage1_block1_b3_c2_bn[0][0]     
____________________________________________________________________________________________________
concatenate_4 (Concatenate)      (None, 32, 32, 128)   0           concatenate_3[0][0]              
                                                                   stage1_block1_b3_c2_act[0][0]    
____________________________________________________________________________________________________
concatenate_5 (Concatenate)      (None, 32, 32, 192)   0           start_act[0][0]                  
                                                                   concatenate_4[0][0]              
____________________________________________________________________________________________________
stage1_block2_sq_conv (Conv2D)   (None, 32, 32, 64)    12288       concatenate_5[0][0]              
____________________________________________________________________________________________________
stage1_block2_sq_bn (BatchNormal (None, 32, 32, 64)    256         stage1_block2_sq_conv[0][0]      
____________________________________________________________________________________________________
stage1_block2_sq_act (ELU)       (None, 32, 32, 64)    0           stage1_block2_sq_bn[0][0]        
____________________________________________________________________________________________________
stage1_block2_b0_c1_conv (Conv2D (None, 32, 32, 16)    9216        stage1_block2_sq_act[0][0]       
____________________________________________________________________________________________________
stage1_block2_b0_c1_bn (BatchNor (None, 32, 32, 16)    64          stage1_block2_b0_c1_conv[0][0]   
____________________________________________________________________________________________________
stage1_block2_b0_c1_act (ELU)    (None, 32, 32, 16)    0           stage1_block2_b0_c1_bn[0][0]     
____________________________________________________________________________________________________
stage1_block2_b0_drop (Dropout)  (None, 32, 32, 16)    0           stage1_block2_b0_c1_act[0][0]    
____________________________________________________________________________________________________
stage1_block2_b0_c2_conv (Conv2D (None, 32, 32, 16)    2304        stage1_block2_b0_drop[0][0]      
____________________________________________________________________________________________________
stage1_block2_b0_c2_bn (BatchNor (None, 32, 32, 16)    64          stage1_block2_b0_c2_conv[0][0]   
____________________________________________________________________________________________________
stage1_block2_b0_c2_act (ELU)    (None, 32, 32, 16)    0           stage1_block2_b0_c2_bn[0][0]     
____________________________________________________________________________________________________
concatenate_6 (Concatenate)      (None, 32, 32, 80)    0           stage1_block2_sq_act[0][0]       
                                                                   stage1_block2_b0_c2_act[0][0]    
____________________________________________________________________________________________________
stage1_block2_b1_c1_conv (Conv2D (None, 32, 32, 16)    11520       concatenate_6[0][0]              
____________________________________________________________________________________________________
stage1_block2_b1_c1_bn (BatchNor (None, 32, 32, 16)    64          stage1_block2_b1_c1_conv[0][0]   
____________________________________________________________________________________________________
stage1_block2_b1_c1_act (ELU)    (None, 32, 32, 16)    0           stage1_block2_b1_c1_bn[0][0]     
____________________________________________________________________________________________________
stage1_block2_b1_drop (Dropout)  (None, 32, 32, 16)    0           stage1_block2_b1_c1_act[0][0]    
____________________________________________________________________________________________________
stage1_block2_b1_c2_conv (Conv2D (None, 32, 32, 16)    2304        stage1_block2_b1_drop[0][0]      
____________________________________________________________________________________________________
stage1_block2_b1_c2_bn (BatchNor (None, 32, 32, 16)    64          stage1_block2_b1_c2_conv[0][0]   
____________________________________________________________________________________________________
stage1_block2_b1_c2_act (ELU)    (None, 32, 32, 16)    0           stage1_block2_b1_c2_bn[0][0]     
____________________________________________________________________________________________________
concatenate_7 (Concatenate)      (None, 32, 32, 96)    0           concatenate_6[0][0]              
                                                                   stage1_block2_b1_c2_act[0][0]    
____________________________________________________________________________________________________
stage1_block2_b2_c1_conv (Conv2D (None, 32, 32, 16)    13824       concatenate_7[0][0]              
____________________________________________________________________________________________________
stage1_block2_b2_c1_bn (BatchNor (None, 32, 32, 16)    64          stage1_block2_b2_c1_conv[0][0]   
____________________________________________________________________________________________________
stage1_block2_b2_c1_act (ELU)    (None, 32, 32, 16)    0           stage1_block2_b2_c1_bn[0][0]     
____________________________________________________________________________________________________
stage1_block2_b2_drop (Dropout)  (None, 32, 32, 16)    0           stage1_block2_b2_c1_act[0][0]    
____________________________________________________________________________________________________
stage1_block2_b2_c2_conv (Conv2D (None, 32, 32, 16)    2304        stage1_block2_b2_drop[0][0]      
____________________________________________________________________________________________________
stage1_block2_b2_c2_bn (BatchNor (None, 32, 32, 16)    64          stage1_block2_b2_c2_conv[0][0]   
____________________________________________________________________________________________________
stage1_block2_b2_c2_act (ELU)    (None, 32, 32, 16)    0           stage1_block2_b2_c2_bn[0][0]     
____________________________________________________________________________________________________
concatenate_8 (Concatenate)      (None, 32, 32, 112)   0           concatenate_7[0][0]              
                                                                   stage1_block2_b2_c2_act[0][0]    
____________________________________________________________________________________________________
stage1_block2_b3_c1_conv (Conv2D (None, 32, 32, 16)    16128       concatenate_8[0][0]              
____________________________________________________________________________________________________
stage1_block2_b3_c1_bn (BatchNor (None, 32, 32, 16)    64          stage1_block2_b3_c1_conv[0][0]   
____________________________________________________________________________________________________
stage1_block2_b3_c1_act (ELU)    (None, 32, 32, 16)    0           stage1_block2_b3_c1_bn[0][0]     
____________________________________________________________________________________________________
stage1_block2_b3_drop (Dropout)  (None, 32, 32, 16)    0           stage1_block2_b3_c1_act[0][0]    
____________________________________________________________________________________________________
stage1_block2_b3_c2_conv (Conv2D (None, 32, 32, 16)    2304        stage1_block2_b3_drop[0][0]      
____________________________________________________________________________________________________
stage1_block2_b3_c2_bn (BatchNor (None, 32, 32, 16)    64          stage1_block2_b3_c2_conv[0][0]   
____________________________________________________________________________________________________
stage1_block2_b3_c2_act (ELU)    (None, 32, 32, 16)    0           stage1_block2_b3_c2_bn[0][0]     
____________________________________________________________________________________________________
concatenate_9 (Concatenate)      (None, 32, 32, 128)   0           concatenate_8[0][0]              
                                                                   stage1_block2_b3_c2_act[0][0]    
____________________________________________________________________________________________________
concatenate_10 (Concatenate)     (None, 32, 32, 320)   0           concatenate_5[0][0]              
                                                                   concatenate_9[0][0]              
____________________________________________________________________________________________________
stage1_compress_conv (Conv2D)    (None, 32, 32, 128)   40960       concatenate_10[0][0]             
____________________________________________________________________________________________________
stage1_compress_bn (BatchNormali (None, 32, 32, 128)   512         stage1_compress_conv[0][0]       
____________________________________________________________________________________________________
stage1_compress_act (ELU)        (None, 32, 32, 128)   0           stage1_compress_bn[0][0]         
____________________________________________________________________________________________________
average_pooling2d_1 (AveragePool (None, 16, 16, 128)   0           stage1_compress_act[0][0]        
____________________________________________________________________________________________________
stage2_block1_sq_conv (Conv2D)   (None, 16, 16, 512)   65536       average_pooling2d_1[0][0]        
____________________________________________________________________________________________________
stage2_block1_sq_bn (BatchNormal (None, 16, 16, 512)   2048        stage2_block1_sq_conv[0][0]      
____________________________________________________________________________________________________
stage2_block1_sq_act (ELU)       (None, 16, 16, 512)   0           stage2_block1_sq_bn[0][0]        
____________________________________________________________________________________________________
stage2_block1_b0_c1_conv (Conv2D (None, 16, 16, 128)   589824      stage2_block1_sq_act[0][0]       
____________________________________________________________________________________________________
stage2_block1_b0_c1_bn (BatchNor (None, 16, 16, 128)   512         stage2_block1_b0_c1_conv[0][0]   
____________________________________________________________________________________________________
stage2_block1_b0_c1_act (ELU)    (None, 16, 16, 128)   0           stage2_block1_b0_c1_bn[0][0]     
____________________________________________________________________________________________________
stage2_block1_b0_drop (Dropout)  (None, 16, 16, 128)   0           stage2_block1_b0_c1_act[0][0]    
____________________________________________________________________________________________________
stage2_block1_b0_c2_conv (Conv2D (None, 16, 16, 128)   147456      stage2_block1_b0_drop[0][0]      
____________________________________________________________________________________________________
stage2_block1_b0_c2_bn (BatchNor (None, 16, 16, 128)   512         stage2_block1_b0_c2_conv[0][0]   
____________________________________________________________________________________________________
stage2_block1_b0_c2_act (ELU)    (None, 16, 16, 128)   0           stage2_block1_b0_c2_bn[0][0]     
____________________________________________________________________________________________________
concatenate_11 (Concatenate)     (None, 16, 16, 640)   0           stage2_block1_sq_act[0][0]       
                                                                   stage2_block1_b0_c2_act[0][0]    
____________________________________________________________________________________________________
stage2_block1_b1_c1_conv (Conv2D (None, 16, 16, 128)   737280      concatenate_11[0][0]             
____________________________________________________________________________________________________
stage2_block1_b1_c1_bn (BatchNor (None, 16, 16, 128)   512         stage2_block1_b1_c1_conv[0][0]   
____________________________________________________________________________________________________
stage2_block1_b1_c1_act (ELU)    (None, 16, 16, 128)   0           stage2_block1_b1_c1_bn[0][0]     
____________________________________________________________________________________________________
stage2_block1_b1_drop (Dropout)  (None, 16, 16, 128)   0           stage2_block1_b1_c1_act[0][0]    
____________________________________________________________________________________________________
stage2_block1_b1_c2_conv (Conv2D (None, 16, 16, 128)   147456      stage2_block1_b1_drop[0][0]      
____________________________________________________________________________________________________
stage2_block1_b1_c2_bn (BatchNor (None, 16, 16, 128)   512         stage2_block1_b1_c2_conv[0][0]   
____________________________________________________________________________________________________
stage2_block1_b1_c2_act (ELU)    (None, 16, 16, 128)   0           stage2_block1_b1_c2_bn[0][0]     
____________________________________________________________________________________________________
concatenate_12 (Concatenate)     (None, 16, 16, 768)   0           concatenate_11[0][0]             
                                                                   stage2_block1_b1_c2_act[0][0]    
____________________________________________________________________________________________________
stage2_block1_b2_c1_conv (Conv2D (None, 16, 16, 128)   884736      concatenate_12[0][0]             
____________________________________________________________________________________________________
stage2_block1_b2_c1_bn (BatchNor (None, 16, 16, 128)   512         stage2_block1_b2_c1_conv[0][0]   
____________________________________________________________________________________________________
stage2_block1_b2_c1_act (ELU)    (None, 16, 16, 128)   0           stage2_block1_b2_c1_bn[0][0]     
____________________________________________________________________________________________________
stage2_block1_b2_drop (Dropout)  (None, 16, 16, 128)   0           stage2_block1_b2_c1_act[0][0]    
____________________________________________________________________________________________________
stage2_block1_b2_c2_conv (Conv2D (None, 16, 16, 128)   147456      stage2_block1_b2_drop[0][0]      
____________________________________________________________________________________________________
stage2_block1_b2_c2_bn (BatchNor (None, 16, 16, 128)   512         stage2_block1_b2_c2_conv[0][0]   
____________________________________________________________________________________________________
stage2_block1_b2_c2_act (ELU)    (None, 16, 16, 128)   0           stage2_block1_b2_c2_bn[0][0]     
____________________________________________________________________________________________________
concatenate_13 (Concatenate)     (None, 16, 16, 896)   0           concatenate_12[0][0]             
                                                                   stage2_block1_b2_c2_act[0][0]    
____________________________________________________________________________________________________
stage2_block1_b3_c1_conv (Conv2D (None, 16, 16, 128)   1032192     concatenate_13[0][0]             
____________________________________________________________________________________________________
stage2_block1_b3_c1_bn (BatchNor (None, 16, 16, 128)   512         stage2_block1_b3_c1_conv[0][0]   
____________________________________________________________________________________________________
stage2_block1_b3_c1_act (ELU)    (None, 16, 16, 128)   0           stage2_block1_b3_c1_bn[0][0]     
____________________________________________________________________________________________________
stage2_block1_b3_drop (Dropout)  (None, 16, 16, 128)   0           stage2_block1_b3_c1_act[0][0]    
____________________________________________________________________________________________________
stage2_block1_b3_c2_conv (Conv2D (None, 16, 16, 128)   147456      stage2_block1_b3_drop[0][0]      
____________________________________________________________________________________________________
stage2_block1_b3_c2_bn (BatchNor (None, 16, 16, 128)   512         stage2_block1_b3_c2_conv[0][0]   
____________________________________________________________________________________________________
stage2_block1_b3_c2_act (ELU)    (None, 16, 16, 128)   0           stage2_block1_b3_c2_bn[0][0]     
____________________________________________________________________________________________________
concatenate_14 (Concatenate)     (None, 16, 16, 1024)  0           concatenate_13[0][0]             
                                                                   stage2_block1_b3_c2_act[0][0]    
____________________________________________________________________________________________________
concatenate_15 (Concatenate)     (None, 16, 16, 1152)  0           average_pooling2d_1[0][0]        
                                                                   concatenate_14[0][0]             
____________________________________________________________________________________________________
stage2_block2_sq_conv (Conv2D)   (None, 16, 16, 512)   589824      concatenate_15[0][0]             
____________________________________________________________________________________________________
stage2_block2_sq_bn (BatchNormal (None, 16, 16, 512)   2048        stage2_block2_sq_conv[0][0]      
____________________________________________________________________________________________________
stage2_block2_sq_act (ELU)       (None, 16, 16, 512)   0           stage2_block2_sq_bn[0][0]        
____________________________________________________________________________________________________
stage2_block2_b0_c1_conv (Conv2D (None, 16, 16, 128)   589824      stage2_block2_sq_act[0][0]       
____________________________________________________________________________________________________
stage2_block2_b0_c1_bn (BatchNor (None, 16, 16, 128)   512         stage2_block2_b0_c1_conv[0][0]   
____________________________________________________________________________________________________
stage2_block2_b0_c1_act (ELU)    (None, 16, 16, 128)   0           stage2_block2_b0_c1_bn[0][0]     
____________________________________________________________________________________________________
stage2_block2_b0_drop (Dropout)  (None, 16, 16, 128)   0           stage2_block2_b0_c1_act[0][0]    
____________________________________________________________________________________________________
stage2_block2_b0_c2_conv (Conv2D (None, 16, 16, 128)   147456      stage2_block2_b0_drop[0][0]      
____________________________________________________________________________________________________
stage2_block2_b0_c2_bn (BatchNor (None, 16, 16, 128)   512         stage2_block2_b0_c2_conv[0][0]   
____________________________________________________________________________________________________
stage2_block2_b0_c2_act (ELU)    (None, 16, 16, 128)   0           stage2_block2_b0_c2_bn[0][0]     
____________________________________________________________________________________________________
concatenate_16 (Concatenate)     (None, 16, 16, 640)   0           stage2_block2_sq_act[0][0]       
                                                                   stage2_block2_b0_c2_act[0][0]    
____________________________________________________________________________________________________
stage2_block2_b1_c1_conv (Conv2D (None, 16, 16, 128)   737280      concatenate_16[0][0]             
____________________________________________________________________________________________________
stage2_block2_b1_c1_bn (BatchNor (None, 16, 16, 128)   512         stage2_block2_b1_c1_conv[0][0]   
____________________________________________________________________________________________________
stage2_block2_b1_c1_act (ELU)    (None, 16, 16, 128)   0           stage2_block2_b1_c1_bn[0][0]     
____________________________________________________________________________________________________
stage2_block2_b1_drop (Dropout)  (None, 16, 16, 128)   0           stage2_block2_b1_c1_act[0][0]    
____________________________________________________________________________________________________
stage2_block2_b1_c2_conv (Conv2D (None, 16, 16, 128)   147456      stage2_block2_b1_drop[0][0]      
____________________________________________________________________________________________________
stage2_block2_b1_c2_bn (BatchNor (None, 16, 16, 128)   512         stage2_block2_b1_c2_conv[0][0]   
____________________________________________________________________________________________________
stage2_block2_b1_c2_act (ELU)    (None, 16, 16, 128)   0           stage2_block2_b1_c2_bn[0][0]     
____________________________________________________________________________________________________
concatenate_17 (Concatenate)     (None, 16, 16, 768)   0           concatenate_16[0][0]             
                                                                   stage2_block2_b1_c2_act[0][0]    
____________________________________________________________________________________________________
stage2_block2_b2_c1_conv (Conv2D (None, 16, 16, 128)   884736      concatenate_17[0][0]             
____________________________________________________________________________________________________
stage2_block2_b2_c1_bn (BatchNor (None, 16, 16, 128)   512         stage2_block2_b2_c1_conv[0][0]   
____________________________________________________________________________________________________
stage2_block2_b2_c1_act (ELU)    (None, 16, 16, 128)   0           stage2_block2_b2_c1_bn[0][0]     
____________________________________________________________________________________________________
stage2_block2_b2_drop (Dropout)  (None, 16, 16, 128)   0           stage2_block2_b2_c1_act[0][0]    
____________________________________________________________________________________________________
stage2_block2_b2_c2_conv (Conv2D (None, 16, 16, 128)   147456      stage2_block2_b2_drop[0][0]      
____________________________________________________________________________________________________
stage2_block2_b2_c2_bn (BatchNor (None, 16, 16, 128)   512         stage2_block2_b2_c2_conv[0][0]   
____________________________________________________________________________________________________
stage2_block2_b2_c2_act (ELU)    (None, 16, 16, 128)   0           stage2_block2_b2_c2_bn[0][0]     
____________________________________________________________________________________________________
concatenate_18 (Concatenate)     (None, 16, 16, 896)   0           concatenate_17[0][0]             
                                                                   stage2_block2_b2_c2_act[0][0]    
____________________________________________________________________________________________________
stage2_block2_b3_c1_conv (Conv2D (None, 16, 16, 128)   1032192     concatenate_18[0][0]             
____________________________________________________________________________________________________
stage2_block2_b3_c1_bn (BatchNor (None, 16, 16, 128)   512         stage2_block2_b3_c1_conv[0][0]   
____________________________________________________________________________________________________
stage2_block2_b3_c1_act (ELU)    (None, 16, 16, 128)   0           stage2_block2_b3_c1_bn[0][0]     
____________________________________________________________________________________________________
stage2_block2_b3_drop (Dropout)  (None, 16, 16, 128)   0           stage2_block2_b3_c1_act[0][0]    
____________________________________________________________________________________________________
stage2_block2_b3_c2_conv (Conv2D (None, 16, 16, 128)   147456      stage2_block2_b3_drop[0][0]      
____________________________________________________________________________________________________
stage2_block2_b3_c2_bn (BatchNor (None, 16, 16, 128)   512         stage2_block2_b3_c2_conv[0][0]   
____________________________________________________________________________________________________
stage2_block2_b3_c2_act (ELU)    (None, 16, 16, 128)   0           stage2_block2_b3_c2_bn[0][0]     
____________________________________________________________________________________________________
concatenate_19 (Concatenate)     (None, 16, 16, 1024)  0           concatenate_18[0][0]             
                                                                   stage2_block2_b3_c2_act[0][0]    
____________________________________________________________________________________________________
concatenate_20 (Concatenate)     (None, 16, 16, 2176)  0           concatenate_15[0][0]             
                                                                   concatenate_19[0][0]             
____________________________________________________________________________________________________
stage2_compress_conv (Conv2D)    (None, 16, 16, 512)   1114112     concatenate_20[0][0]             
____________________________________________________________________________________________________
stage2_compress_bn (BatchNormali (None, 16, 16, 512)   2048        stage2_compress_conv[0][0]       
____________________________________________________________________________________________________
stage2_compress_act (ELU)        (None, 16, 16, 512)   0           stage2_compress_bn[0][0]         
____________________________________________________________________________________________________
average_pooling2d_2 (AveragePool (None, 8, 8, 512)     0           stage2_compress_act[0][0]        
____________________________________________________________________________________________________
stage3_block1_sq_conv (Conv2D)   (None, 8, 8, 512)     262144      average_pooling2d_2[0][0]        
____________________________________________________________________________________________________
stage3_block1_sq_bn (BatchNormal (None, 8, 8, 512)     2048        stage3_block1_sq_conv[0][0]      
____________________________________________________________________________________________________
stage3_block1_sq_act (ELU)       (None, 8, 8, 512)     0           stage3_block1_sq_bn[0][0]        
____________________________________________________________________________________________________
stage3_block1_b0_c1_conv (Conv2D (None, 8, 8, 128)     589824      stage3_block1_sq_act[0][0]       
____________________________________________________________________________________________________
stage3_block1_b0_c1_bn (BatchNor (None, 8, 8, 128)     512         stage3_block1_b0_c1_conv[0][0]   
____________________________________________________________________________________________________
stage3_block1_b0_c1_act (ELU)    (None, 8, 8, 128)     0           stage3_block1_b0_c1_bn[0][0]     
____________________________________________________________________________________________________
stage3_block1_b0_drop (Dropout)  (None, 8, 8, 128)     0           stage3_block1_b0_c1_act[0][0]    
____________________________________________________________________________________________________
stage3_block1_b0_c2_conv (Conv2D (None, 8, 8, 128)     147456      stage3_block1_b0_drop[0][0]      
____________________________________________________________________________________________________
stage3_block1_b0_c2_bn (BatchNor (None, 8, 8, 128)     512         stage3_block1_b0_c2_conv[0][0]   
____________________________________________________________________________________________________
stage3_block1_b0_c2_act (ELU)    (None, 8, 8, 128)     0           stage3_block1_b0_c2_bn[0][0]     
____________________________________________________________________________________________________
concatenate_21 (Concatenate)     (None, 8, 8, 640)     0           stage3_block1_sq_act[0][0]       
                                                                   stage3_block1_b0_c2_act[0][0]    
____________________________________________________________________________________________________
stage3_block1_b1_c1_conv (Conv2D (None, 8, 8, 128)     737280      concatenate_21[0][0]             
____________________________________________________________________________________________________
stage3_block1_b1_c1_bn (BatchNor (None, 8, 8, 128)     512         stage3_block1_b1_c1_conv[0][0]   
____________________________________________________________________________________________________
stage3_block1_b1_c1_act (ELU)    (None, 8, 8, 128)     0           stage3_block1_b1_c1_bn[0][0]     
____________________________________________________________________________________________________
stage3_block1_b1_drop (Dropout)  (None, 8, 8, 128)     0           stage3_block1_b1_c1_act[0][0]    
____________________________________________________________________________________________________
stage3_block1_b1_c2_conv (Conv2D (None, 8, 8, 128)     147456      stage3_block1_b1_drop[0][0]      
____________________________________________________________________________________________________
stage3_block1_b1_c2_bn (BatchNor (None, 8, 8, 128)     512         stage3_block1_b1_c2_conv[0][0]   
____________________________________________________________________________________________________
stage3_block1_b1_c2_act (ELU)    (None, 8, 8, 128)     0           stage3_block1_b1_c2_bn[0][0]     
____________________________________________________________________________________________________
concatenate_22 (Concatenate)     (None, 8, 8, 768)     0           concatenate_21[0][0]             
                                                                   stage3_block1_b1_c2_act[0][0]    
____________________________________________________________________________________________________
stage3_block1_b2_c1_conv (Conv2D (None, 8, 8, 128)     884736      concatenate_22[0][0]             
____________________________________________________________________________________________________
stage3_block1_b2_c1_bn (BatchNor (None, 8, 8, 128)     512         stage3_block1_b2_c1_conv[0][0]   
____________________________________________________________________________________________________
stage3_block1_b2_c1_act (ELU)    (None, 8, 8, 128)     0           stage3_block1_b2_c1_bn[0][0]     
____________________________________________________________________________________________________
stage3_block1_b2_drop (Dropout)  (None, 8, 8, 128)     0           stage3_block1_b2_c1_act[0][0]    
____________________________________________________________________________________________________
stage3_block1_b2_c2_conv (Conv2D (None, 8, 8, 128)     147456      stage3_block1_b2_drop[0][0]      
____________________________________________________________________________________________________
stage3_block1_b2_c2_bn (BatchNor (None, 8, 8, 128)     512         stage3_block1_b2_c2_conv[0][0]   
____________________________________________________________________________________________________
stage3_block1_b2_c2_act (ELU)    (None, 8, 8, 128)     0           stage3_block1_b2_c2_bn[0][0]     
____________________________________________________________________________________________________
concatenate_23 (Concatenate)     (None, 8, 8, 896)     0           concatenate_22[0][0]             
                                                                   stage3_block1_b2_c2_act[0][0]    
____________________________________________________________________________________________________
stage3_block1_b3_c1_conv (Conv2D (None, 8, 8, 128)     1032192     concatenate_23[0][0]             
____________________________________________________________________________________________________
stage3_block1_b3_c1_bn (BatchNor (None, 8, 8, 128)     512         stage3_block1_b3_c1_conv[0][0]   
____________________________________________________________________________________________________
stage3_block1_b3_c1_act (ELU)    (None, 8, 8, 128)     0           stage3_block1_b3_c1_bn[0][0]     
____________________________________________________________________________________________________
stage3_block1_b3_drop (Dropout)  (None, 8, 8, 128)     0           stage3_block1_b3_c1_act[0][0]    
____________________________________________________________________________________________________
stage3_block1_b3_c2_conv (Conv2D (None, 8, 8, 128)     147456      stage3_block1_b3_drop[0][0]      
____________________________________________________________________________________________________
stage3_block1_b3_c2_bn (BatchNor (None, 8, 8, 128)     512         stage3_block1_b3_c2_conv[0][0]   
____________________________________________________________________________________________________
stage3_block1_b3_c2_act (ELU)    (None, 8, 8, 128)     0           stage3_block1_b3_c2_bn[0][0]     
____________________________________________________________________________________________________
concatenate_24 (Concatenate)     (None, 8, 8, 1024)    0           concatenate_23[0][0]             
                                                                   stage3_block1_b3_c2_act[0][0]    
____________________________________________________________________________________________________
concatenate_25 (Concatenate)     (None, 8, 8, 1536)    0           average_pooling2d_2[0][0]        
                                                                   concatenate_24[0][0]             
____________________________________________________________________________________________________
stage3_block2_sq_conv (Conv2D)   (None, 8, 8, 512)     786432      concatenate_25[0][0]             
____________________________________________________________________________________________________
stage3_block2_sq_bn (BatchNormal (None, 8, 8, 512)     2048        stage3_block2_sq_conv[0][0]      
____________________________________________________________________________________________________
stage3_block2_sq_act (ELU)       (None, 8, 8, 512)     0           stage3_block2_sq_bn[0][0]        
____________________________________________________________________________________________________
stage3_block2_b0_c1_conv (Conv2D (None, 8, 8, 128)     589824      stage3_block2_sq_act[0][0]       
____________________________________________________________________________________________________
stage3_block2_b0_c1_bn (BatchNor (None, 8, 8, 128)     512         stage3_block2_b0_c1_conv[0][0]   
____________________________________________________________________________________________________
stage3_block2_b0_c1_act (ELU)    (None, 8, 8, 128)     0           stage3_block2_b0_c1_bn[0][0]     
____________________________________________________________________________________________________
stage3_block2_b0_drop (Dropout)  (None, 8, 8, 128)     0           stage3_block2_b0_c1_act[0][0]    
____________________________________________________________________________________________________
stage3_block2_b0_c2_conv (Conv2D (None, 8, 8, 128)     147456      stage3_block2_b0_drop[0][0]      
____________________________________________________________________________________________________
stage3_block2_b0_c2_bn (BatchNor (None, 8, 8, 128)     512         stage3_block2_b0_c2_conv[0][0]   
____________________________________________________________________________________________________
stage3_block2_b0_c2_act (ELU)    (None, 8, 8, 128)     0           stage3_block2_b0_c2_bn[0][0]     
____________________________________________________________________________________________________
concatenate_26 (Concatenate)     (None, 8, 8, 640)     0           stage3_block2_sq_act[0][0]       
                                                                   stage3_block2_b0_c2_act[0][0]    
____________________________________________________________________________________________________
stage3_block2_b1_c1_conv (Conv2D (None, 8, 8, 128)     737280      concatenate_26[0][0]             
____________________________________________________________________________________________________
stage3_block2_b1_c1_bn (BatchNor (None, 8, 8, 128)     512         stage3_block2_b1_c1_conv[0][0]   
____________________________________________________________________________________________________
stage3_block2_b1_c1_act (ELU)    (None, 8, 8, 128)     0           stage3_block2_b1_c1_bn[0][0]     
____________________________________________________________________________________________________
stage3_block2_b1_drop (Dropout)  (None, 8, 8, 128)     0           stage3_block2_b1_c1_act[0][0]    
____________________________________________________________________________________________________
stage3_block2_b1_c2_conv (Conv2D (None, 8, 8, 128)     147456      stage3_block2_b1_drop[0][0]      
____________________________________________________________________________________________________
stage3_block2_b1_c2_bn (BatchNor (None, 8, 8, 128)     512         stage3_block2_b1_c2_conv[0][0]   
____________________________________________________________________________________________________
stage3_block2_b1_c2_act (ELU)    (None, 8, 8, 128)     0           stage3_block2_b1_c2_bn[0][0]     
____________________________________________________________________________________________________
concatenate_27 (Concatenate)     (None, 8, 8, 768)     0           concatenate_26[0][0]             
                                                                   stage3_block2_b1_c2_act[0][0]    
____________________________________________________________________________________________________
stage3_block2_b2_c1_conv (Conv2D (None, 8, 8, 128)     884736      concatenate_27[0][0]             
____________________________________________________________________________________________________
stage3_block2_b2_c1_bn (BatchNor (None, 8, 8, 128)     512         stage3_block2_b2_c1_conv[0][0]   
____________________________________________________________________________________________________
stage3_block2_b2_c1_act (ELU)    (None, 8, 8, 128)     0           stage3_block2_b2_c1_bn[0][0]     
____________________________________________________________________________________________________
stage3_block2_b2_drop (Dropout)  (None, 8, 8, 128)     0           stage3_block2_b2_c1_act[0][0]    
____________________________________________________________________________________________________
stage3_block2_b2_c2_conv (Conv2D (None, 8, 8, 128)     147456      stage3_block2_b2_drop[0][0]      
____________________________________________________________________________________________________
stage3_block2_b2_c2_bn (BatchNor (None, 8, 8, 128)     512         stage3_block2_b2_c2_conv[0][0]   
____________________________________________________________________________________________________
stage3_block2_b2_c2_act (ELU)    (None, 8, 8, 128)     0           stage3_block2_b2_c2_bn[0][0]     
____________________________________________________________________________________________________
concatenate_28 (Concatenate)     (None, 8, 8, 896)     0           concatenate_27[0][0]             
                                                                   stage3_block2_b2_c2_act[0][0]    
____________________________________________________________________________________________________
stage3_block2_b3_c1_conv (Conv2D (None, 8, 8, 128)     1032192     concatenate_28[0][0]             
____________________________________________________________________________________________________
stage3_block2_b3_c1_bn (BatchNor (None, 8, 8, 128)     512         stage3_block2_b3_c1_conv[0][0]   
____________________________________________________________________________________________________
stage3_block2_b3_c1_act (ELU)    (None, 8, 8, 128)     0           stage3_block2_b3_c1_bn[0][0]     
____________________________________________________________________________________________________
stage3_block2_b3_drop (Dropout)  (None, 8, 8, 128)     0           stage3_block2_b3_c1_act[0][0]    
____________________________________________________________________________________________________
stage3_block2_b3_c2_conv (Conv2D (None, 8, 8, 128)     147456      stage3_block2_b3_drop[0][0]      
____________________________________________________________________________________________________
stage3_block2_b3_c2_bn (BatchNor (None, 8, 8, 128)     512         stage3_block2_b3_c2_conv[0][0]   
____________________________________________________________________________________________________
stage3_block2_b3_c2_act (ELU)    (None, 8, 8, 128)     0           stage3_block2_b3_c2_bn[0][0]     
____________________________________________________________________________________________________
concatenate_29 (Concatenate)     (None, 8, 8, 1024)    0           concatenate_28[0][0]             
                                                                   stage3_block2_b3_c2_act[0][0]    
____________________________________________________________________________________________________
concatenate_30 (Concatenate)     (None, 8, 8, 2560)    0           concatenate_25[0][0]             
                                                                   concatenate_29[0][0]             
____________________________________________________________________________________________________
stage3_compress_conv (Conv2D)    (None, 8, 8, 256)     655360      concatenate_30[0][0]             
____________________________________________________________________________________________________
stage3_compress_bn (BatchNormali (None, 8, 8, 256)     1024        stage3_compress_conv[0][0]       
____________________________________________________________________________________________________
stage3_compress_act (ELU)        (None, 8, 8, 256)     0           stage3_compress_bn[0][0]         
____________________________________________________________________________________________________
global_average_pooling2d_1 (Glob (None, 256)           0           stage3_compress_act[0][0]        
____________________________________________________________________________________________________
dense_1 (Dense)                  (None, 100)           25700       global_average_pooling2d_1[0][0] 
====================================================================================================
Total params: 19,043,364
Trainable params: 19,028,388
Non-trainable params: 14,976
____________________________________________________________________________________________________
layer depth: 58
Test loss:     1.0169062107801436
Test accuracy: 0.7854999786615372
…
