_run 開始
create network 開始
create network 終了 (4.643[s])
compile 開始
lr = 5.00e-01
compile 終了 (1.735[s])
__________________________________________________________________________________________________
Layer (type)                    Output Shape         Param #     Connected to                     
==================================================================================================
input_1 (InputLayer)            (None, 32, 32, 3)    0                                            
__________________________________________________________________________________________________
stage1_block_start (Conv2D)     (None, 32, 32, 64)   1728        input_1[0][0]                    
__________________________________________________________________________________________________
stage1_block_start_bn (BatchNor (None, 32, 32, 64)   256         stage1_block_start[0][0]         
__________________________________________________________________________________________________
stage1_block_r0c1 (Conv2D)      (None, 32, 32, 64)   36864       stage1_block_start_bn[0][0]      
__________________________________________________________________________________________________
stage1_block_r0c1_bn (BatchNorm (None, 32, 32, 64)   256         stage1_block_r0c1[0][0]          
__________________________________________________________________________________________________
stage1_block_r0c1_act (Activati (None, 32, 32, 64)   0           stage1_block_r0c1_bn[0][0]       
__________________________________________________________________________________________________
dropout_1 (Dropout)             (None, 32, 32, 64)   0           stage1_block_r0c1_act[0][0]      
__________________________________________________________________________________________________
stage1_block_r0c2 (Conv2D)      (None, 32, 32, 64)   36864       dropout_1[0][0]                  
__________________________________________________________________________________________________
stage1_block_r0c2_bn (BatchNorm (None, 32, 32, 64)   256         stage1_block_r0c2[0][0]          
__________________________________________________________________________________________________
add_1 (Add)                     (None, 32, 32, 64)   0           stage1_block_start_bn[0][0]      
                                                                 stage1_block_r0c2_bn[0][0]       
__________________________________________________________________________________________________
stage1_block_r1c1 (Conv2D)      (None, 32, 32, 64)   36864       add_1[0][0]                      
__________________________________________________________________________________________________
stage1_block_r1c1_bn (BatchNorm (None, 32, 32, 64)   256         stage1_block_r1c1[0][0]          
__________________________________________________________________________________________________
stage1_block_r1c1_act (Activati (None, 32, 32, 64)   0           stage1_block_r1c1_bn[0][0]       
__________________________________________________________________________________________________
dropout_2 (Dropout)             (None, 32, 32, 64)   0           stage1_block_r1c1_act[0][0]      
__________________________________________________________________________________________________
stage1_block_r1c2 (Conv2D)      (None, 32, 32, 64)   36864       dropout_2[0][0]                  
__________________________________________________________________________________________________
stage1_block_r1c2_bn (BatchNorm (None, 32, 32, 64)   256         stage1_block_r1c2[0][0]          
__________________________________________________________________________________________________
add_2 (Add)                     (None, 32, 32, 64)   0           add_1[0][0]                      
                                                                 stage1_block_r1c2_bn[0][0]       
__________________________________________________________________________________________________
stage1_block_r2c1 (Conv2D)      (None, 32, 32, 64)   36864       add_2[0][0]                      
__________________________________________________________________________________________________
stage1_block_r2c1_bn (BatchNorm (None, 32, 32, 64)   256         stage1_block_r2c1[0][0]          
__________________________________________________________________________________________________
stage1_block_r2c1_act (Activati (None, 32, 32, 64)   0           stage1_block_r2c1_bn[0][0]       
__________________________________________________________________________________________________
dropout_3 (Dropout)             (None, 32, 32, 64)   0           stage1_block_r2c1_act[0][0]      
__________________________________________________________________________________________________
stage1_block_r2c2 (Conv2D)      (None, 32, 32, 64)   36864       dropout_3[0][0]                  
__________________________________________________________________________________________________
stage1_block_r2c2_bn (BatchNorm (None, 32, 32, 64)   256         stage1_block_r2c2[0][0]          
__________________________________________________________________________________________________
add_3 (Add)                     (None, 32, 32, 64)   0           add_2[0][0]                      
                                                                 stage1_block_r2c2_bn[0][0]       
__________________________________________________________________________________________________
stage1_block_r3c1 (Conv2D)      (None, 32, 32, 64)   36864       add_3[0][0]                      
__________________________________________________________________________________________________
stage1_block_r3c1_bn (BatchNorm (None, 32, 32, 64)   256         stage1_block_r3c1[0][0]          
__________________________________________________________________________________________________
stage1_block_r3c1_act (Activati (None, 32, 32, 64)   0           stage1_block_r3c1_bn[0][0]       
__________________________________________________________________________________________________
dropout_4 (Dropout)             (None, 32, 32, 64)   0           stage1_block_r3c1_act[0][0]      
__________________________________________________________________________________________________
stage1_block_r3c2 (Conv2D)      (None, 32, 32, 64)   36864       dropout_4[0][0]                  
__________________________________________________________________________________________________
stage1_block_r3c2_bn (BatchNorm (None, 32, 32, 64)   256         stage1_block_r3c2[0][0]          
__________________________________________________________________________________________________
add_4 (Add)                     (None, 32, 32, 64)   0           add_3[0][0]                      
                                                                 stage1_block_r3c2_bn[0][0]       
__________________________________________________________________________________________________
stage1_block_r4c1 (Conv2D)      (None, 32, 32, 64)   36864       add_4[0][0]                      
__________________________________________________________________________________________________
stage1_block_r4c1_bn (BatchNorm (None, 32, 32, 64)   256         stage1_block_r4c1[0][0]          
__________________________________________________________________________________________________
stage1_block_r4c1_act (Activati (None, 32, 32, 64)   0           stage1_block_r4c1_bn[0][0]       
__________________________________________________________________________________________________
dropout_5 (Dropout)             (None, 32, 32, 64)   0           stage1_block_r4c1_act[0][0]      
__________________________________________________________________________________________________
stage1_block_r4c2 (Conv2D)      (None, 32, 32, 64)   36864       dropout_5[0][0]                  
__________________________________________________________________________________________________
stage1_block_r4c2_bn (BatchNorm (None, 32, 32, 64)   256         stage1_block_r4c2[0][0]          
__________________________________________________________________________________________________
add_5 (Add)                     (None, 32, 32, 64)   0           add_4[0][0]                      
                                                                 stage1_block_r4c2_bn[0][0]       
__________________________________________________________________________________________________
stage1_block_r5c1 (Conv2D)      (None, 32, 32, 64)   36864       add_5[0][0]                      
__________________________________________________________________________________________________
stage1_block_r5c1_bn (BatchNorm (None, 32, 32, 64)   256         stage1_block_r5c1[0][0]          
__________________________________________________________________________________________________
stage1_block_r5c1_act (Activati (None, 32, 32, 64)   0           stage1_block_r5c1_bn[0][0]       
__________________________________________________________________________________________________
dropout_6 (Dropout)             (None, 32, 32, 64)   0           stage1_block_r5c1_act[0][0]      
__________________________________________________________________________________________________
stage1_block_r5c2 (Conv2D)      (None, 32, 32, 64)   36864       dropout_6[0][0]                  
__________________________________________________________________________________________________
stage1_block_r5c2_bn (BatchNorm (None, 32, 32, 64)   256         stage1_block_r5c2[0][0]          
__________________________________________________________________________________________________
add_6 (Add)                     (None, 32, 32, 64)   0           add_5[0][0]                      
                                                                 stage1_block_r5c2_bn[0][0]       
__________________________________________________________________________________________________
batch_normalization_1 (BatchNor (None, 32, 32, 64)   256         add_6[0][0]                      
__________________________________________________________________________________________________
activation_1 (Activation)       (None, 32, 32, 64)   0           batch_normalization_1[0][0]      
__________________________________________________________________________________________________
stage2_block_start (Conv2D)     (None, 16, 16, 128)  73728       activation_1[0][0]               
__________________________________________________________________________________________________
stage2_block_start_bn (BatchNor (None, 16, 16, 128)  512         stage2_block_start[0][0]         
__________________________________________________________________________________________________
stage2_block_r0c1 (Conv2D)      (None, 16, 16, 128)  147456      stage2_block_start_bn[0][0]      
__________________________________________________________________________________________________
stage2_block_r0c1_bn (BatchNorm (None, 16, 16, 128)  512         stage2_block_r0c1[0][0]          
__________________________________________________________________________________________________
stage2_block_r0c1_act (Activati (None, 16, 16, 128)  0           stage2_block_r0c1_bn[0][0]       
__________________________________________________________________________________________________
dropout_7 (Dropout)             (None, 16, 16, 128)  0           stage2_block_r0c1_act[0][0]      
__________________________________________________________________________________________________
stage2_block_r0c2 (Conv2D)      (None, 16, 16, 128)  147456      dropout_7[0][0]                  
__________________________________________________________________________________________________
stage2_block_r0c2_bn (BatchNorm (None, 16, 16, 128)  512         stage2_block_r0c2[0][0]          
__________________________________________________________________________________________________
add_7 (Add)                     (None, 16, 16, 128)  0           stage2_block_start_bn[0][0]      
                                                                 stage2_block_r0c2_bn[0][0]       
__________________________________________________________________________________________________
stage2_block_r1c1 (Conv2D)      (None, 16, 16, 128)  147456      add_7[0][0]                      
__________________________________________________________________________________________________
stage2_block_r1c1_bn (BatchNorm (None, 16, 16, 128)  512         stage2_block_r1c1[0][0]          
__________________________________________________________________________________________________
stage2_block_r1c1_act (Activati (None, 16, 16, 128)  0           stage2_block_r1c1_bn[0][0]       
__________________________________________________________________________________________________
dropout_8 (Dropout)             (None, 16, 16, 128)  0           stage2_block_r1c1_act[0][0]      
__________________________________________________________________________________________________
stage2_block_r1c2 (Conv2D)      (None, 16, 16, 128)  147456      dropout_8[0][0]                  
__________________________________________________________________________________________________
stage2_block_r1c2_bn (BatchNorm (None, 16, 16, 128)  512         stage2_block_r1c2[0][0]          
__________________________________________________________________________________________________
add_8 (Add)                     (None, 16, 16, 128)  0           add_7[0][0]                      
                                                                 stage2_block_r1c2_bn[0][0]       
__________________________________________________________________________________________________
stage2_block_r2c1 (Conv2D)      (None, 16, 16, 128)  147456      add_8[0][0]                      
__________________________________________________________________________________________________
stage2_block_r2c1_bn (BatchNorm (None, 16, 16, 128)  512         stage2_block_r2c1[0][0]          
__________________________________________________________________________________________________
stage2_block_r2c1_act (Activati (None, 16, 16, 128)  0           stage2_block_r2c1_bn[0][0]       
__________________________________________________________________________________________________
dropout_9 (Dropout)             (None, 16, 16, 128)  0           stage2_block_r2c1_act[0][0]      
__________________________________________________________________________________________________
stage2_block_r2c2 (Conv2D)      (None, 16, 16, 128)  147456      dropout_9[0][0]                  
__________________________________________________________________________________________________
stage2_block_r2c2_bn (BatchNorm (None, 16, 16, 128)  512         stage2_block_r2c2[0][0]          
__________________________________________________________________________________________________
add_9 (Add)                     (None, 16, 16, 128)  0           add_8[0][0]                      
                                                                 stage2_block_r2c2_bn[0][0]       
__________________________________________________________________________________________________
stage2_block_r3c1 (Conv2D)      (None, 16, 16, 128)  147456      add_9[0][0]                      
__________________________________________________________________________________________________
stage2_block_r3c1_bn (BatchNorm (None, 16, 16, 128)  512         stage2_block_r3c1[0][0]          
__________________________________________________________________________________________________
stage2_block_r3c1_act (Activati (None, 16, 16, 128)  0           stage2_block_r3c1_bn[0][0]       
__________________________________________________________________________________________________
dropout_10 (Dropout)            (None, 16, 16, 128)  0           stage2_block_r3c1_act[0][0]      
__________________________________________________________________________________________________
stage2_block_r3c2 (Conv2D)      (None, 16, 16, 128)  147456      dropout_10[0][0]                 
__________________________________________________________________________________________________
stage2_block_r3c2_bn (BatchNorm (None, 16, 16, 128)  512         stage2_block_r3c2[0][0]          
__________________________________________________________________________________________________
add_10 (Add)                    (None, 16, 16, 128)  0           add_9[0][0]                      
                                                                 stage2_block_r3c2_bn[0][0]       
__________________________________________________________________________________________________
stage2_block_r4c1 (Conv2D)      (None, 16, 16, 128)  147456      add_10[0][0]                     
__________________________________________________________________________________________________
stage2_block_r4c1_bn (BatchNorm (None, 16, 16, 128)  512         stage2_block_r4c1[0][0]          
__________________________________________________________________________________________________
stage2_block_r4c1_act (Activati (None, 16, 16, 128)  0           stage2_block_r4c1_bn[0][0]       
__________________________________________________________________________________________________
dropout_11 (Dropout)            (None, 16, 16, 128)  0           stage2_block_r4c1_act[0][0]      
__________________________________________________________________________________________________
stage2_block_r4c2 (Conv2D)      (None, 16, 16, 128)  147456      dropout_11[0][0]                 
__________________________________________________________________________________________________
stage2_block_r4c2_bn (BatchNorm (None, 16, 16, 128)  512         stage2_block_r4c2[0][0]          
__________________________________________________________________________________________________
add_11 (Add)                    (None, 16, 16, 128)  0           add_10[0][0]                     
                                                                 stage2_block_r4c2_bn[0][0]       
__________________________________________________________________________________________________
stage2_block_r5c1 (Conv2D)      (None, 16, 16, 128)  147456      add_11[0][0]                     
__________________________________________________________________________________________________
stage2_block_r5c1_bn (BatchNorm (None, 16, 16, 128)  512         stage2_block_r5c1[0][0]          
__________________________________________________________________________________________________
stage2_block_r5c1_act (Activati (None, 16, 16, 128)  0           stage2_block_r5c1_bn[0][0]       
__________________________________________________________________________________________________
dropout_12 (Dropout)            (None, 16, 16, 128)  0           stage2_block_r5c1_act[0][0]      
__________________________________________________________________________________________________
stage2_block_r5c2 (Conv2D)      (None, 16, 16, 128)  147456      dropout_12[0][0]                 
__________________________________________________________________________________________________
stage2_block_r5c2_bn (BatchNorm (None, 16, 16, 128)  512         stage2_block_r5c2[0][0]          
__________________________________________________________________________________________________
add_12 (Add)                    (None, 16, 16, 128)  0           add_11[0][0]                     
                                                                 stage2_block_r5c2_bn[0][0]       
__________________________________________________________________________________________________
batch_normalization_2 (BatchNor (None, 16, 16, 128)  512         add_12[0][0]                     
__________________________________________________________________________________________________
activation_2 (Activation)       (None, 16, 16, 128)  0           batch_normalization_2[0][0]      
__________________________________________________________________________________________________
stage3_block_start (Conv2D)     (None, 8, 8, 256)    294912      activation_2[0][0]               
__________________________________________________________________________________________________
stage3_block_start_bn (BatchNor (None, 8, 8, 256)    1024        stage3_block_start[0][0]         
__________________________________________________________________________________________________
stage3_block_r0c1 (Conv2D)      (None, 8, 8, 256)    589824      stage3_block_start_bn[0][0]      
__________________________________________________________________________________________________
stage3_block_r0c1_bn (BatchNorm (None, 8, 8, 256)    1024        stage3_block_r0c1[0][0]          
__________________________________________________________________________________________________
stage3_block_r0c1_act (Activati (None, 8, 8, 256)    0           stage3_block_r0c1_bn[0][0]       
__________________________________________________________________________________________________
dropout_13 (Dropout)            (None, 8, 8, 256)    0           stage3_block_r0c1_act[0][0]      
__________________________________________________________________________________________________
stage3_block_r0c2 (Conv2D)      (None, 8, 8, 256)    589824      dropout_13[0][0]                 
__________________________________________________________________________________________________
stage3_block_r0c2_bn (BatchNorm (None, 8, 8, 256)    1024        stage3_block_r0c2[0][0]          
__________________________________________________________________________________________________
add_13 (Add)                    (None, 8, 8, 256)    0           stage3_block_start_bn[0][0]      
                                                                 stage3_block_r0c2_bn[0][0]       
__________________________________________________________________________________________________
stage3_block_r1c1 (Conv2D)      (None, 8, 8, 256)    589824      add_13[0][0]                     
__________________________________________________________________________________________________
stage3_block_r1c1_bn (BatchNorm (None, 8, 8, 256)    1024        stage3_block_r1c1[0][0]          
__________________________________________________________________________________________________
stage3_block_r1c1_act (Activati (None, 8, 8, 256)    0           stage3_block_r1c1_bn[0][0]       
__________________________________________________________________________________________________
dropout_14 (Dropout)            (None, 8, 8, 256)    0           stage3_block_r1c1_act[0][0]      
__________________________________________________________________________________________________
stage3_block_r1c2 (Conv2D)      (None, 8, 8, 256)    589824      dropout_14[0][0]                 
__________________________________________________________________________________________________
stage3_block_r1c2_bn (BatchNorm (None, 8, 8, 256)    1024        stage3_block_r1c2[0][0]          
__________________________________________________________________________________________________
add_14 (Add)                    (None, 8, 8, 256)    0           add_13[0][0]                     
                                                                 stage3_block_r1c2_bn[0][0]       
__________________________________________________________________________________________________
stage3_block_r2c1 (Conv2D)      (None, 8, 8, 256)    589824      add_14[0][0]                     
__________________________________________________________________________________________________
stage3_block_r2c1_bn (BatchNorm (None, 8, 8, 256)    1024        stage3_block_r2c1[0][0]          
__________________________________________________________________________________________________
stage3_block_r2c1_act (Activati (None, 8, 8, 256)    0           stage3_block_r2c1_bn[0][0]       
__________________________________________________________________________________________________
dropout_15 (Dropout)            (None, 8, 8, 256)    0           stage3_block_r2c1_act[0][0]      
__________________________________________________________________________________________________
stage3_block_r2c2 (Conv2D)      (None, 8, 8, 256)    589824      dropout_15[0][0]                 
__________________________________________________________________________________________________
stage3_block_r2c2_bn (BatchNorm (None, 8, 8, 256)    1024        stage3_block_r2c2[0][0]          
__________________________________________________________________________________________________
add_15 (Add)                    (None, 8, 8, 256)    0           add_14[0][0]                     
                                                                 stage3_block_r2c2_bn[0][0]       
__________________________________________________________________________________________________
stage3_block_r3c1 (Conv2D)      (None, 8, 8, 256)    589824      add_15[0][0]                     
__________________________________________________________________________________________________
stage3_block_r3c1_bn (BatchNorm (None, 8, 8, 256)    1024        stage3_block_r3c1[0][0]          
__________________________________________________________________________________________________
stage3_block_r3c1_act (Activati (None, 8, 8, 256)    0           stage3_block_r3c1_bn[0][0]       
__________________________________________________________________________________________________
dropout_16 (Dropout)            (None, 8, 8, 256)    0           stage3_block_r3c1_act[0][0]      
__________________________________________________________________________________________________
stage3_block_r3c2 (Conv2D)      (None, 8, 8, 256)    589824      dropout_16[0][0]                 
__________________________________________________________________________________________________
stage3_block_r3c2_bn (BatchNorm (None, 8, 8, 256)    1024        stage3_block_r3c2[0][0]          
__________________________________________________________________________________________________
add_16 (Add)                    (None, 8, 8, 256)    0           add_15[0][0]                     
                                                                 stage3_block_r3c2_bn[0][0]       
__________________________________________________________________________________________________
stage3_block_r4c1 (Conv2D)      (None, 8, 8, 256)    589824      add_16[0][0]                     
__________________________________________________________________________________________________
stage3_block_r4c1_bn (BatchNorm (None, 8, 8, 256)    1024        stage3_block_r4c1[0][0]          
__________________________________________________________________________________________________
stage3_block_r4c1_act (Activati (None, 8, 8, 256)    0           stage3_block_r4c1_bn[0][0]       
__________________________________________________________________________________________________
dropout_17 (Dropout)            (None, 8, 8, 256)    0           stage3_block_r4c1_act[0][0]      
__________________________________________________________________________________________________
stage3_block_r4c2 (Conv2D)      (None, 8, 8, 256)    589824      dropout_17[0][0]                 
__________________________________________________________________________________________________
stage3_block_r4c2_bn (BatchNorm (None, 8, 8, 256)    1024        stage3_block_r4c2[0][0]          
__________________________________________________________________________________________________
add_17 (Add)                    (None, 8, 8, 256)    0           add_16[0][0]                     
                                                                 stage3_block_r4c2_bn[0][0]       
__________________________________________________________________________________________________
stage3_block_r5c1 (Conv2D)      (None, 8, 8, 256)    589824      add_17[0][0]                     
__________________________________________________________________________________________________
stage3_block_r5c1_bn (BatchNorm (None, 8, 8, 256)    1024        stage3_block_r5c1[0][0]          
__________________________________________________________________________________________________
stage3_block_r5c1_act (Activati (None, 8, 8, 256)    0           stage3_block_r5c1_bn[0][0]       
__________________________________________________________________________________________________
dropout_18 (Dropout)            (None, 8, 8, 256)    0           stage3_block_r5c1_act[0][0]      
__________________________________________________________________________________________________
stage3_block_r5c2 (Conv2D)      (None, 8, 8, 256)    589824      dropout_18[0][0]                 
__________________________________________________________________________________________________
stage3_block_r5c2_bn (BatchNorm (None, 8, 8, 256)    1024        stage3_block_r5c2[0][0]          
__________________________________________________________________________________________________
add_18 (Add)                    (None, 8, 8, 256)    0           add_17[0][0]                     
                                                                 stage3_block_r5c2_bn[0][0]       
__________________________________________________________________________________________________
batch_normalization_3 (BatchNor (None, 8, 8, 256)    1024        add_18[0][0]                     
__________________________________________________________________________________________________
activation_3 (Activation)       (None, 8, 8, 256)    0           batch_normalization_3[0][0]      
__________________________________________________________________________________________________
stage4_block_start (Conv2D)     (None, 4, 4, 512)    1179648     activation_3[0][0]               
__________________________________________________________________________________________________
stage4_block_start_bn (BatchNor (None, 4, 4, 512)    2048        stage4_block_start[0][0]         
__________________________________________________________________________________________________
stage4_block_r0c1 (Conv2D)      (None, 4, 4, 512)    2359296     stage4_block_start_bn[0][0]      
__________________________________________________________________________________________________
stage4_block_r0c1_bn (BatchNorm (None, 4, 4, 512)    2048        stage4_block_r0c1[0][0]          
__________________________________________________________________________________________________
stage4_block_r0c1_act (Activati (None, 4, 4, 512)    0           stage4_block_r0c1_bn[0][0]       
__________________________________________________________________________________________________
dropout_19 (Dropout)            (None, 4, 4, 512)    0           stage4_block_r0c1_act[0][0]      
__________________________________________________________________________________________________
stage4_block_r0c2 (Conv2D)      (None, 4, 4, 512)    2359296     dropout_19[0][0]                 
__________________________________________________________________________________________________
stage4_block_r0c2_bn (BatchNorm (None, 4, 4, 512)    2048        stage4_block_r0c2[0][0]          
__________________________________________________________________________________________________
add_19 (Add)                    (None, 4, 4, 512)    0           stage4_block_start_bn[0][0]      
                                                                 stage4_block_r0c2_bn[0][0]       
__________________________________________________________________________________________________
stage4_block_r1c1 (Conv2D)      (None, 4, 4, 512)    2359296     add_19[0][0]                     
__________________________________________________________________________________________________
stage4_block_r1c1_bn (BatchNorm (None, 4, 4, 512)    2048        stage4_block_r1c1[0][0]          
__________________________________________________________________________________________________
stage4_block_r1c1_act (Activati (None, 4, 4, 512)    0           stage4_block_r1c1_bn[0][0]       
__________________________________________________________________________________________________
dropout_20 (Dropout)            (None, 4, 4, 512)    0           stage4_block_r1c1_act[0][0]      
__________________________________________________________________________________________________
stage4_block_r1c2 (Conv2D)      (None, 4, 4, 512)    2359296     dropout_20[0][0]                 
__________________________________________________________________________________________________
stage4_block_r1c2_bn (BatchNorm (None, 4, 4, 512)    2048        stage4_block_r1c2[0][0]          
__________________________________________________________________________________________________
add_20 (Add)                    (None, 4, 4, 512)    0           add_19[0][0]                     
                                                                 stage4_block_r1c2_bn[0][0]       
__________________________________________________________________________________________________
stage4_block_r2c1 (Conv2D)      (None, 4, 4, 512)    2359296     add_20[0][0]                     
__________________________________________________________________________________________________
stage4_block_r2c1_bn (BatchNorm (None, 4, 4, 512)    2048        stage4_block_r2c1[0][0]          
__________________________________________________________________________________________________
stage4_block_r2c1_act (Activati (None, 4, 4, 512)    0           stage4_block_r2c1_bn[0][0]       
__________________________________________________________________________________________________
dropout_21 (Dropout)            (None, 4, 4, 512)    0           stage4_block_r2c1_act[0][0]      
__________________________________________________________________________________________________
stage4_block_r2c2 (Conv2D)      (None, 4, 4, 512)    2359296     dropout_21[0][0]                 
__________________________________________________________________________________________________
stage4_block_r2c2_bn (BatchNorm (None, 4, 4, 512)    2048        stage4_block_r2c2[0][0]          
__________________________________________________________________________________________________
add_21 (Add)                    (None, 4, 4, 512)    0           add_20[0][0]                     
                                                                 stage4_block_r2c2_bn[0][0]       
__________________________________________________________________________________________________
stage4_block_r3c1 (Conv2D)      (None, 4, 4, 512)    2359296     add_21[0][0]                     
__________________________________________________________________________________________________
stage4_block_r3c1_bn (BatchNorm (None, 4, 4, 512)    2048        stage4_block_r3c1[0][0]          
__________________________________________________________________________________________________
stage4_block_r3c1_act (Activati (None, 4, 4, 512)    0           stage4_block_r3c1_bn[0][0]       
__________________________________________________________________________________________________
dropout_22 (Dropout)            (None, 4, 4, 512)    0           stage4_block_r3c1_act[0][0]      
__________________________________________________________________________________________________
stage4_block_r3c2 (Conv2D)      (None, 4, 4, 512)    2359296     dropout_22[0][0]                 
__________________________________________________________________________________________________
stage4_block_r3c2_bn (BatchNorm (None, 4, 4, 512)    2048        stage4_block_r3c2[0][0]          
__________________________________________________________________________________________________
add_22 (Add)                    (None, 4, 4, 512)    0           add_21[0][0]                     
                                                                 stage4_block_r3c2_bn[0][0]       
__________________________________________________________________________________________________
stage4_block_r4c1 (Conv2D)      (None, 4, 4, 512)    2359296     add_22[0][0]                     
__________________________________________________________________________________________________
stage4_block_r4c1_bn (BatchNorm (None, 4, 4, 512)    2048        stage4_block_r4c1[0][0]          
__________________________________________________________________________________________________
stage4_block_r4c1_act (Activati (None, 4, 4, 512)    0           stage4_block_r4c1_bn[0][0]       
__________________________________________________________________________________________________
dropout_23 (Dropout)            (None, 4, 4, 512)    0           stage4_block_r4c1_act[0][0]      
__________________________________________________________________________________________________
stage4_block_r4c2 (Conv2D)      (None, 4, 4, 512)    2359296     dropout_23[0][0]                 
__________________________________________________________________________________________________
stage4_block_r4c2_bn (BatchNorm (None, 4, 4, 512)    2048        stage4_block_r4c2[0][0]          
__________________________________________________________________________________________________
add_23 (Add)                    (None, 4, 4, 512)    0           add_22[0][0]                     
                                                                 stage4_block_r4c2_bn[0][0]       
__________________________________________________________________________________________________
stage4_block_r5c1 (Conv2D)      (None, 4, 4, 512)    2359296     add_23[0][0]                     
__________________________________________________________________________________________________
stage4_block_r5c1_bn (BatchNorm (None, 4, 4, 512)    2048        stage4_block_r5c1[0][0]          
__________________________________________________________________________________________________
stage4_block_r5c1_act (Activati (None, 4, 4, 512)    0           stage4_block_r5c1_bn[0][0]       
__________________________________________________________________________________________________
dropout_24 (Dropout)            (None, 4, 4, 512)    0           stage4_block_r5c1_act[0][0]      
__________________________________________________________________________________________________
stage4_block_r5c2 (Conv2D)      (None, 4, 4, 512)    2359296     dropout_24[0][0]                 
__________________________________________________________________________________________________
stage4_block_r5c2_bn (BatchNorm (None, 4, 4, 512)    2048        stage4_block_r5c2[0][0]          
__________________________________________________________________________________________________
add_24 (Add)                    (None, 4, 4, 512)    0           add_23[0][0]                     
                                                                 stage4_block_r5c2_bn[0][0]       
__________________________________________________________________________________________________
batch_normalization_4 (BatchNor (None, 4, 4, 512)    2048        add_24[0][0]                     
__________________________________________________________________________________________________
activation_4 (Activation)       (None, 4, 4, 512)    0           batch_normalization_4[0][0]      
__________________________________________________________________________________________________
dropout_25 (Dropout)            (None, 4, 4, 512)    0           activation_4[0][0]               
__________________________________________________________________________________________________
global_average_pooling2d_1 (Glo (None, 512)          0           dropout_25[0][0]                 
__________________________________________________________________________________________________
predictions (Dense)             (None, 100)          51300       global_average_pooling2d_1[0][0] 
==================================================================================================
Total params: 39,256,356
Trainable params: 39,229,476
Non-trainable params: 26,880
__________________________________________________________________________________________________
network depth: 53
Epoch 150: Learning rate 5.0e-01 -> 5.0e-02
Epoch 225: Learning rate 5.0e-02 -> 5.0e-03
…
