Elapsed time = 145462 [s]
________________________________________________________________________
Layer (type)                    Output Shape         Param #     Connected to                     
==================================================================================================
input_1 (InputLayer)            (None, 32, 32, 3)    0                                            
__________________________________________________________________________________________________
initial_conv2D (Conv2D)         (None, 32, 32, 80)   2160        input_1[0][0]                    
__________________________________________________________________________________________________
dense_0_0_bn (BatchNormalizatio (None, 32, 32, 80)   320         initial_conv2D[0][0]             
__________________________________________________________________________________________________
activation_1 (Activation)       (None, 32, 32, 80)   0           dense_0_0_bn[0][0]               
__________________________________________________________________________________________________
dense_0_0_bottleneck_conv2D (Co (None, 32, 32, 160)  12800       activation_1[0][0]               
__________________________________________________________________________________________________
dense_0_0_bottleneck_bn (BatchN (None, 32, 32, 160)  640         dense_0_0_bottleneck_conv2D[0][0]
__________________________________________________________________________________________________
activation_2 (Activation)       (None, 32, 32, 160)  0           dense_0_0_bottleneck_bn[0][0]    
__________________________________________________________________________________________________
dense_0_0_conv2D (Conv2D)       (None, 32, 32, 40)   57600       activation_2[0][0]               
__________________________________________________________________________________________________
concatenate_1 (Concatenate)     (None, 32, 32, 120)  0           initial_conv2D[0][0]             
                                                                 dense_0_0_conv2D[0][0]           
__________________________________________________________________________________________________
dense_0_1_bn (BatchNormalizatio (None, 32, 32, 120)  480         concatenate_1[0][0]              
__________________________________________________________________________________________________
activation_3 (Activation)       (None, 32, 32, 120)  0           dense_0_1_bn[0][0]               
__________________________________________________________________________________________________
dense_0_1_bottleneck_conv2D (Co (None, 32, 32, 160)  19200       activation_3[0][0]               
__________________________________________________________________________________________________
dense_0_1_bottleneck_bn (BatchN (None, 32, 32, 160)  640         dense_0_1_bottleneck_conv2D[0][0]
__________________________________________________________________________________________________
activation_4 (Activation)       (None, 32, 32, 160)  0           dense_0_1_bottleneck_bn[0][0]    
__________________________________________________________________________________________________
dense_0_1_conv2D (Conv2D)       (None, 32, 32, 40)   57600       activation_4[0][0]               
__________________________________________________________________________________________________
concatenate_2 (Concatenate)     (None, 32, 32, 160)  0           concatenate_1[0][0]              
                                                                 dense_0_1_conv2D[0][0]           
__________________________________________________________________________________________________
dense_0_2_bn (BatchNormalizatio (None, 32, 32, 160)  640         concatenate_2[0][0]              
__________________________________________________________________________________________________
activation_5 (Activation)       (None, 32, 32, 160)  0           dense_0_2_bn[0][0]               
__________________________________________________________________________________________________
dense_0_2_bottleneck_conv2D (Co (None, 32, 32, 160)  25600       activation_5[0][0]               
__________________________________________________________________________________________________
dense_0_2_bottleneck_bn (BatchN (None, 32, 32, 160)  640         dense_0_2_bottleneck_conv2D[0][0]
__________________________________________________________________________________________________
activation_6 (Activation)       (None, 32, 32, 160)  0           dense_0_2_bottleneck_bn[0][0]    
__________________________________________________________________________________________________
dense_0_2_conv2D (Conv2D)       (None, 32, 32, 40)   57600       activation_6[0][0]               
__________________________________________________________________________________________________
concatenate_3 (Concatenate)     (None, 32, 32, 200)  0           concatenate_2[0][0]              
                                                                 dense_0_2_conv2D[0][0]           
__________________________________________________________________________________________________
dense_0_3_bn (BatchNormalizatio (None, 32, 32, 200)  800         concatenate_3[0][0]              
__________________________________________________________________________________________________
activation_7 (Activation)       (None, 32, 32, 200)  0           dense_0_3_bn[0][0]               
__________________________________________________________________________________________________
dense_0_3_bottleneck_conv2D (Co (None, 32, 32, 160)  32000       activation_7[0][0]               
__________________________________________________________________________________________________
dense_0_3_bottleneck_bn (BatchN (None, 32, 32, 160)  640         dense_0_3_bottleneck_conv2D[0][0]
__________________________________________________________________________________________________
activation_8 (Activation)       (None, 32, 32, 160)  0           dense_0_3_bottleneck_bn[0][0]    
__________________________________________________________________________________________________
dense_0_3_conv2D (Conv2D)       (None, 32, 32, 40)   57600       activation_8[0][0]               
__________________________________________________________________________________________________
concatenate_4 (Concatenate)     (None, 32, 32, 240)  0           concatenate_3[0][0]              
                                                                 dense_0_3_conv2D[0][0]           
__________________________________________________________________________________________________
dense_0_4_bn (BatchNormalizatio (None, 32, 32, 240)  960         concatenate_4[0][0]              
__________________________________________________________________________________________________
activation_9 (Activation)       (None, 32, 32, 240)  0           dense_0_4_bn[0][0]               
__________________________________________________________________________________________________
dense_0_4_bottleneck_conv2D (Co (None, 32, 32, 160)  38400       activation_9[0][0]               
__________________________________________________________________________________________________
dense_0_4_bottleneck_bn (BatchN (None, 32, 32, 160)  640         dense_0_4_bottleneck_conv2D[0][0]
__________________________________________________________________________________________________
activation_10 (Activation)      (None, 32, 32, 160)  0           dense_0_4_bottleneck_bn[0][0]    
__________________________________________________________________________________________________
dense_0_4_conv2D (Conv2D)       (None, 32, 32, 40)   57600       activation_10[0][0]              
__________________________________________________________________________________________________
concatenate_5 (Concatenate)     (None, 32, 32, 280)  0           concatenate_4[0][0]              
                                                                 dense_0_4_conv2D[0][0]           
__________________________________________________________________________________________________
dense_0_5_bn (BatchNormalizatio (None, 32, 32, 280)  1120        concatenate_5[0][0]              
__________________________________________________________________________________________________
activation_11 (Activation)      (None, 32, 32, 280)  0           dense_0_5_bn[0][0]               
__________________________________________________________________________________________________
dense_0_5_bottleneck_conv2D (Co (None, 32, 32, 160)  44800       activation_11[0][0]              
__________________________________________________________________________________________________
dense_0_5_bottleneck_bn (BatchN (None, 32, 32, 160)  640         dense_0_5_bottleneck_conv2D[0][0]
__________________________________________________________________________________________________
activation_12 (Activation)      (None, 32, 32, 160)  0           dense_0_5_bottleneck_bn[0][0]    
__________________________________________________________________________________________________
dense_0_5_conv2D (Conv2D)       (None, 32, 32, 40)   57600       activation_12[0][0]              
__________________________________________________________________________________________________
concatenate_6 (Concatenate)     (None, 32, 32, 320)  0           concatenate_5[0][0]              
                                                                 dense_0_5_conv2D[0][0]           
__________________________________________________________________________________________________
dense_0_6_bn (BatchNormalizatio (None, 32, 32, 320)  1280        concatenate_6[0][0]              
__________________________________________________________________________________________________
activation_13 (Activation)      (None, 32, 32, 320)  0           dense_0_6_bn[0][0]               
__________________________________________________________________________________________________
dense_0_6_bottleneck_conv2D (Co (None, 32, 32, 160)  51200       activation_13[0][0]              
__________________________________________________________________________________________________
dense_0_6_bottleneck_bn (BatchN (None, 32, 32, 160)  640         dense_0_6_bottleneck_conv2D[0][0]
__________________________________________________________________________________________________
activation_14 (Activation)      (None, 32, 32, 160)  0           dense_0_6_bottleneck_bn[0][0]    
__________________________________________________________________________________________________
dense_0_6_conv2D (Conv2D)       (None, 32, 32, 40)   57600       activation_14[0][0]              
__________________________________________________________________________________________________
concatenate_7 (Concatenate)     (None, 32, 32, 360)  0           concatenate_6[0][0]              
                                                                 dense_0_6_conv2D[0][0]           
__________________________________________________________________________________________________
dense_0_7_bn (BatchNormalizatio (None, 32, 32, 360)  1440        concatenate_7[0][0]              
__________________________________________________________________________________________________
activation_15 (Activation)      (None, 32, 32, 360)  0           dense_0_7_bn[0][0]               
__________________________________________________________________________________________________
dense_0_7_bottleneck_conv2D (Co (None, 32, 32, 160)  57600       activation_15[0][0]              
__________________________________________________________________________________________________
dense_0_7_bottleneck_bn (BatchN (None, 32, 32, 160)  640         dense_0_7_bottleneck_conv2D[0][0]
__________________________________________________________________________________________________
activation_16 (Activation)      (None, 32, 32, 160)  0           dense_0_7_bottleneck_bn[0][0]    
__________________________________________________________________________________________________
dense_0_7_conv2D (Conv2D)       (None, 32, 32, 40)   57600       activation_16[0][0]              
__________________________________________________________________________________________________
concatenate_8 (Concatenate)     (None, 32, 32, 400)  0           concatenate_7[0][0]              
                                                                 dense_0_7_conv2D[0][0]           
__________________________________________________________________________________________________
dense_0_8_bn (BatchNormalizatio (None, 32, 32, 400)  1600        concatenate_8[0][0]              
__________________________________________________________________________________________________
activation_17 (Activation)      (None, 32, 32, 400)  0           dense_0_8_bn[0][0]               
__________________________________________________________________________________________________
dense_0_8_bottleneck_conv2D (Co (None, 32, 32, 160)  64000       activation_17[0][0]              
__________________________________________________________________________________________________
dense_0_8_bottleneck_bn (BatchN (None, 32, 32, 160)  640         dense_0_8_bottleneck_conv2D[0][0]
__________________________________________________________________________________________________
activation_18 (Activation)      (None, 32, 32, 160)  0           dense_0_8_bottleneck_bn[0][0]    
__________________________________________________________________________________________________
dense_0_8_conv2D (Conv2D)       (None, 32, 32, 40)   57600       activation_18[0][0]              
__________________________________________________________________________________________________
concatenate_9 (Concatenate)     (None, 32, 32, 440)  0           concatenate_8[0][0]              
                                                                 dense_0_8_conv2D[0][0]           
__________________________________________________________________________________________________
dense_0_9_bn (BatchNormalizatio (None, 32, 32, 440)  1760        concatenate_9[0][0]              
__________________________________________________________________________________________________
activation_19 (Activation)      (None, 32, 32, 440)  0           dense_0_9_bn[0][0]               
__________________________________________________________________________________________________
dense_0_9_bottleneck_conv2D (Co (None, 32, 32, 160)  70400       activation_19[0][0]              
__________________________________________________________________________________________________
dense_0_9_bottleneck_bn (BatchN (None, 32, 32, 160)  640         dense_0_9_bottleneck_conv2D[0][0]
__________________________________________________________________________________________________
activation_20 (Activation)      (None, 32, 32, 160)  0           dense_0_9_bottleneck_bn[0][0]    
__________________________________________________________________________________________________
dense_0_9_conv2D (Conv2D)       (None, 32, 32, 40)   57600       activation_20[0][0]              
__________________________________________________________________________________________________
concatenate_10 (Concatenate)    (None, 32, 32, 480)  0           concatenate_9[0][0]              
                                                                 dense_0_9_conv2D[0][0]           
__________________________________________________________________________________________________
dense_0_10_bn (BatchNormalizati (None, 32, 32, 480)  1920        concatenate_10[0][0]             
__________________________________________________________________________________________________
activation_21 (Activation)      (None, 32, 32, 480)  0           dense_0_10_bn[0][0]              
__________________________________________________________________________________________________
dense_0_10_bottleneck_conv2D (C (None, 32, 32, 160)  76800       activation_21[0][0]              
__________________________________________________________________________________________________
dense_0_10_bottleneck_bn (Batch (None, 32, 32, 160)  640         dense_0_10_bottleneck_conv2D[0][0
__________________________________________________________________________________________________
activation_22 (Activation)      (None, 32, 32, 160)  0           dense_0_10_bottleneck_bn[0][0]   
__________________________________________________________________________________________________
dense_0_10_conv2D (Conv2D)      (None, 32, 32, 40)   57600       activation_22[0][0]              
__________________________________________________________________________________________________
concatenate_11 (Concatenate)    (None, 32, 32, 520)  0           concatenate_10[0][0]             
                                                                 dense_0_10_conv2D[0][0]          
__________________________________________________________________________________________________
dense_0_11_bn (BatchNormalizati (None, 32, 32, 520)  2080        concatenate_11[0][0]             
__________________________________________________________________________________________________
activation_23 (Activation)      (None, 32, 32, 520)  0           dense_0_11_bn[0][0]              
__________________________________________________________________________________________________
dense_0_11_bottleneck_conv2D (C (None, 32, 32, 160)  83200       activation_23[0][0]              
__________________________________________________________________________________________________
dense_0_11_bottleneck_bn (Batch (None, 32, 32, 160)  640         dense_0_11_bottleneck_conv2D[0][0
__________________________________________________________________________________________________
activation_24 (Activation)      (None, 32, 32, 160)  0           dense_0_11_bottleneck_bn[0][0]   
__________________________________________________________________________________________________
dense_0_11_conv2D (Conv2D)      (None, 32, 32, 40)   57600       activation_24[0][0]              
__________________________________________________________________________________________________
concatenate_12 (Concatenate)    (None, 32, 32, 560)  0           concatenate_11[0][0]             
                                                                 dense_0_11_conv2D[0][0]          
__________________________________________________________________________________________________
dense_0_12_bn (BatchNormalizati (None, 32, 32, 560)  2240        concatenate_12[0][0]             
__________________________________________________________________________________________________
activation_25 (Activation)      (None, 32, 32, 560)  0           dense_0_12_bn[0][0]              
__________________________________________________________________________________________________
dense_0_12_bottleneck_conv2D (C (None, 32, 32, 160)  89600       activation_25[0][0]              
__________________________________________________________________________________________________
dense_0_12_bottleneck_bn (Batch (None, 32, 32, 160)  640         dense_0_12_bottleneck_conv2D[0][0
__________________________________________________________________________________________________
activation_26 (Activation)      (None, 32, 32, 160)  0           dense_0_12_bottleneck_bn[0][0]   
__________________________________________________________________________________________________
dense_0_12_conv2D (Conv2D)      (None, 32, 32, 40)   57600       activation_26[0][0]              
__________________________________________________________________________________________________
concatenate_13 (Concatenate)    (None, 32, 32, 600)  0           concatenate_12[0][0]             
                                                                 dense_0_12_conv2D[0][0]          
__________________________________________________________________________________________________
dense_0_13_bn (BatchNormalizati (None, 32, 32, 600)  2400        concatenate_13[0][0]             
__________________________________________________________________________________________________
activation_27 (Activation)      (None, 32, 32, 600)  0           dense_0_13_bn[0][0]              
__________________________________________________________________________________________________
dense_0_13_bottleneck_conv2D (C (None, 32, 32, 160)  96000       activation_27[0][0]              
__________________________________________________________________________________________________
dense_0_13_bottleneck_bn (Batch (None, 32, 32, 160)  640         dense_0_13_bottleneck_conv2D[0][0
__________________________________________________________________________________________________
activation_28 (Activation)      (None, 32, 32, 160)  0           dense_0_13_bottleneck_bn[0][0]   
__________________________________________________________________________________________________
dense_0_13_conv2D (Conv2D)      (None, 32, 32, 40)   57600       activation_28[0][0]              
__________________________________________________________________________________________________
concatenate_14 (Concatenate)    (None, 32, 32, 640)  0           concatenate_13[0][0]             
                                                                 dense_0_13_conv2D[0][0]          
__________________________________________________________________________________________________
dense_0_14_bn (BatchNormalizati (None, 32, 32, 640)  2560        concatenate_14[0][0]             
__________________________________________________________________________________________________
activation_29 (Activation)      (None, 32, 32, 640)  0           dense_0_14_bn[0][0]              
__________________________________________________________________________________________________
dense_0_14_bottleneck_conv2D (C (None, 32, 32, 160)  102400      activation_29[0][0]              
__________________________________________________________________________________________________
dense_0_14_bottleneck_bn (Batch (None, 32, 32, 160)  640         dense_0_14_bottleneck_conv2D[0][0
__________________________________________________________________________________________________
activation_30 (Activation)      (None, 32, 32, 160)  0           dense_0_14_bottleneck_bn[0][0]   
__________________________________________________________________________________________________
dense_0_14_conv2D (Conv2D)      (None, 32, 32, 40)   57600       activation_30[0][0]              
__________________________________________________________________________________________________
concatenate_15 (Concatenate)    (None, 32, 32, 680)  0           concatenate_14[0][0]             
                                                                 dense_0_14_conv2D[0][0]          
__________________________________________________________________________________________________
dense_0_15_bn (BatchNormalizati (None, 32, 32, 680)  2720        concatenate_15[0][0]             
__________________________________________________________________________________________________
activation_31 (Activation)      (None, 32, 32, 680)  0           dense_0_15_bn[0][0]              
__________________________________________________________________________________________________
dense_0_15_bottleneck_conv2D (C (None, 32, 32, 160)  108800      activation_31[0][0]              
__________________________________________________________________________________________________
dense_0_15_bottleneck_bn (Batch (None, 32, 32, 160)  640         dense_0_15_bottleneck_conv2D[0][0
__________________________________________________________________________________________________
activation_32 (Activation)      (None, 32, 32, 160)  0           dense_0_15_bottleneck_bn[0][0]   
__________________________________________________________________________________________________
dense_0_15_conv2D (Conv2D)      (None, 32, 32, 40)   57600       activation_32[0][0]              
__________________________________________________________________________________________________
concatenate_16 (Concatenate)    (None, 32, 32, 720)  0           concatenate_15[0][0]             
                                                                 dense_0_15_conv2D[0][0]          
__________________________________________________________________________________________________
dense_0_16_bn (BatchNormalizati (None, 32, 32, 720)  2880        concatenate_16[0][0]             
__________________________________________________________________________________________________
activation_33 (Activation)      (None, 32, 32, 720)  0           dense_0_16_bn[0][0]              
__________________________________________________________________________________________________
dense_0_16_bottleneck_conv2D (C (None, 32, 32, 160)  115200      activation_33[0][0]              
__________________________________________________________________________________________________
dense_0_16_bottleneck_bn (Batch (None, 32, 32, 160)  640         dense_0_16_bottleneck_conv2D[0][0
__________________________________________________________________________________________________
activation_34 (Activation)      (None, 32, 32, 160)  0           dense_0_16_bottleneck_bn[0][0]   
__________________________________________________________________________________________________
dense_0_16_conv2D (Conv2D)      (None, 32, 32, 40)   57600       activation_34[0][0]              
__________________________________________________________________________________________________
concatenate_17 (Concatenate)    (None, 32, 32, 760)  0           concatenate_16[0][0]             
                                                                 dense_0_16_conv2D[0][0]          
__________________________________________________________________________________________________
dense_0_17_bn (BatchNormalizati (None, 32, 32, 760)  3040        concatenate_17[0][0]             
__________________________________________________________________________________________________
activation_35 (Activation)      (None, 32, 32, 760)  0           dense_0_17_bn[0][0]              
__________________________________________________________________________________________________
dense_0_17_bottleneck_conv2D (C (None, 32, 32, 160)  121600      activation_35[0][0]              
__________________________________________________________________________________________________
dense_0_17_bottleneck_bn (Batch (None, 32, 32, 160)  640         dense_0_17_bottleneck_conv2D[0][0
__________________________________________________________________________________________________
activation_36 (Activation)      (None, 32, 32, 160)  0           dense_0_17_bottleneck_bn[0][0]   
__________________________________________________________________________________________________
dense_0_17_conv2D (Conv2D)      (None, 32, 32, 40)   57600       activation_36[0][0]              
__________________________________________________________________________________________________
concatenate_18 (Concatenate)    (None, 32, 32, 800)  0           concatenate_17[0][0]             
                                                                 dense_0_17_conv2D[0][0]          
__________________________________________________________________________________________________
dense_0_18_bn (BatchNormalizati (None, 32, 32, 800)  3200        concatenate_18[0][0]             
__________________________________________________________________________________________________
activation_37 (Activation)      (None, 32, 32, 800)  0           dense_0_18_bn[0][0]              
__________________________________________________________________________________________________
dense_0_18_bottleneck_conv2D (C (None, 32, 32, 160)  128000      activation_37[0][0]              
__________________________________________________________________________________________________
dense_0_18_bottleneck_bn (Batch (None, 32, 32, 160)  640         dense_0_18_bottleneck_conv2D[0][0
__________________________________________________________________________________________________
activation_38 (Activation)      (None, 32, 32, 160)  0           dense_0_18_bottleneck_bn[0][0]   
__________________________________________________________________________________________________
dense_0_18_conv2D (Conv2D)      (None, 32, 32, 40)   57600       activation_38[0][0]              
__________________________________________________________________________________________________
concatenate_19 (Concatenate)    (None, 32, 32, 840)  0           concatenate_18[0][0]             
                                                                 dense_0_18_conv2D[0][0]          
__________________________________________________________________________________________________
dense_0_19_bn (BatchNormalizati (None, 32, 32, 840)  3360        concatenate_19[0][0]             
__________________________________________________________________________________________________
activation_39 (Activation)      (None, 32, 32, 840)  0           dense_0_19_bn[0][0]              
__________________________________________________________________________________________________
dense_0_19_bottleneck_conv2D (C (None, 32, 32, 160)  134400      activation_39[0][0]              
__________________________________________________________________________________________________
dense_0_19_bottleneck_bn (Batch (None, 32, 32, 160)  640         dense_0_19_bottleneck_conv2D[0][0
__________________________________________________________________________________________________
activation_40 (Activation)      (None, 32, 32, 160)  0           dense_0_19_bottleneck_bn[0][0]   
__________________________________________________________________________________________________
dense_0_19_conv2D (Conv2D)      (None, 32, 32, 40)   57600       activation_40[0][0]              
__________________________________________________________________________________________________
concatenate_20 (Concatenate)    (None, 32, 32, 880)  0           concatenate_19[0][0]             
                                                                 dense_0_19_conv2D[0][0]          
__________________________________________________________________________________________________
dense_0_20_bn (BatchNormalizati (None, 32, 32, 880)  3520        concatenate_20[0][0]             
__________________________________________________________________________________________________
activation_41 (Activation)      (None, 32, 32, 880)  0           dense_0_20_bn[0][0]              
__________________________________________________________________________________________________
dense_0_20_bottleneck_conv2D (C (None, 32, 32, 160)  140800      activation_41[0][0]              
__________________________________________________________________________________________________
dense_0_20_bottleneck_bn (Batch (None, 32, 32, 160)  640         dense_0_20_bottleneck_conv2D[0][0
__________________________________________________________________________________________________
activation_42 (Activation)      (None, 32, 32, 160)  0           dense_0_20_bottleneck_bn[0][0]   
__________________________________________________________________________________________________
dense_0_20_conv2D (Conv2D)      (None, 32, 32, 40)   57600       activation_42[0][0]              
__________________________________________________________________________________________________
concatenate_21 (Concatenate)    (None, 32, 32, 920)  0           concatenate_20[0][0]             
                                                                 dense_0_20_conv2D[0][0]          
__________________________________________________________________________________________________
dense_0_21_bn (BatchNormalizati (None, 32, 32, 920)  3680        concatenate_21[0][0]             
__________________________________________________________________________________________________
activation_43 (Activation)      (None, 32, 32, 920)  0           dense_0_21_bn[0][0]              
__________________________________________________________________________________________________
dense_0_21_bottleneck_conv2D (C (None, 32, 32, 160)  147200      activation_43[0][0]              
__________________________________________________________________________________________________
dense_0_21_bottleneck_bn (Batch (None, 32, 32, 160)  640         dense_0_21_bottleneck_conv2D[0][0
__________________________________________________________________________________________________
activation_44 (Activation)      (None, 32, 32, 160)  0           dense_0_21_bottleneck_bn[0][0]   
__________________________________________________________________________________________________
dense_0_21_conv2D (Conv2D)      (None, 32, 32, 40)   57600       activation_44[0][0]              
__________________________________________________________________________________________________
concatenate_22 (Concatenate)    (None, 32, 32, 960)  0           concatenate_21[0][0]             
                                                                 dense_0_21_conv2D[0][0]          
__________________________________________________________________________________________________
dense_0_22_bn (BatchNormalizati (None, 32, 32, 960)  3840        concatenate_22[0][0]             
__________________________________________________________________________________________________
activation_45 (Activation)      (None, 32, 32, 960)  0           dense_0_22_bn[0][0]              
__________________________________________________________________________________________________
dense_0_22_bottleneck_conv2D (C (None, 32, 32, 160)  153600      activation_45[0][0]              
__________________________________________________________________________________________________
dense_0_22_bottleneck_bn (Batch (None, 32, 32, 160)  640         dense_0_22_bottleneck_conv2D[0][0
__________________________________________________________________________________________________
activation_46 (Activation)      (None, 32, 32, 160)  0           dense_0_22_bottleneck_bn[0][0]   
__________________________________________________________________________________________________
dense_0_22_conv2D (Conv2D)      (None, 32, 32, 40)   57600       activation_46[0][0]              
__________________________________________________________________________________________________
concatenate_23 (Concatenate)    (None, 32, 32, 1000) 0           concatenate_22[0][0]             
                                                                 dense_0_22_conv2D[0][0]          
__________________________________________________________________________________________________
dense_0_23_bn (BatchNormalizati (None, 32, 32, 1000) 4000        concatenate_23[0][0]             
__________________________________________________________________________________________________
activation_47 (Activation)      (None, 32, 32, 1000) 0           dense_0_23_bn[0][0]              
__________________________________________________________________________________________________
dense_0_23_bottleneck_conv2D (C (None, 32, 32, 160)  160000      activation_47[0][0]              
__________________________________________________________________________________________________
dense_0_23_bottleneck_bn (Batch (None, 32, 32, 160)  640         dense_0_23_bottleneck_conv2D[0][0
__________________________________________________________________________________________________
activation_48 (Activation)      (None, 32, 32, 160)  0           dense_0_23_bottleneck_bn[0][0]   
__________________________________________________________________________________________________
dense_0_23_conv2D (Conv2D)      (None, 32, 32, 40)   57600       activation_48[0][0]              
__________________________________________________________________________________________________
concatenate_24 (Concatenate)    (None, 32, 32, 1040) 0           concatenate_23[0][0]             
                                                                 dense_0_23_conv2D[0][0]          
__________________________________________________________________________________________________
dense_0_24_bn (BatchNormalizati (None, 32, 32, 1040) 4160        concatenate_24[0][0]             
__________________________________________________________________________________________________
activation_49 (Activation)      (None, 32, 32, 1040) 0           dense_0_24_bn[0][0]              
__________________________________________________________________________________________________
dense_0_24_bottleneck_conv2D (C (None, 32, 32, 160)  166400      activation_49[0][0]              
__________________________________________________________________________________________________
dense_0_24_bottleneck_bn (Batch (None, 32, 32, 160)  640         dense_0_24_bottleneck_conv2D[0][0
__________________________________________________________________________________________________
activation_50 (Activation)      (None, 32, 32, 160)  0           dense_0_24_bottleneck_bn[0][0]   
__________________________________________________________________________________________________
dense_0_24_conv2D (Conv2D)      (None, 32, 32, 40)   57600       activation_50[0][0]              
__________________________________________________________________________________________________
concatenate_25 (Concatenate)    (None, 32, 32, 1080) 0           concatenate_24[0][0]             
                                                                 dense_0_24_conv2D[0][0]          
__________________________________________________________________________________________________
dense_0_25_bn (BatchNormalizati (None, 32, 32, 1080) 4320        concatenate_25[0][0]             
__________________________________________________________________________________________________
activation_51 (Activation)      (None, 32, 32, 1080) 0           dense_0_25_bn[0][0]              
__________________________________________________________________________________________________
dense_0_25_bottleneck_conv2D (C (None, 32, 32, 160)  172800      activation_51[0][0]              
__________________________________________________________________________________________________
dense_0_25_bottleneck_bn (Batch (None, 32, 32, 160)  640         dense_0_25_bottleneck_conv2D[0][0
__________________________________________________________________________________________________
activation_52 (Activation)      (None, 32, 32, 160)  0           dense_0_25_bottleneck_bn[0][0]   
__________________________________________________________________________________________________
dense_0_25_conv2D (Conv2D)      (None, 32, 32, 40)   57600       activation_52[0][0]              
__________________________________________________________________________________________________
concatenate_26 (Concatenate)    (None, 32, 32, 1120) 0           concatenate_25[0][0]             
                                                                 dense_0_25_conv2D[0][0]          
__________________________________________________________________________________________________
dense_0_26_bn (BatchNormalizati (None, 32, 32, 1120) 4480        concatenate_26[0][0]             
__________________________________________________________________________________________________
activation_53 (Activation)      (None, 32, 32, 1120) 0           dense_0_26_bn[0][0]              
__________________________________________________________________________________________________
dense_0_26_bottleneck_conv2D (C (None, 32, 32, 160)  179200      activation_53[0][0]              
__________________________________________________________________________________________________
dense_0_26_bottleneck_bn (Batch (None, 32, 32, 160)  640         dense_0_26_bottleneck_conv2D[0][0
__________________________________________________________________________________________________
activation_54 (Activation)      (None, 32, 32, 160)  0           dense_0_26_bottleneck_bn[0][0]   
__________________________________________________________________________________________________
dense_0_26_conv2D (Conv2D)      (None, 32, 32, 40)   57600       activation_54[0][0]              
__________________________________________________________________________________________________
concatenate_27 (Concatenate)    (None, 32, 32, 1160) 0           concatenate_26[0][0]             
                                                                 dense_0_26_conv2D[0][0]          
__________________________________________________________________________________________________
dense_0_27_bn (BatchNormalizati (None, 32, 32, 1160) 4640        concatenate_27[0][0]             
__________________________________________________________________________________________________
activation_55 (Activation)      (None, 32, 32, 1160) 0           dense_0_27_bn[0][0]              
__________________________________________________________________________________________________
dense_0_27_bottleneck_conv2D (C (None, 32, 32, 160)  185600      activation_55[0][0]              
__________________________________________________________________________________________________
dense_0_27_bottleneck_bn (Batch (None, 32, 32, 160)  640         dense_0_27_bottleneck_conv2D[0][0
__________________________________________________________________________________________________
activation_56 (Activation)      (None, 32, 32, 160)  0           dense_0_27_bottleneck_bn[0][0]   
__________________________________________________________________________________________________
dense_0_27_conv2D (Conv2D)      (None, 32, 32, 40)   57600       activation_56[0][0]              
__________________________________________________________________________________________________
concatenate_28 (Concatenate)    (None, 32, 32, 1200) 0           concatenate_27[0][0]             
                                                                 dense_0_27_conv2D[0][0]          
__________________________________________________________________________________________________
dense_0_28_bn (BatchNormalizati (None, 32, 32, 1200) 4800        concatenate_28[0][0]             
__________________________________________________________________________________________________
activation_57 (Activation)      (None, 32, 32, 1200) 0           dense_0_28_bn[0][0]              
__________________________________________________________________________________________________
dense_0_28_bottleneck_conv2D (C (None, 32, 32, 160)  192000      activation_57[0][0]              
__________________________________________________________________________________________________
dense_0_28_bottleneck_bn (Batch (None, 32, 32, 160)  640         dense_0_28_bottleneck_conv2D[0][0
__________________________________________________________________________________________________
activation_58 (Activation)      (None, 32, 32, 160)  0           dense_0_28_bottleneck_bn[0][0]   
__________________________________________________________________________________________________
dense_0_28_conv2D (Conv2D)      (None, 32, 32, 40)   57600       activation_58[0][0]              
__________________________________________________________________________________________________
concatenate_29 (Concatenate)    (None, 32, 32, 1240) 0           concatenate_28[0][0]             
                                                                 dense_0_28_conv2D[0][0]          
__________________________________________________________________________________________________
dense_0_29_bn (BatchNormalizati (None, 32, 32, 1240) 4960        concatenate_29[0][0]             
__________________________________________________________________________________________________
activation_59 (Activation)      (None, 32, 32, 1240) 0           dense_0_29_bn[0][0]              
__________________________________________________________________________________________________
dense_0_29_bottleneck_conv2D (C (None, 32, 32, 160)  198400      activation_59[0][0]              
__________________________________________________________________________________________________
dense_0_29_bottleneck_bn (Batch (None, 32, 32, 160)  640         dense_0_29_bottleneck_conv2D[0][0
__________________________________________________________________________________________________
activation_60 (Activation)      (None, 32, 32, 160)  0           dense_0_29_bottleneck_bn[0][0]   
__________________________________________________________________________________________________
dense_0_29_conv2D (Conv2D)      (None, 32, 32, 40)   57600       activation_60[0][0]              
__________________________________________________________________________________________________
concatenate_30 (Concatenate)    (None, 32, 32, 1280) 0           concatenate_29[0][0]             
                                                                 dense_0_29_conv2D[0][0]          
__________________________________________________________________________________________________
dense_0_30_bn (BatchNormalizati (None, 32, 32, 1280) 5120        concatenate_30[0][0]             
__________________________________________________________________________________________________
activation_61 (Activation)      (None, 32, 32, 1280) 0           dense_0_30_bn[0][0]              
__________________________________________________________________________________________________
dense_0_30_bottleneck_conv2D (C (None, 32, 32, 160)  204800      activation_61[0][0]              
__________________________________________________________________________________________________
dense_0_30_bottleneck_bn (Batch (None, 32, 32, 160)  640         dense_0_30_bottleneck_conv2D[0][0
__________________________________________________________________________________________________
activation_62 (Activation)      (None, 32, 32, 160)  0           dense_0_30_bottleneck_bn[0][0]   
__________________________________________________________________________________________________
dense_0_30_conv2D (Conv2D)      (None, 32, 32, 40)   57600       activation_62[0][0]              
__________________________________________________________________________________________________
concatenate_31 (Concatenate)    (None, 32, 32, 1320) 0           concatenate_30[0][0]             
                                                                 dense_0_30_conv2D[0][0]          
__________________________________________________________________________________________________
tr_0_bn (BatchNormalization)    (None, 32, 32, 1320) 5280        concatenate_31[0][0]             
__________________________________________________________________________________________________
activation_63 (Activation)      (None, 32, 32, 1320) 0           tr_0_bn[0][0]                    
__________________________________________________________________________________________________
tr_0_conv2D (Conv2D)            (None, 32, 32, 660)  871200      activation_63[0][0]              
__________________________________________________________________________________________________
average_pooling2d_1 (AveragePoo (None, 16, 16, 660)  0           tr_0_conv2D[0][0]                
__________________________________________________________________________________________________
dense_1_0_bn (BatchNormalizatio (None, 16, 16, 660)  2640        average_pooling2d_1[0][0]        
__________________________________________________________________________________________________
activation_64 (Activation)      (None, 16, 16, 660)  0           dense_1_0_bn[0][0]               
__________________________________________________________________________________________________
dense_1_0_bottleneck_conv2D (Co (None, 16, 16, 160)  105600      activation_64[0][0]              
__________________________________________________________________________________________________
dense_1_0_bottleneck_bn (BatchN (None, 16, 16, 160)  640         dense_1_0_bottleneck_conv2D[0][0]
__________________________________________________________________________________________________
activation_65 (Activation)      (None, 16, 16, 160)  0           dense_1_0_bottleneck_bn[0][0]    
__________________________________________________________________________________________________
dense_1_0_conv2D (Conv2D)       (None, 16, 16, 40)   57600       activation_65[0][0]              
__________________________________________________________________________________________________
concatenate_32 (Concatenate)    (None, 16, 16, 700)  0           average_pooling2d_1[0][0]        
                                                                 dense_1_0_conv2D[0][0]           
__________________________________________________________________________________________________
dense_1_1_bn (BatchNormalizatio (None, 16, 16, 700)  2800        concatenate_32[0][0]             
__________________________________________________________________________________________________
activation_66 (Activation)      (None, 16, 16, 700)  0           dense_1_1_bn[0][0]               
__________________________________________________________________________________________________
dense_1_1_bottleneck_conv2D (Co (None, 16, 16, 160)  112000      activation_66[0][0]              
__________________________________________________________________________________________________
dense_1_1_bottleneck_bn (BatchN (None, 16, 16, 160)  640         dense_1_1_bottleneck_conv2D[0][0]
__________________________________________________________________________________________________
activation_67 (Activation)      (None, 16, 16, 160)  0           dense_1_1_bottleneck_bn[0][0]    
__________________________________________________________________________________________________
dense_1_1_conv2D (Conv2D)       (None, 16, 16, 40)   57600       activation_67[0][0]              
__________________________________________________________________________________________________
concatenate_33 (Concatenate)    (None, 16, 16, 740)  0           concatenate_32[0][0]             
                                                                 dense_1_1_conv2D[0][0]           
__________________________________________________________________________________________________
dense_1_2_bn (BatchNormalizatio (None, 16, 16, 740)  2960        concatenate_33[0][0]             
__________________________________________________________________________________________________
activation_68 (Activation)      (None, 16, 16, 740)  0           dense_1_2_bn[0][0]               
__________________________________________________________________________________________________
dense_1_2_bottleneck_conv2D (Co (None, 16, 16, 160)  118400      activation_68[0][0]              
__________________________________________________________________________________________________
dense_1_2_bottleneck_bn (BatchN (None, 16, 16, 160)  640         dense_1_2_bottleneck_conv2D[0][0]
__________________________________________________________________________________________________
activation_69 (Activation)      (None, 16, 16, 160)  0           dense_1_2_bottleneck_bn[0][0]    
__________________________________________________________________________________________________
dense_1_2_conv2D (Conv2D)       (None, 16, 16, 40)   57600       activation_69[0][0]              
__________________________________________________________________________________________________
concatenate_34 (Concatenate)    (None, 16, 16, 780)  0           concatenate_33[0][0]             
                                                                 dense_1_2_conv2D[0][0]           
__________________________________________________________________________________________________
dense_1_3_bn (BatchNormalizatio (None, 16, 16, 780)  3120        concatenate_34[0][0]             
__________________________________________________________________________________________________
activation_70 (Activation)      (None, 16, 16, 780)  0           dense_1_3_bn[0][0]               
__________________________________________________________________________________________________
dense_1_3_bottleneck_conv2D (Co (None, 16, 16, 160)  124800      activation_70[0][0]              
__________________________________________________________________________________________________
dense_1_3_bottleneck_bn (BatchN (None, 16, 16, 160)  640         dense_1_3_bottleneck_conv2D[0][0]
__________________________________________________________________________________________________
activation_71 (Activation)      (None, 16, 16, 160)  0           dense_1_3_bottleneck_bn[0][0]    
__________________________________________________________________________________________________
dense_1_3_conv2D (Conv2D)       (None, 16, 16, 40)   57600       activation_71[0][0]              
__________________________________________________________________________________________________
concatenate_35 (Concatenate)    (None, 16, 16, 820)  0           concatenate_34[0][0]             
                                                                 dense_1_3_conv2D[0][0]           
__________________________________________________________________________________________________
dense_1_4_bn (BatchNormalizatio (None, 16, 16, 820)  3280        concatenate_35[0][0]             
__________________________________________________________________________________________________
activation_72 (Activation)      (None, 16, 16, 820)  0           dense_1_4_bn[0][0]               
__________________________________________________________________________________________________
dense_1_4_bottleneck_conv2D (Co (None, 16, 16, 160)  131200      activation_72[0][0]              
__________________________________________________________________________________________________
dense_1_4_bottleneck_bn (BatchN (None, 16, 16, 160)  640         dense_1_4_bottleneck_conv2D[0][0]
__________________________________________________________________________________________________
activation_73 (Activation)      (None, 16, 16, 160)  0           dense_1_4_bottleneck_bn[0][0]    
__________________________________________________________________________________________________
dense_1_4_conv2D (Conv2D)       (None, 16, 16, 40)   57600       activation_73[0][0]              
__________________________________________________________________________________________________
concatenate_36 (Concatenate)    (None, 16, 16, 860)  0           concatenate_35[0][0]             
                                                                 dense_1_4_conv2D[0][0]           
__________________________________________________________________________________________________
dense_1_5_bn (BatchNormalizatio (None, 16, 16, 860)  3440        concatenate_36[0][0]             
__________________________________________________________________________________________________
activation_74 (Activation)      (None, 16, 16, 860)  0           dense_1_5_bn[0][0]               
__________________________________________________________________________________________________
dense_1_5_bottleneck_conv2D (Co (None, 16, 16, 160)  137600      activation_74[0][0]              
__________________________________________________________________________________________________
dense_1_5_bottleneck_bn (BatchN (None, 16, 16, 160)  640         dense_1_5_bottleneck_conv2D[0][0]
__________________________________________________________________________________________________
activation_75 (Activation)      (None, 16, 16, 160)  0           dense_1_5_bottleneck_bn[0][0]    
__________________________________________________________________________________________________
dense_1_5_conv2D (Conv2D)       (None, 16, 16, 40)   57600       activation_75[0][0]              
__________________________________________________________________________________________________
concatenate_37 (Concatenate)    (None, 16, 16, 900)  0           concatenate_36[0][0]             
                                                                 dense_1_5_conv2D[0][0]           
__________________________________________________________________________________________________
dense_1_6_bn (BatchNormalizatio (None, 16, 16, 900)  3600        concatenate_37[0][0]             
__________________________________________________________________________________________________
activation_76 (Activation)      (None, 16, 16, 900)  0           dense_1_6_bn[0][0]               
__________________________________________________________________________________________________
dense_1_6_bottleneck_conv2D (Co (None, 16, 16, 160)  144000      activation_76[0][0]              
__________________________________________________________________________________________________
dense_1_6_bottleneck_bn (BatchN (None, 16, 16, 160)  640         dense_1_6_bottleneck_conv2D[0][0]
__________________________________________________________________________________________________
activation_77 (Activation)      (None, 16, 16, 160)  0           dense_1_6_bottleneck_bn[0][0]    
__________________________________________________________________________________________________
dense_1_6_conv2D (Conv2D)       (None, 16, 16, 40)   57600       activation_77[0][0]              
__________________________________________________________________________________________________
concatenate_38 (Concatenate)    (None, 16, 16, 940)  0           concatenate_37[0][0]             
                                                                 dense_1_6_conv2D[0][0]           
__________________________________________________________________________________________________
dense_1_7_bn (BatchNormalizatio (None, 16, 16, 940)  3760        concatenate_38[0][0]             
__________________________________________________________________________________________________
activation_78 (Activation)      (None, 16, 16, 940)  0           dense_1_7_bn[0][0]               
__________________________________________________________________________________________________
dense_1_7_bottleneck_conv2D (Co (None, 16, 16, 160)  150400      activation_78[0][0]              
__________________________________________________________________________________________________
dense_1_7_bottleneck_bn (BatchN (None, 16, 16, 160)  640         dense_1_7_bottleneck_conv2D[0][0]
__________________________________________________________________________________________________
activation_79 (Activation)      (None, 16, 16, 160)  0           dense_1_7_bottleneck_bn[0][0]    
__________________________________________________________________________________________________
dense_1_7_conv2D (Conv2D)       (None, 16, 16, 40)   57600       activation_79[0][0]              
__________________________________________________________________________________________________
concatenate_39 (Concatenate)    (None, 16, 16, 980)  0           concatenate_38[0][0]             
                                                                 dense_1_7_conv2D[0][0]           
__________________________________________________________________________________________________
dense_1_8_bn (BatchNormalizatio (None, 16, 16, 980)  3920        concatenate_39[0][0]             
__________________________________________________________________________________________________
activation_80 (Activation)      (None, 16, 16, 980)  0           dense_1_8_bn[0][0]               
__________________________________________________________________________________________________
dense_1_8_bottleneck_conv2D (Co (None, 16, 16, 160)  156800      activation_80[0][0]              
__________________________________________________________________________________________________
dense_1_8_bottleneck_bn (BatchN (None, 16, 16, 160)  640         dense_1_8_bottleneck_conv2D[0][0]
__________________________________________________________________________________________________
activation_81 (Activation)      (None, 16, 16, 160)  0           dense_1_8_bottleneck_bn[0][0]    
__________________________________________________________________________________________________
dense_1_8_conv2D (Conv2D)       (None, 16, 16, 40)   57600       activation_81[0][0]              
__________________________________________________________________________________________________
concatenate_40 (Concatenate)    (None, 16, 16, 1020) 0           concatenate_39[0][0]             
                                                                 dense_1_8_conv2D[0][0]           
__________________________________________________________________________________________________
dense_1_9_bn (BatchNormalizatio (None, 16, 16, 1020) 4080        concatenate_40[0][0]             
__________________________________________________________________________________________________
activation_82 (Activation)      (None, 16, 16, 1020) 0           dense_1_9_bn[0][0]               
__________________________________________________________________________________________________
dense_1_9_bottleneck_conv2D (Co (None, 16, 16, 160)  163200      activation_82[0][0]              
__________________________________________________________________________________________________
dense_1_9_bottleneck_bn (BatchN (None, 16, 16, 160)  640         dense_1_9_bottleneck_conv2D[0][0]
__________________________________________________________________________________________________
activation_83 (Activation)      (None, 16, 16, 160)  0           dense_1_9_bottleneck_bn[0][0]    
__________________________________________________________________________________________________
dense_1_9_conv2D (Conv2D)       (None, 16, 16, 40)   57600       activation_83[0][0]              
__________________________________________________________________________________________________
concatenate_41 (Concatenate)    (None, 16, 16, 1060) 0           concatenate_40[0][0]             
                                                                 dense_1_9_conv2D[0][0]           
__________________________________________________________________________________________________
dense_1_10_bn (BatchNormalizati (None, 16, 16, 1060) 4240        concatenate_41[0][0]             
__________________________________________________________________________________________________
activation_84 (Activation)      (None, 16, 16, 1060) 0           dense_1_10_bn[0][0]              
__________________________________________________________________________________________________
dense_1_10_bottleneck_conv2D (C (None, 16, 16, 160)  169600      activation_84[0][0]              
__________________________________________________________________________________________________
dense_1_10_bottleneck_bn (Batch (None, 16, 16, 160)  640         dense_1_10_bottleneck_conv2D[0][0
__________________________________________________________________________________________________
activation_85 (Activation)      (None, 16, 16, 160)  0           dense_1_10_bottleneck_bn[0][0]   
__________________________________________________________________________________________________
dense_1_10_conv2D (Conv2D)      (None, 16, 16, 40)   57600       activation_85[0][0]              
__________________________________________________________________________________________________
concatenate_42 (Concatenate)    (None, 16, 16, 1100) 0           concatenate_41[0][0]             
                                                                 dense_1_10_conv2D[0][0]          
__________________________________________________________________________________________________
dense_1_11_bn (BatchNormalizati (None, 16, 16, 1100) 4400        concatenate_42[0][0]             
__________________________________________________________________________________________________
activation_86 (Activation)      (None, 16, 16, 1100) 0           dense_1_11_bn[0][0]              
__________________________________________________________________________________________________
dense_1_11_bottleneck_conv2D (C (None, 16, 16, 160)  176000      activation_86[0][0]              
__________________________________________________________________________________________________
dense_1_11_bottleneck_bn (Batch (None, 16, 16, 160)  640         dense_1_11_bottleneck_conv2D[0][0
__________________________________________________________________________________________________
activation_87 (Activation)      (None, 16, 16, 160)  0           dense_1_11_bottleneck_bn[0][0]   
__________________________________________________________________________________________________
dense_1_11_conv2D (Conv2D)      (None, 16, 16, 40)   57600       activation_87[0][0]              
__________________________________________________________________________________________________
concatenate_43 (Concatenate)    (None, 16, 16, 1140) 0           concatenate_42[0][0]             
                                                                 dense_1_11_conv2D[0][0]          
__________________________________________________________________________________________________
dense_1_12_bn (BatchNormalizati (None, 16, 16, 1140) 4560        concatenate_43[0][0]             
__________________________________________________________________________________________________
activation_88 (Activation)      (None, 16, 16, 1140) 0           dense_1_12_bn[0][0]              
__________________________________________________________________________________________________
dense_1_12_bottleneck_conv2D (C (None, 16, 16, 160)  182400      activation_88[0][0]              
__________________________________________________________________________________________________
dense_1_12_bottleneck_bn (Batch (None, 16, 16, 160)  640         dense_1_12_bottleneck_conv2D[0][0
__________________________________________________________________________________________________
activation_89 (Activation)      (None, 16, 16, 160)  0           dense_1_12_bottleneck_bn[0][0]   
__________________________________________________________________________________________________
dense_1_12_conv2D (Conv2D)      (None, 16, 16, 40)   57600       activation_89[0][0]              
__________________________________________________________________________________________________
concatenate_44 (Concatenate)    (None, 16, 16, 1180) 0           concatenate_43[0][0]             
                                                                 dense_1_12_conv2D[0][0]          
__________________________________________________________________________________________________
dense_1_13_bn (BatchNormalizati (None, 16, 16, 1180) 4720        concatenate_44[0][0]             
__________________________________________________________________________________________________
activation_90 (Activation)      (None, 16, 16, 1180) 0           dense_1_13_bn[0][0]              
__________________________________________________________________________________________________
dense_1_13_bottleneck_conv2D (C (None, 16, 16, 160)  188800      activation_90[0][0]              
__________________________________________________________________________________________________
dense_1_13_bottleneck_bn (Batch (None, 16, 16, 160)  640         dense_1_13_bottleneck_conv2D[0][0
__________________________________________________________________________________________________
activation_91 (Activation)      (None, 16, 16, 160)  0           dense_1_13_bottleneck_bn[0][0]   
__________________________________________________________________________________________________
dense_1_13_conv2D (Conv2D)      (None, 16, 16, 40)   57600       activation_91[0][0]              
__________________________________________________________________________________________________
concatenate_45 (Concatenate)    (None, 16, 16, 1220) 0           concatenate_44[0][0]             
                                                                 dense_1_13_conv2D[0][0]          
__________________________________________________________________________________________________
dense_1_14_bn (BatchNormalizati (None, 16, 16, 1220) 4880        concatenate_45[0][0]             
__________________________________________________________________________________________________
activation_92 (Activation)      (None, 16, 16, 1220) 0           dense_1_14_bn[0][0]              
__________________________________________________________________________________________________
dense_1_14_bottleneck_conv2D (C (None, 16, 16, 160)  195200      activation_92[0][0]              
__________________________________________________________________________________________________
dense_1_14_bottleneck_bn (Batch (None, 16, 16, 160)  640         dense_1_14_bottleneck_conv2D[0][0
__________________________________________________________________________________________________
activation_93 (Activation)      (None, 16, 16, 160)  0           dense_1_14_bottleneck_bn[0][0]   
__________________________________________________________________________________________________
dense_1_14_conv2D (Conv2D)      (None, 16, 16, 40)   57600       activation_93[0][0]              
__________________________________________________________________________________________________
concatenate_46 (Concatenate)    (None, 16, 16, 1260) 0           concatenate_45[0][0]             
                                                                 dense_1_14_conv2D[0][0]          
__________________________________________________________________________________________________
dense_1_15_bn (BatchNormalizati (None, 16, 16, 1260) 5040        concatenate_46[0][0]             
__________________________________________________________________________________________________
activation_94 (Activation)      (None, 16, 16, 1260) 0           dense_1_15_bn[0][0]              
__________________________________________________________________________________________________
dense_1_15_bottleneck_conv2D (C (None, 16, 16, 160)  201600      activation_94[0][0]              
__________________________________________________________________________________________________
dense_1_15_bottleneck_bn (Batch (None, 16, 16, 160)  640         dense_1_15_bottleneck_conv2D[0][0
__________________________________________________________________________________________________
activation_95 (Activation)      (None, 16, 16, 160)  0           dense_1_15_bottleneck_bn[0][0]   
__________________________________________________________________________________________________
dense_1_15_conv2D (Conv2D)      (None, 16, 16, 40)   57600       activation_95[0][0]              
__________________________________________________________________________________________________
concatenate_47 (Concatenate)    (None, 16, 16, 1300) 0           concatenate_46[0][0]             
                                                                 dense_1_15_conv2D[0][0]          
__________________________________________________________________________________________________
dense_1_16_bn (BatchNormalizati (None, 16, 16, 1300) 5200        concatenate_47[0][0]             
__________________________________________________________________________________________________
activation_96 (Activation)      (None, 16, 16, 1300) 0           dense_1_16_bn[0][0]              
__________________________________________________________________________________________________
dense_1_16_bottleneck_conv2D (C (None, 16, 16, 160)  208000      activation_96[0][0]              
__________________________________________________________________________________________________
dense_1_16_bottleneck_bn (Batch (None, 16, 16, 160)  640         dense_1_16_bottleneck_conv2D[0][0
__________________________________________________________________________________________________
activation_97 (Activation)      (None, 16, 16, 160)  0           dense_1_16_bottleneck_bn[0][0]   
__________________________________________________________________________________________________
dense_1_16_conv2D (Conv2D)      (None, 16, 16, 40)   57600       activation_97[0][0]              
__________________________________________________________________________________________________
concatenate_48 (Concatenate)    (None, 16, 16, 1340) 0           concatenate_47[0][0]             
                                                                 dense_1_16_conv2D[0][0]          
__________________________________________________________________________________________________
dense_1_17_bn (BatchNormalizati (None, 16, 16, 1340) 5360        concatenate_48[0][0]             
__________________________________________________________________________________________________
activation_98 (Activation)      (None, 16, 16, 1340) 0           dense_1_17_bn[0][0]              
__________________________________________________________________________________________________
dense_1_17_bottleneck_conv2D (C (None, 16, 16, 160)  214400      activation_98[0][0]              
__________________________________________________________________________________________________
dense_1_17_bottleneck_bn (Batch (None, 16, 16, 160)  640         dense_1_17_bottleneck_conv2D[0][0
__________________________________________________________________________________________________
activation_99 (Activation)      (None, 16, 16, 160)  0           dense_1_17_bottleneck_bn[0][0]   
__________________________________________________________________________________________________
dense_1_17_conv2D (Conv2D)      (None, 16, 16, 40)   57600       activation_99[0][0]              
__________________________________________________________________________________________________
concatenate_49 (Concatenate)    (None, 16, 16, 1380) 0           concatenate_48[0][0]             
                                                                 dense_1_17_conv2D[0][0]          
__________________________________________________________________________________________________
dense_1_18_bn (BatchNormalizati (None, 16, 16, 1380) 5520        concatenate_49[0][0]             
__________________________________________________________________________________________________
activation_100 (Activation)     (None, 16, 16, 1380) 0           dense_1_18_bn[0][0]              
__________________________________________________________________________________________________
dense_1_18_bottleneck_conv2D (C (None, 16, 16, 160)  220800      activation_100[0][0]             
__________________________________________________________________________________________________
dense_1_18_bottleneck_bn (Batch (None, 16, 16, 160)  640         dense_1_18_bottleneck_conv2D[0][0
__________________________________________________________________________________________________
activation_101 (Activation)     (None, 16, 16, 160)  0           dense_1_18_bottleneck_bn[0][0]   
__________________________________________________________________________________________________
dense_1_18_conv2D (Conv2D)      (None, 16, 16, 40)   57600       activation_101[0][0]             
__________________________________________________________________________________________________
concatenate_50 (Concatenate)    (None, 16, 16, 1420) 0           concatenate_49[0][0]             
                                                                 dense_1_18_conv2D[0][0]          
__________________________________________________________________________________________________
dense_1_19_bn (BatchNormalizati (None, 16, 16, 1420) 5680        concatenate_50[0][0]             
__________________________________________________________________________________________________
activation_102 (Activation)     (None, 16, 16, 1420) 0           dense_1_19_bn[0][0]              
__________________________________________________________________________________________________
dense_1_19_bottleneck_conv2D (C (None, 16, 16, 160)  227200      activation_102[0][0]             
__________________________________________________________________________________________________
dense_1_19_bottleneck_bn (Batch (None, 16, 16, 160)  640         dense_1_19_bottleneck_conv2D[0][0
__________________________________________________________________________________________________
activation_103 (Activation)     (None, 16, 16, 160)  0           dense_1_19_bottleneck_bn[0][0]   
__________________________________________________________________________________________________
dense_1_19_conv2D (Conv2D)      (None, 16, 16, 40)   57600       activation_103[0][0]             
__________________________________________________________________________________________________
concatenate_51 (Concatenate)    (None, 16, 16, 1460) 0           concatenate_50[0][0]             
                                                                 dense_1_19_conv2D[0][0]          
__________________________________________________________________________________________________
dense_1_20_bn (BatchNormalizati (None, 16, 16, 1460) 5840        concatenate_51[0][0]             
__________________________________________________________________________________________________
activation_104 (Activation)     (None, 16, 16, 1460) 0           dense_1_20_bn[0][0]              
__________________________________________________________________________________________________
dense_1_20_bottleneck_conv2D (C (None, 16, 16, 160)  233600      activation_104[0][0]             
__________________________________________________________________________________________________
dense_1_20_bottleneck_bn (Batch (None, 16, 16, 160)  640         dense_1_20_bottleneck_conv2D[0][0
__________________________________________________________________________________________________
activation_105 (Activation)     (None, 16, 16, 160)  0           dense_1_20_bottleneck_bn[0][0]   
__________________________________________________________________________________________________
dense_1_20_conv2D (Conv2D)      (None, 16, 16, 40)   57600       activation_105[0][0]             
__________________________________________________________________________________________________
concatenate_52 (Concatenate)    (None, 16, 16, 1500) 0           concatenate_51[0][0]             
                                                                 dense_1_20_conv2D[0][0]          
__________________________________________________________________________________________________
dense_1_21_bn (BatchNormalizati (None, 16, 16, 1500) 6000        concatenate_52[0][0]             
__________________________________________________________________________________________________
activation_106 (Activation)     (None, 16, 16, 1500) 0           dense_1_21_bn[0][0]              
__________________________________________________________________________________________________
dense_1_21_bottleneck_conv2D (C (None, 16, 16, 160)  240000      activation_106[0][0]             
__________________________________________________________________________________________________
dense_1_21_bottleneck_bn (Batch (None, 16, 16, 160)  640         dense_1_21_bottleneck_conv2D[0][0
__________________________________________________________________________________________________
activation_107 (Activation)     (None, 16, 16, 160)  0           dense_1_21_bottleneck_bn[0][0]   
__________________________________________________________________________________________________
dense_1_21_conv2D (Conv2D)      (None, 16, 16, 40)   57600       activation_107[0][0]             
__________________________________________________________________________________________________
concatenate_53 (Concatenate)    (None, 16, 16, 1540) 0           concatenate_52[0][0]             
                                                                 dense_1_21_conv2D[0][0]          
__________________________________________________________________________________________________
dense_1_22_bn (BatchNormalizati (None, 16, 16, 1540) 6160        concatenate_53[0][0]             
__________________________________________________________________________________________________
activation_108 (Activation)     (None, 16, 16, 1540) 0           dense_1_22_bn[0][0]              
__________________________________________________________________________________________________
dense_1_22_bottleneck_conv2D (C (None, 16, 16, 160)  246400      activation_108[0][0]             
__________________________________________________________________________________________________
dense_1_22_bottleneck_bn (Batch (None, 16, 16, 160)  640         dense_1_22_bottleneck_conv2D[0][0
__________________________________________________________________________________________________
activation_109 (Activation)     (None, 16, 16, 160)  0           dense_1_22_bottleneck_bn[0][0]   
__________________________________________________________________________________________________
dense_1_22_conv2D (Conv2D)      (None, 16, 16, 40)   57600       activation_109[0][0]             
__________________________________________________________________________________________________
concatenate_54 (Concatenate)    (None, 16, 16, 1580) 0           concatenate_53[0][0]             
                                                                 dense_1_22_conv2D[0][0]          
__________________________________________________________________________________________________
dense_1_23_bn (BatchNormalizati (None, 16, 16, 1580) 6320        concatenate_54[0][0]             
__________________________________________________________________________________________________
activation_110 (Activation)     (None, 16, 16, 1580) 0           dense_1_23_bn[0][0]              
__________________________________________________________________________________________________
dense_1_23_bottleneck_conv2D (C (None, 16, 16, 160)  252800      activation_110[0][0]             
__________________________________________________________________________________________________
dense_1_23_bottleneck_bn (Batch (None, 16, 16, 160)  640         dense_1_23_bottleneck_conv2D[0][0
__________________________________________________________________________________________________
activation_111 (Activation)     (None, 16, 16, 160)  0           dense_1_23_bottleneck_bn[0][0]   
__________________________________________________________________________________________________
dense_1_23_conv2D (Conv2D)      (None, 16, 16, 40)   57600       activation_111[0][0]             
__________________________________________________________________________________________________
concatenate_55 (Concatenate)    (None, 16, 16, 1620) 0           concatenate_54[0][0]             
                                                                 dense_1_23_conv2D[0][0]          
__________________________________________________________________________________________________
dense_1_24_bn (BatchNormalizati (None, 16, 16, 1620) 6480        concatenate_55[0][0]             
__________________________________________________________________________________________________
activation_112 (Activation)     (None, 16, 16, 1620) 0           dense_1_24_bn[0][0]              
__________________________________________________________________________________________________
dense_1_24_bottleneck_conv2D (C (None, 16, 16, 160)  259200      activation_112[0][0]             
__________________________________________________________________________________________________
dense_1_24_bottleneck_bn (Batch (None, 16, 16, 160)  640         dense_1_24_bottleneck_conv2D[0][0
__________________________________________________________________________________________________
activation_113 (Activation)     (None, 16, 16, 160)  0           dense_1_24_bottleneck_bn[0][0]   
__________________________________________________________________________________________________
dense_1_24_conv2D (Conv2D)      (None, 16, 16, 40)   57600       activation_113[0][0]             
__________________________________________________________________________________________________
concatenate_56 (Concatenate)    (None, 16, 16, 1660) 0           concatenate_55[0][0]             
                                                                 dense_1_24_conv2D[0][0]          
__________________________________________________________________________________________________
dense_1_25_bn (BatchNormalizati (None, 16, 16, 1660) 6640        concatenate_56[0][0]             
__________________________________________________________________________________________________
activation_114 (Activation)     (None, 16, 16, 1660) 0           dense_1_25_bn[0][0]              
__________________________________________________________________________________________________
dense_1_25_bottleneck_conv2D (C (None, 16, 16, 160)  265600      activation_114[0][0]             
__________________________________________________________________________________________________
dense_1_25_bottleneck_bn (Batch (None, 16, 16, 160)  640         dense_1_25_bottleneck_conv2D[0][0
__________________________________________________________________________________________________
activation_115 (Activation)     (None, 16, 16, 160)  0           dense_1_25_bottleneck_bn[0][0]   
__________________________________________________________________________________________________
dense_1_25_conv2D (Conv2D)      (None, 16, 16, 40)   57600       activation_115[0][0]             
__________________________________________________________________________________________________
concatenate_57 (Concatenate)    (None, 16, 16, 1700) 0           concatenate_56[0][0]             
                                                                 dense_1_25_conv2D[0][0]          
__________________________________________________________________________________________________
dense_1_26_bn (BatchNormalizati (None, 16, 16, 1700) 6800        concatenate_57[0][0]             
__________________________________________________________________________________________________
activation_116 (Activation)     (None, 16, 16, 1700) 0           dense_1_26_bn[0][0]              
__________________________________________________________________________________________________
dense_1_26_bottleneck_conv2D (C (None, 16, 16, 160)  272000      activation_116[0][0]             
__________________________________________________________________________________________________
dense_1_26_bottleneck_bn (Batch (None, 16, 16, 160)  640         dense_1_26_bottleneck_conv2D[0][0
__________________________________________________________________________________________________
activation_117 (Activation)     (None, 16, 16, 160)  0           dense_1_26_bottleneck_bn[0][0]   
__________________________________________________________________________________________________
dense_1_26_conv2D (Conv2D)      (None, 16, 16, 40)   57600       activation_117[0][0]             
__________________________________________________________________________________________________
concatenate_58 (Concatenate)    (None, 16, 16, 1740) 0           concatenate_57[0][0]             
                                                                 dense_1_26_conv2D[0][0]          
__________________________________________________________________________________________________
dense_1_27_bn (BatchNormalizati (None, 16, 16, 1740) 6960        concatenate_58[0][0]             
__________________________________________________________________________________________________
activation_118 (Activation)     (None, 16, 16, 1740) 0           dense_1_27_bn[0][0]              
__________________________________________________________________________________________________
dense_1_27_bottleneck_conv2D (C (None, 16, 16, 160)  278400      activation_118[0][0]             
__________________________________________________________________________________________________
dense_1_27_bottleneck_bn (Batch (None, 16, 16, 160)  640         dense_1_27_bottleneck_conv2D[0][0
__________________________________________________________________________________________________
activation_119 (Activation)     (None, 16, 16, 160)  0           dense_1_27_bottleneck_bn[0][0]   
__________________________________________________________________________________________________
dense_1_27_conv2D (Conv2D)      (None, 16, 16, 40)   57600       activation_119[0][0]             
__________________________________________________________________________________________________
concatenate_59 (Concatenate)    (None, 16, 16, 1780) 0           concatenate_58[0][0]             
                                                                 dense_1_27_conv2D[0][0]          
__________________________________________________________________________________________________
dense_1_28_bn (BatchNormalizati (None, 16, 16, 1780) 7120        concatenate_59[0][0]             
__________________________________________________________________________________________________
activation_120 (Activation)     (None, 16, 16, 1780) 0           dense_1_28_bn[0][0]              
__________________________________________________________________________________________________
dense_1_28_bottleneck_conv2D (C (None, 16, 16, 160)  284800      activation_120[0][0]             
__________________________________________________________________________________________________
dense_1_28_bottleneck_bn (Batch (None, 16, 16, 160)  640         dense_1_28_bottleneck_conv2D[0][0
__________________________________________________________________________________________________
activation_121 (Activation)     (None, 16, 16, 160)  0           dense_1_28_bottleneck_bn[0][0]   
__________________________________________________________________________________________________
dense_1_28_conv2D (Conv2D)      (None, 16, 16, 40)   57600       activation_121[0][0]             
__________________________________________________________________________________________________
concatenate_60 (Concatenate)    (None, 16, 16, 1820) 0           concatenate_59[0][0]             
                                                                 dense_1_28_conv2D[0][0]          
__________________________________________________________________________________________________
dense_1_29_bn (BatchNormalizati (None, 16, 16, 1820) 7280        concatenate_60[0][0]             
__________________________________________________________________________________________________
activation_122 (Activation)     (None, 16, 16, 1820) 0           dense_1_29_bn[0][0]              
__________________________________________________________________________________________________
dense_1_29_bottleneck_conv2D (C (None, 16, 16, 160)  291200      activation_122[0][0]             
__________________________________________________________________________________________________
dense_1_29_bottleneck_bn (Batch (None, 16, 16, 160)  640         dense_1_29_bottleneck_conv2D[0][0
__________________________________________________________________________________________________
activation_123 (Activation)     (None, 16, 16, 160)  0           dense_1_29_bottleneck_bn[0][0]   
__________________________________________________________________________________________________
dense_1_29_conv2D (Conv2D)      (None, 16, 16, 40)   57600       activation_123[0][0]             
__________________________________________________________________________________________________
concatenate_61 (Concatenate)    (None, 16, 16, 1860) 0           concatenate_60[0][0]             
                                                                 dense_1_29_conv2D[0][0]          
__________________________________________________________________________________________________
dense_1_30_bn (BatchNormalizati (None, 16, 16, 1860) 7440        concatenate_61[0][0]             
__________________________________________________________________________________________________
activation_124 (Activation)     (None, 16, 16, 1860) 0           dense_1_30_bn[0][0]              
__________________________________________________________________________________________________
dense_1_30_bottleneck_conv2D (C (None, 16, 16, 160)  297600      activation_124[0][0]             
__________________________________________________________________________________________________
dense_1_30_bottleneck_bn (Batch (None, 16, 16, 160)  640         dense_1_30_bottleneck_conv2D[0][0
__________________________________________________________________________________________________
activation_125 (Activation)     (None, 16, 16, 160)  0           dense_1_30_bottleneck_bn[0][0]   
__________________________________________________________________________________________________
dense_1_30_conv2D (Conv2D)      (None, 16, 16, 40)   57600       activation_125[0][0]             
__________________________________________________________________________________________________
concatenate_62 (Concatenate)    (None, 16, 16, 1900) 0           concatenate_61[0][0]             
                                                                 dense_1_30_conv2D[0][0]          
__________________________________________________________________________________________________
tr_1_bn (BatchNormalization)    (None, 16, 16, 1900) 7600        concatenate_62[0][0]             
__________________________________________________________________________________________________
activation_126 (Activation)     (None, 16, 16, 1900) 0           tr_1_bn[0][0]                    
__________________________________________________________________________________________________
tr_1_conv2D (Conv2D)            (None, 16, 16, 950)  1805000     activation_126[0][0]             
__________________________________________________________________________________________________
average_pooling2d_2 (AveragePoo (None, 8, 8, 950)    0           tr_1_conv2D[0][0]                
__________________________________________________________________________________________________
dense_2_0_bn (BatchNormalizatio (None, 8, 8, 950)    3800        average_pooling2d_2[0][0]        
__________________________________________________________________________________________________
activation_127 (Activation)     (None, 8, 8, 950)    0           dense_2_0_bn[0][0]               
__________________________________________________________________________________________________
dense_2_0_bottleneck_conv2D (Co (None, 8, 8, 160)    152000      activation_127[0][0]             
__________________________________________________________________________________________________
dense_2_0_bottleneck_bn (BatchN (None, 8, 8, 160)    640         dense_2_0_bottleneck_conv2D[0][0]
__________________________________________________________________________________________________
activation_128 (Activation)     (None, 8, 8, 160)    0           dense_2_0_bottleneck_bn[0][0]    
__________________________________________________________________________________________________
dense_2_0_conv2D (Conv2D)       (None, 8, 8, 40)     57600       activation_128[0][0]             
__________________________________________________________________________________________________
concatenate_63 (Concatenate)    (None, 8, 8, 990)    0           average_pooling2d_2[0][0]        
                                                                 dense_2_0_conv2D[0][0]           
__________________________________________________________________________________________________
dense_2_1_bn (BatchNormalizatio (None, 8, 8, 990)    3960        concatenate_63[0][0]             
__________________________________________________________________________________________________
activation_129 (Activation)     (None, 8, 8, 990)    0           dense_2_1_bn[0][0]               
__________________________________________________________________________________________________
dense_2_1_bottleneck_conv2D (Co (None, 8, 8, 160)    158400      activation_129[0][0]             
__________________________________________________________________________________________________
dense_2_1_bottleneck_bn (BatchN (None, 8, 8, 160)    640         dense_2_1_bottleneck_conv2D[0][0]
__________________________________________________________________________________________________
activation_130 (Activation)     (None, 8, 8, 160)    0           dense_2_1_bottleneck_bn[0][0]    
__________________________________________________________________________________________________
dense_2_1_conv2D (Conv2D)       (None, 8, 8, 40)     57600       activation_130[0][0]             
__________________________________________________________________________________________________
concatenate_64 (Concatenate)    (None, 8, 8, 1030)   0           concatenate_63[0][0]             
                                                                 dense_2_1_conv2D[0][0]           
__________________________________________________________________________________________________
dense_2_2_bn (BatchNormalizatio (None, 8, 8, 1030)   4120        concatenate_64[0][0]             
__________________________________________________________________________________________________
activation_131 (Activation)     (None, 8, 8, 1030)   0           dense_2_2_bn[0][0]               
__________________________________________________________________________________________________
dense_2_2_bottleneck_conv2D (Co (None, 8, 8, 160)    164800      activation_131[0][0]             
__________________________________________________________________________________________________
dense_2_2_bottleneck_bn (BatchN (None, 8, 8, 160)    640         dense_2_2_bottleneck_conv2D[0][0]
__________________________________________________________________________________________________
activation_132 (Activation)     (None, 8, 8, 160)    0           dense_2_2_bottleneck_bn[0][0]    
__________________________________________________________________________________________________
dense_2_2_conv2D (Conv2D)       (None, 8, 8, 40)     57600       activation_132[0][0]             
__________________________________________________________________________________________________
concatenate_65 (Concatenate)    (None, 8, 8, 1070)   0           concatenate_64[0][0]             
                                                                 dense_2_2_conv2D[0][0]           
__________________________________________________________________________________________________
dense_2_3_bn (BatchNormalizatio (None, 8, 8, 1070)   4280        concatenate_65[0][0]             
__________________________________________________________________________________________________
activation_133 (Activation)     (None, 8, 8, 1070)   0           dense_2_3_bn[0][0]               
__________________________________________________________________________________________________
dense_2_3_bottleneck_conv2D (Co (None, 8, 8, 160)    171200      activation_133[0][0]             
__________________________________________________________________________________________________
dense_2_3_bottleneck_bn (BatchN (None, 8, 8, 160)    640         dense_2_3_bottleneck_conv2D[0][0]
__________________________________________________________________________________________________
activation_134 (Activation)     (None, 8, 8, 160)    0           dense_2_3_bottleneck_bn[0][0]    
__________________________________________________________________________________________________
dense_2_3_conv2D (Conv2D)       (None, 8, 8, 40)     57600       activation_134[0][0]             
__________________________________________________________________________________________________
concatenate_66 (Concatenate)    (None, 8, 8, 1110)   0           concatenate_65[0][0]             
                                                                 dense_2_3_conv2D[0][0]           
__________________________________________________________________________________________________
dense_2_4_bn (BatchNormalizatio (None, 8, 8, 1110)   4440        concatenate_66[0][0]             
__________________________________________________________________________________________________
activation_135 (Activation)     (None, 8, 8, 1110)   0           dense_2_4_bn[0][0]               
__________________________________________________________________________________________________
dense_2_4_bottleneck_conv2D (Co (None, 8, 8, 160)    177600      activation_135[0][0]             
__________________________________________________________________________________________________
dense_2_4_bottleneck_bn (BatchN (None, 8, 8, 160)    640         dense_2_4_bottleneck_conv2D[0][0]
__________________________________________________________________________________________________
activation_136 (Activation)     (None, 8, 8, 160)    0           dense_2_4_bottleneck_bn[0][0]    
__________________________________________________________________________________________________
dense_2_4_conv2D (Conv2D)       (None, 8, 8, 40)     57600       activation_136[0][0]             
__________________________________________________________________________________________________
concatenate_67 (Concatenate)    (None, 8, 8, 1150)   0           concatenate_66[0][0]             
                                                                 dense_2_4_conv2D[0][0]           
__________________________________________________________________________________________________
dense_2_5_bn (BatchNormalizatio (None, 8, 8, 1150)   4600        concatenate_67[0][0]             
__________________________________________________________________________________________________
activation_137 (Activation)     (None, 8, 8, 1150)   0           dense_2_5_bn[0][0]               
__________________________________________________________________________________________________
dense_2_5_bottleneck_conv2D (Co (None, 8, 8, 160)    184000      activation_137[0][0]             
__________________________________________________________________________________________________
dense_2_5_bottleneck_bn (BatchN (None, 8, 8, 160)    640         dense_2_5_bottleneck_conv2D[0][0]
__________________________________________________________________________________________________
activation_138 (Activation)     (None, 8, 8, 160)    0           dense_2_5_bottleneck_bn[0][0]    
__________________________________________________________________________________________________
dense_2_5_conv2D (Conv2D)       (None, 8, 8, 40)     57600       activation_138[0][0]             
__________________________________________________________________________________________________
concatenate_68 (Concatenate)    (None, 8, 8, 1190)   0           concatenate_67[0][0]             
                                                                 dense_2_5_conv2D[0][0]           
__________________________________________________________________________________________________
dense_2_6_bn (BatchNormalizatio (None, 8, 8, 1190)   4760        concatenate_68[0][0]             
__________________________________________________________________________________________________
activation_139 (Activation)     (None, 8, 8, 1190)   0           dense_2_6_bn[0][0]               
__________________________________________________________________________________________________
dense_2_6_bottleneck_conv2D (Co (None, 8, 8, 160)    190400      activation_139[0][0]             
__________________________________________________________________________________________________
dense_2_6_bottleneck_bn (BatchN (None, 8, 8, 160)    640         dense_2_6_bottleneck_conv2D[0][0]
__________________________________________________________________________________________________
activation_140 (Activation)     (None, 8, 8, 160)    0           dense_2_6_bottleneck_bn[0][0]    
__________________________________________________________________________________________________
dense_2_6_conv2D (Conv2D)       (None, 8, 8, 40)     57600       activation_140[0][0]             
__________________________________________________________________________________________________
concatenate_69 (Concatenate)    (None, 8, 8, 1230)   0           concatenate_68[0][0]             
                                                                 dense_2_6_conv2D[0][0]           
__________________________________________________________________________________________________
dense_2_7_bn (BatchNormalizatio (None, 8, 8, 1230)   4920        concatenate_69[0][0]             
__________________________________________________________________________________________________
activation_141 (Activation)     (None, 8, 8, 1230)   0           dense_2_7_bn[0][0]               
__________________________________________________________________________________________________
dense_2_7_bottleneck_conv2D (Co (None, 8, 8, 160)    196800      activation_141[0][0]             
__________________________________________________________________________________________________
dense_2_7_bottleneck_bn (BatchN (None, 8, 8, 160)    640         dense_2_7_bottleneck_conv2D[0][0]
__________________________________________________________________________________________________
activation_142 (Activation)     (None, 8, 8, 160)    0           dense_2_7_bottleneck_bn[0][0]    
__________________________________________________________________________________________________
dense_2_7_conv2D (Conv2D)       (None, 8, 8, 40)     57600       activation_142[0][0]             
__________________________________________________________________________________________________
concatenate_70 (Concatenate)    (None, 8, 8, 1270)   0           concatenate_69[0][0]             
                                                                 dense_2_7_conv2D[0][0]           
__________________________________________________________________________________________________
dense_2_8_bn (BatchNormalizatio (None, 8, 8, 1270)   5080        concatenate_70[0][0]             
__________________________________________________________________________________________________
activation_143 (Activation)     (None, 8, 8, 1270)   0           dense_2_8_bn[0][0]               
__________________________________________________________________________________________________
dense_2_8_bottleneck_conv2D (Co (None, 8, 8, 160)    203200      activation_143[0][0]             
__________________________________________________________________________________________________
dense_2_8_bottleneck_bn (BatchN (None, 8, 8, 160)    640         dense_2_8_bottleneck_conv2D[0][0]
__________________________________________________________________________________________________
activation_144 (Activation)     (None, 8, 8, 160)    0           dense_2_8_bottleneck_bn[0][0]    
__________________________________________________________________________________________________
dense_2_8_conv2D (Conv2D)       (None, 8, 8, 40)     57600       activation_144[0][0]             
__________________________________________________________________________________________________
concatenate_71 (Concatenate)    (None, 8, 8, 1310)   0           concatenate_70[0][0]             
                                                                 dense_2_8_conv2D[0][0]           
__________________________________________________________________________________________________
dense_2_9_bn (BatchNormalizatio (None, 8, 8, 1310)   5240        concatenate_71[0][0]             
__________________________________________________________________________________________________
activation_145 (Activation)     (None, 8, 8, 1310)   0           dense_2_9_bn[0][0]               
__________________________________________________________________________________________________
dense_2_9_bottleneck_conv2D (Co (None, 8, 8, 160)    209600      activation_145[0][0]             
__________________________________________________________________________________________________
dense_2_9_bottleneck_bn (BatchN (None, 8, 8, 160)    640         dense_2_9_bottleneck_conv2D[0][0]
__________________________________________________________________________________________________
activation_146 (Activation)     (None, 8, 8, 160)    0           dense_2_9_bottleneck_bn[0][0]    
__________________________________________________________________________________________________
dense_2_9_conv2D (Conv2D)       (None, 8, 8, 40)     57600       activation_146[0][0]             
__________________________________________________________________________________________________
concatenate_72 (Concatenate)    (None, 8, 8, 1350)   0           concatenate_71[0][0]             
                                                                 dense_2_9_conv2D[0][0]           
__________________________________________________________________________________________________
dense_2_10_bn (BatchNormalizati (None, 8, 8, 1350)   5400        concatenate_72[0][0]             
__________________________________________________________________________________________________
activation_147 (Activation)     (None, 8, 8, 1350)   0           dense_2_10_bn[0][0]              
__________________________________________________________________________________________________
dense_2_10_bottleneck_conv2D (C (None, 8, 8, 160)    216000      activation_147[0][0]             
__________________________________________________________________________________________________
dense_2_10_bottleneck_bn (Batch (None, 8, 8, 160)    640         dense_2_10_bottleneck_conv2D[0][0
__________________________________________________________________________________________________
activation_148 (Activation)     (None, 8, 8, 160)    0           dense_2_10_bottleneck_bn[0][0]   
__________________________________________________________________________________________________
dense_2_10_conv2D (Conv2D)      (None, 8, 8, 40)     57600       activation_148[0][0]             
__________________________________________________________________________________________________
concatenate_73 (Concatenate)    (None, 8, 8, 1390)   0           concatenate_72[0][0]             
                                                                 dense_2_10_conv2D[0][0]          
__________________________________________________________________________________________________
dense_2_11_bn (BatchNormalizati (None, 8, 8, 1390)   5560        concatenate_73[0][0]             
__________________________________________________________________________________________________
activation_149 (Activation)     (None, 8, 8, 1390)   0           dense_2_11_bn[0][0]              
__________________________________________________________________________________________________
dense_2_11_bottleneck_conv2D (C (None, 8, 8, 160)    222400      activation_149[0][0]             
__________________________________________________________________________________________________
dense_2_11_bottleneck_bn (Batch (None, 8, 8, 160)    640         dense_2_11_bottleneck_conv2D[0][0
__________________________________________________________________________________________________
activation_150 (Activation)     (None, 8, 8, 160)    0           dense_2_11_bottleneck_bn[0][0]   
__________________________________________________________________________________________________
dense_2_11_conv2D (Conv2D)      (None, 8, 8, 40)     57600       activation_150[0][0]             
__________________________________________________________________________________________________
concatenate_74 (Concatenate)    (None, 8, 8, 1430)   0           concatenate_73[0][0]             
                                                                 dense_2_11_conv2D[0][0]          
__________________________________________________________________________________________________
dense_2_12_bn (BatchNormalizati (None, 8, 8, 1430)   5720        concatenate_74[0][0]             
__________________________________________________________________________________________________
activation_151 (Activation)     (None, 8, 8, 1430)   0           dense_2_12_bn[0][0]              
__________________________________________________________________________________________________
dense_2_12_bottleneck_conv2D (C (None, 8, 8, 160)    228800      activation_151[0][0]             
__________________________________________________________________________________________________
dense_2_12_bottleneck_bn (Batch (None, 8, 8, 160)    640         dense_2_12_bottleneck_conv2D[0][0
__________________________________________________________________________________________________
activation_152 (Activation)     (None, 8, 8, 160)    0           dense_2_12_bottleneck_bn[0][0]   
__________________________________________________________________________________________________
dense_2_12_conv2D (Conv2D)      (None, 8, 8, 40)     57600       activation_152[0][0]             
__________________________________________________________________________________________________
concatenate_75 (Concatenate)    (None, 8, 8, 1470)   0           concatenate_74[0][0]             
                                                                 dense_2_12_conv2D[0][0]          
__________________________________________________________________________________________________
dense_2_13_bn (BatchNormalizati (None, 8, 8, 1470)   5880        concatenate_75[0][0]             
__________________________________________________________________________________________________
activation_153 (Activation)     (None, 8, 8, 1470)   0           dense_2_13_bn[0][0]              
__________________________________________________________________________________________________
dense_2_13_bottleneck_conv2D (C (None, 8, 8, 160)    235200      activation_153[0][0]             
__________________________________________________________________________________________________
dense_2_13_bottleneck_bn (Batch (None, 8, 8, 160)    640         dense_2_13_bottleneck_conv2D[0][0
__________________________________________________________________________________________________
activation_154 (Activation)     (None, 8, 8, 160)    0           dense_2_13_bottleneck_bn[0][0]   
__________________________________________________________________________________________________
dense_2_13_conv2D (Conv2D)      (None, 8, 8, 40)     57600       activation_154[0][0]             
__________________________________________________________________________________________________
concatenate_76 (Concatenate)    (None, 8, 8, 1510)   0           concatenate_75[0][0]             
                                                                 dense_2_13_conv2D[0][0]          
__________________________________________________________________________________________________
dense_2_14_bn (BatchNormalizati (None, 8, 8, 1510)   6040        concatenate_76[0][0]             
__________________________________________________________________________________________________
activation_155 (Activation)     (None, 8, 8, 1510)   0           dense_2_14_bn[0][0]              
__________________________________________________________________________________________________
dense_2_14_bottleneck_conv2D (C (None, 8, 8, 160)    241600      activation_155[0][0]             
__________________________________________________________________________________________________
dense_2_14_bottleneck_bn (Batch (None, 8, 8, 160)    640         dense_2_14_bottleneck_conv2D[0][0
__________________________________________________________________________________________________
activation_156 (Activation)     (None, 8, 8, 160)    0           dense_2_14_bottleneck_bn[0][0]   
__________________________________________________________________________________________________
dense_2_14_conv2D (Conv2D)      (None, 8, 8, 40)     57600       activation_156[0][0]             
__________________________________________________________________________________________________
concatenate_77 (Concatenate)    (None, 8, 8, 1550)   0           concatenate_76[0][0]             
                                                                 dense_2_14_conv2D[0][0]          
__________________________________________________________________________________________________
dense_2_15_bn (BatchNormalizati (None, 8, 8, 1550)   6200        concatenate_77[0][0]             
__________________________________________________________________________________________________
activation_157 (Activation)     (None, 8, 8, 1550)   0           dense_2_15_bn[0][0]              
__________________________________________________________________________________________________
dense_2_15_bottleneck_conv2D (C (None, 8, 8, 160)    248000      activation_157[0][0]             
__________________________________________________________________________________________________
dense_2_15_bottleneck_bn (Batch (None, 8, 8, 160)    640         dense_2_15_bottleneck_conv2D[0][0
__________________________________________________________________________________________________
activation_158 (Activation)     (None, 8, 8, 160)    0           dense_2_15_bottleneck_bn[0][0]   
__________________________________________________________________________________________________
dense_2_15_conv2D (Conv2D)      (None, 8, 8, 40)     57600       activation_158[0][0]             
__________________________________________________________________________________________________
concatenate_78 (Concatenate)    (None, 8, 8, 1590)   0           concatenate_77[0][0]             
                                                                 dense_2_15_conv2D[0][0]          
__________________________________________________________________________________________________
dense_2_16_bn (BatchNormalizati (None, 8, 8, 1590)   6360        concatenate_78[0][0]             
__________________________________________________________________________________________________
activation_159 (Activation)     (None, 8, 8, 1590)   0           dense_2_16_bn[0][0]              
__________________________________________________________________________________________________
dense_2_16_bottleneck_conv2D (C (None, 8, 8, 160)    254400      activation_159[0][0]             
__________________________________________________________________________________________________
dense_2_16_bottleneck_bn (Batch (None, 8, 8, 160)    640         dense_2_16_bottleneck_conv2D[0][0
__________________________________________________________________________________________________
activation_160 (Activation)     (None, 8, 8, 160)    0           dense_2_16_bottleneck_bn[0][0]   
__________________________________________________________________________________________________
dense_2_16_conv2D (Conv2D)      (None, 8, 8, 40)     57600       activation_160[0][0]             
__________________________________________________________________________________________________
concatenate_79 (Concatenate)    (None, 8, 8, 1630)   0           concatenate_78[0][0]             
                                                                 dense_2_16_conv2D[0][0]          
__________________________________________________________________________________________________
dense_2_17_bn (BatchNormalizati (None, 8, 8, 1630)   6520        concatenate_79[0][0]             
__________________________________________________________________________________________________
activation_161 (Activation)     (None, 8, 8, 1630)   0           dense_2_17_bn[0][0]              
__________________________________________________________________________________________________
dense_2_17_bottleneck_conv2D (C (None, 8, 8, 160)    260800      activation_161[0][0]             
__________________________________________________________________________________________________
dense_2_17_bottleneck_bn (Batch (None, 8, 8, 160)    640         dense_2_17_bottleneck_conv2D[0][0
__________________________________________________________________________________________________
activation_162 (Activation)     (None, 8, 8, 160)    0           dense_2_17_bottleneck_bn[0][0]   
__________________________________________________________________________________________________
dense_2_17_conv2D (Conv2D)      (None, 8, 8, 40)     57600       activation_162[0][0]             
__________________________________________________________________________________________________
concatenate_80 (Concatenate)    (None, 8, 8, 1670)   0           concatenate_79[0][0]             
                                                                 dense_2_17_conv2D[0][0]          
__________________________________________________________________________________________________
dense_2_18_bn (BatchNormalizati (None, 8, 8, 1670)   6680        concatenate_80[0][0]             
__________________________________________________________________________________________________
activation_163 (Activation)     (None, 8, 8, 1670)   0           dense_2_18_bn[0][0]              
__________________________________________________________________________________________________
dense_2_18_bottleneck_conv2D (C (None, 8, 8, 160)    267200      activation_163[0][0]             
__________________________________________________________________________________________________
dense_2_18_bottleneck_bn (Batch (None, 8, 8, 160)    640         dense_2_18_bottleneck_conv2D[0][0
__________________________________________________________________________________________________
activation_164 (Activation)     (None, 8, 8, 160)    0           dense_2_18_bottleneck_bn[0][0]   
__________________________________________________________________________________________________
dense_2_18_conv2D (Conv2D)      (None, 8, 8, 40)     57600       activation_164[0][0]             
__________________________________________________________________________________________________
concatenate_81 (Concatenate)    (None, 8, 8, 1710)   0           concatenate_80[0][0]             
                                                                 dense_2_18_conv2D[0][0]          
__________________________________________________________________________________________________
dense_2_19_bn (BatchNormalizati (None, 8, 8, 1710)   6840        concatenate_81[0][0]             
__________________________________________________________________________________________________
activation_165 (Activation)     (None, 8, 8, 1710)   0           dense_2_19_bn[0][0]              
__________________________________________________________________________________________________
dense_2_19_bottleneck_conv2D (C (None, 8, 8, 160)    273600      activation_165[0][0]             
__________________________________________________________________________________________________
dense_2_19_bottleneck_bn (Batch (None, 8, 8, 160)    640         dense_2_19_bottleneck_conv2D[0][0
__________________________________________________________________________________________________
activation_166 (Activation)     (None, 8, 8, 160)    0           dense_2_19_bottleneck_bn[0][0]   
__________________________________________________________________________________________________
dense_2_19_conv2D (Conv2D)      (None, 8, 8, 40)     57600       activation_166[0][0]             
__________________________________________________________________________________________________
concatenate_82 (Concatenate)    (None, 8, 8, 1750)   0           concatenate_81[0][0]             
                                                                 dense_2_19_conv2D[0][0]          
__________________________________________________________________________________________________
dense_2_20_bn (BatchNormalizati (None, 8, 8, 1750)   7000        concatenate_82[0][0]             
__________________________________________________________________________________________________
activation_167 (Activation)     (None, 8, 8, 1750)   0           dense_2_20_bn[0][0]              
__________________________________________________________________________________________________
dense_2_20_bottleneck_conv2D (C (None, 8, 8, 160)    280000      activation_167[0][0]             
__________________________________________________________________________________________________
dense_2_20_bottleneck_bn (Batch (None, 8, 8, 160)    640         dense_2_20_bottleneck_conv2D[0][0
__________________________________________________________________________________________________
activation_168 (Activation)     (None, 8, 8, 160)    0           dense_2_20_bottleneck_bn[0][0]   
__________________________________________________________________________________________________
dense_2_20_conv2D (Conv2D)      (None, 8, 8, 40)     57600       activation_168[0][0]             
__________________________________________________________________________________________________
concatenate_83 (Concatenate)    (None, 8, 8, 1790)   0           concatenate_82[0][0]             
                                                                 dense_2_20_conv2D[0][0]          
__________________________________________________________________________________________________
dense_2_21_bn (BatchNormalizati (None, 8, 8, 1790)   7160        concatenate_83[0][0]             
__________________________________________________________________________________________________
activation_169 (Activation)     (None, 8, 8, 1790)   0           dense_2_21_bn[0][0]              
__________________________________________________________________________________________________
dense_2_21_bottleneck_conv2D (C (None, 8, 8, 160)    286400      activation_169[0][0]             
__________________________________________________________________________________________________
dense_2_21_bottleneck_bn (Batch (None, 8, 8, 160)    640         dense_2_21_bottleneck_conv2D[0][0
__________________________________________________________________________________________________
activation_170 (Activation)     (None, 8, 8, 160)    0           dense_2_21_bottleneck_bn[0][0]   
__________________________________________________________________________________________________
dense_2_21_conv2D (Conv2D)      (None, 8, 8, 40)     57600       activation_170[0][0]             
__________________________________________________________________________________________________
concatenate_84 (Concatenate)    (None, 8, 8, 1830)   0           concatenate_83[0][0]             
                                                                 dense_2_21_conv2D[0][0]          
__________________________________________________________________________________________________
dense_2_22_bn (BatchNormalizati (None, 8, 8, 1830)   7320        concatenate_84[0][0]             
__________________________________________________________________________________________________
activation_171 (Activation)     (None, 8, 8, 1830)   0           dense_2_22_bn[0][0]              
__________________________________________________________________________________________________
dense_2_22_bottleneck_conv2D (C (None, 8, 8, 160)    292800      activation_171[0][0]             
__________________________________________________________________________________________________
dense_2_22_bottleneck_bn (Batch (None, 8, 8, 160)    640         dense_2_22_bottleneck_conv2D[0][0
__________________________________________________________________________________________________
activation_172 (Activation)     (None, 8, 8, 160)    0           dense_2_22_bottleneck_bn[0][0]   
__________________________________________________________________________________________________
dense_2_22_conv2D (Conv2D)      (None, 8, 8, 40)     57600       activation_172[0][0]             
__________________________________________________________________________________________________
concatenate_85 (Concatenate)    (None, 8, 8, 1870)   0           concatenate_84[0][0]             
                                                                 dense_2_22_conv2D[0][0]          
__________________________________________________________________________________________________
dense_2_23_bn (BatchNormalizati (None, 8, 8, 1870)   7480        concatenate_85[0][0]             
__________________________________________________________________________________________________
activation_173 (Activation)     (None, 8, 8, 1870)   0           dense_2_23_bn[0][0]              
__________________________________________________________________________________________________
dense_2_23_bottleneck_conv2D (C (None, 8, 8, 160)    299200      activation_173[0][0]             
__________________________________________________________________________________________________
dense_2_23_bottleneck_bn (Batch (None, 8, 8, 160)    640         dense_2_23_bottleneck_conv2D[0][0
__________________________________________________________________________________________________
activation_174 (Activation)     (None, 8, 8, 160)    0           dense_2_23_bottleneck_bn[0][0]   
__________________________________________________________________________________________________
dense_2_23_conv2D (Conv2D)      (None, 8, 8, 40)     57600       activation_174[0][0]             
__________________________________________________________________________________________________
concatenate_86 (Concatenate)    (None, 8, 8, 1910)   0           concatenate_85[0][0]             
                                                                 dense_2_23_conv2D[0][0]          
__________________________________________________________________________________________________
dense_2_24_bn (BatchNormalizati (None, 8, 8, 1910)   7640        concatenate_86[0][0]             
__________________________________________________________________________________________________
activation_175 (Activation)     (None, 8, 8, 1910)   0           dense_2_24_bn[0][0]              
__________________________________________________________________________________________________
dense_2_24_bottleneck_conv2D (C (None, 8, 8, 160)    305600      activation_175[0][0]             
__________________________________________________________________________________________________
dense_2_24_bottleneck_bn (Batch (None, 8, 8, 160)    640         dense_2_24_bottleneck_conv2D[0][0
__________________________________________________________________________________________________
activation_176 (Activation)     (None, 8, 8, 160)    0           dense_2_24_bottleneck_bn[0][0]   
__________________________________________________________________________________________________
dense_2_24_conv2D (Conv2D)      (None, 8, 8, 40)     57600       activation_176[0][0]             
__________________________________________________________________________________________________
concatenate_87 (Concatenate)    (None, 8, 8, 1950)   0           concatenate_86[0][0]             
                                                                 dense_2_24_conv2D[0][0]          
__________________________________________________________________________________________________
dense_2_25_bn (BatchNormalizati (None, 8, 8, 1950)   7800        concatenate_87[0][0]             
__________________________________________________________________________________________________
activation_177 (Activation)     (None, 8, 8, 1950)   0           dense_2_25_bn[0][0]              
__________________________________________________________________________________________________
dense_2_25_bottleneck_conv2D (C (None, 8, 8, 160)    312000      activation_177[0][0]             
__________________________________________________________________________________________________
dense_2_25_bottleneck_bn (Batch (None, 8, 8, 160)    640         dense_2_25_bottleneck_conv2D[0][0
__________________________________________________________________________________________________
activation_178 (Activation)     (None, 8, 8, 160)    0           dense_2_25_bottleneck_bn[0][0]   
__________________________________________________________________________________________________
dense_2_25_conv2D (Conv2D)      (None, 8, 8, 40)     57600       activation_178[0][0]             
__________________________________________________________________________________________________
concatenate_88 (Concatenate)    (None, 8, 8, 1990)   0           concatenate_87[0][0]             
                                                                 dense_2_25_conv2D[0][0]          
__________________________________________________________________________________________________
dense_2_26_bn (BatchNormalizati (None, 8, 8, 1990)   7960        concatenate_88[0][0]             
__________________________________________________________________________________________________
activation_179 (Activation)     (None, 8, 8, 1990)   0           dense_2_26_bn[0][0]              
__________________________________________________________________________________________________
dense_2_26_bottleneck_conv2D (C (None, 8, 8, 160)    318400      activation_179[0][0]             
__________________________________________________________________________________________________
dense_2_26_bottleneck_bn (Batch (None, 8, 8, 160)    640         dense_2_26_bottleneck_conv2D[0][0
__________________________________________________________________________________________________
activation_180 (Activation)     (None, 8, 8, 160)    0           dense_2_26_bottleneck_bn[0][0]   
__________________________________________________________________________________________________
dense_2_26_conv2D (Conv2D)      (None, 8, 8, 40)     57600       activation_180[0][0]             
__________________________________________________________________________________________________
concatenate_89 (Concatenate)    (None, 8, 8, 2030)   0           concatenate_88[0][0]             
                                                                 dense_2_26_conv2D[0][0]          
__________________________________________________________________________________________________
dense_2_27_bn (BatchNormalizati (None, 8, 8, 2030)   8120        concatenate_89[0][0]             
__________________________________________________________________________________________________
activation_181 (Activation)     (None, 8, 8, 2030)   0           dense_2_27_bn[0][0]              
__________________________________________________________________________________________________
dense_2_27_bottleneck_conv2D (C (None, 8, 8, 160)    324800      activation_181[0][0]             
__________________________________________________________________________________________________
dense_2_27_bottleneck_bn (Batch (None, 8, 8, 160)    640         dense_2_27_bottleneck_conv2D[0][0
__________________________________________________________________________________________________
activation_182 (Activation)     (None, 8, 8, 160)    0           dense_2_27_bottleneck_bn[0][0]   
__________________________________________________________________________________________________
dense_2_27_conv2D (Conv2D)      (None, 8, 8, 40)     57600       activation_182[0][0]             
__________________________________________________________________________________________________
concatenate_90 (Concatenate)    (None, 8, 8, 2070)   0           concatenate_89[0][0]             
                                                                 dense_2_27_conv2D[0][0]          
__________________________________________________________________________________________________
dense_2_28_bn (BatchNormalizati (None, 8, 8, 2070)   8280        concatenate_90[0][0]             
__________________________________________________________________________________________________
activation_183 (Activation)     (None, 8, 8, 2070)   0           dense_2_28_bn[0][0]              
__________________________________________________________________________________________________
dense_2_28_bottleneck_conv2D (C (None, 8, 8, 160)    331200      activation_183[0][0]             
__________________________________________________________________________________________________
dense_2_28_bottleneck_bn (Batch (None, 8, 8, 160)    640         dense_2_28_bottleneck_conv2D[0][0
__________________________________________________________________________________________________
activation_184 (Activation)     (None, 8, 8, 160)    0           dense_2_28_bottleneck_bn[0][0]   
__________________________________________________________________________________________________
dense_2_28_conv2D (Conv2D)      (None, 8, 8, 40)     57600       activation_184[0][0]             
__________________________________________________________________________________________________
concatenate_91 (Concatenate)    (None, 8, 8, 2110)   0           concatenate_90[0][0]             
                                                                 dense_2_28_conv2D[0][0]          
__________________________________________________________________________________________________
dense_2_29_bn (BatchNormalizati (None, 8, 8, 2110)   8440        concatenate_91[0][0]             
__________________________________________________________________________________________________
activation_185 (Activation)     (None, 8, 8, 2110)   0           dense_2_29_bn[0][0]              
__________________________________________________________________________________________________
dense_2_29_bottleneck_conv2D (C (None, 8, 8, 160)    337600      activation_185[0][0]             
__________________________________________________________________________________________________
dense_2_29_bottleneck_bn (Batch (None, 8, 8, 160)    640         dense_2_29_bottleneck_conv2D[0][0
__________________________________________________________________________________________________
activation_186 (Activation)     (None, 8, 8, 160)    0           dense_2_29_bottleneck_bn[0][0]   
__________________________________________________________________________________________________
dense_2_29_conv2D (Conv2D)      (None, 8, 8, 40)     57600       activation_186[0][0]             
__________________________________________________________________________________________________
concatenate_92 (Concatenate)    (None, 8, 8, 2150)   0           concatenate_91[0][0]             
                                                                 dense_2_29_conv2D[0][0]          
__________________________________________________________________________________________________
dense_2_30_bn (BatchNormalizati (None, 8, 8, 2150)   8600        concatenate_92[0][0]             
__________________________________________________________________________________________________
activation_187 (Activation)     (None, 8, 8, 2150)   0           dense_2_30_bn[0][0]              
__________________________________________________________________________________________________
dense_2_30_bottleneck_conv2D (C (None, 8, 8, 160)    344000      activation_187[0][0]             
__________________________________________________________________________________________________
dense_2_30_bottleneck_bn (Batch (None, 8, 8, 160)    640         dense_2_30_bottleneck_conv2D[0][0
__________________________________________________________________________________________________
activation_188 (Activation)     (None, 8, 8, 160)    0           dense_2_30_bottleneck_bn[0][0]   
__________________________________________________________________________________________________
dense_2_30_conv2D (Conv2D)      (None, 8, 8, 40)     57600       activation_188[0][0]             
__________________________________________________________________________________________________
concatenate_93 (Concatenate)    (None, 8, 8, 2190)   0           concatenate_92[0][0]             
                                                                 dense_2_30_conv2D[0][0]          
__________________________________________________________________________________________________
final_bn (BatchNormalization)   (None, 8, 8, 2190)   8760        concatenate_93[0][0]             
__________________________________________________________________________________________________
activation_189 (Activation)     (None, 8, 8, 2190)   0           final_bn[0][0]                   
__________________________________________________________________________________________________
global_average_pooling2d_1 (Glo (None, 2190)         0           activation_189[0][0]             
__________________________________________________________________________________________________
dense_1 (Dense)                 (None, 100)          219100      global_average_pooling2d_1[0][0] 
==================================================================================================
Total params: 26,078,580
Trainable params: 25,821,620
Non-trainable params: 256,960
__________________________________________________________________________________________________
network depth: 190
Test loss:     1.1046217527985573
Test accuracy: 0.8300999957621098
…
