____________________________________________________________________________________________________
Layer (type)                     Output Shape          Param #     Connected to                     
====================================================================================================
input_1 (InputLayer)             (None, 64, 64, 3)     0                                            
____________________________________________________________________________________________________
start_cifar100_conv (Conv2D)     (None, 64, 64, 32)    864         input_1[0][0]                    
____________________________________________________________________________________________________
start_cifar100_bn (BatchNormaliz (None, 64, 64, 32)    128         start_cifar100_conv[0][0]        
____________________________________________________________________________________________________
start_cifar100_act (ELU)         (None, 64, 64, 32)    0           start_cifar100_bn[0][0]          
____________________________________________________________________________________________________
stage1_block_b0_c1_conv (Conv2D) (None, 64, 64, 8)     2304        start_cifar100_act[0][0]         
____________________________________________________________________________________________________
stage1_block_b0_c1_bn (BatchNorm (None, 64, 64, 8)     32          stage1_block_b0_c1_conv[0][0]    
____________________________________________________________________________________________________
stage1_block_b0_c1_act (ELU)     (None, 64, 64, 8)     0           stage1_block_b0_c1_bn[0][0]      
____________________________________________________________________________________________________
stage1_block_b0_drop (Dropout)   (None, 64, 64, 8)     0           stage1_block_b0_c1_act[0][0]     
____________________________________________________________________________________________________
stage1_block_b0_c2_conv (Conv2D) (None, 64, 64, 8)     576         stage1_block_b0_drop[0][0]       
____________________________________________________________________________________________________
stage1_block_b0_c2_bn (BatchNorm (None, 64, 64, 8)     32          stage1_block_b0_c2_conv[0][0]    
____________________________________________________________________________________________________
stage1_block_b0_c2_act (ELU)     (None, 64, 64, 8)     0           stage1_block_b0_c2_bn[0][0]      
____________________________________________________________________________________________________
concatenate_1 (Concatenate)      (None, 64, 64, 40)    0           start_cifar100_act[0][0]         
                                                                   stage1_block_b0_c2_act[0][0]     
____________________________________________________________________________________________________
stage1_block_b1_c1_conv (Conv2D) (None, 64, 64, 8)     2880        concatenate_1[0][0]              
____________________________________________________________________________________________________
stage1_block_b1_c1_bn (BatchNorm (None, 64, 64, 8)     32          stage1_block_b1_c1_conv[0][0]    
____________________________________________________________________________________________________
stage1_block_b1_c1_act (ELU)     (None, 64, 64, 8)     0           stage1_block_b1_c1_bn[0][0]      
____________________________________________________________________________________________________
stage1_block_b1_drop (Dropout)   (None, 64, 64, 8)     0           stage1_block_b1_c1_act[0][0]     
____________________________________________________________________________________________________
stage1_block_b1_c2_conv (Conv2D) (None, 64, 64, 8)     576         stage1_block_b1_drop[0][0]       
____________________________________________________________________________________________________
stage1_block_b1_c2_bn (BatchNorm (None, 64, 64, 8)     32          stage1_block_b1_c2_conv[0][0]    
____________________________________________________________________________________________________
stage1_block_b1_c2_act (ELU)     (None, 64, 64, 8)     0           stage1_block_b1_c2_bn[0][0]      
____________________________________________________________________________________________________
concatenate_2 (Concatenate)      (None, 64, 64, 48)    0           concatenate_1[0][0]              
                                                                   stage1_block_b1_c2_act[0][0]     
____________________________________________________________________________________________________
stage1_block_b2_c1_conv (Conv2D) (None, 64, 64, 8)     3456        concatenate_2[0][0]              
____________________________________________________________________________________________________
stage1_block_b2_c1_bn (BatchNorm (None, 64, 64, 8)     32          stage1_block_b2_c1_conv[0][0]    
____________________________________________________________________________________________________
stage1_block_b2_c1_act (ELU)     (None, 64, 64, 8)     0           stage1_block_b2_c1_bn[0][0]      
____________________________________________________________________________________________________
stage1_block_b2_drop (Dropout)   (None, 64, 64, 8)     0           stage1_block_b2_c1_act[0][0]     
____________________________________________________________________________________________________
stage1_block_b2_c2_conv (Conv2D) (None, 64, 64, 8)     576         stage1_block_b2_drop[0][0]       
____________________________________________________________________________________________________
stage1_block_b2_c2_bn (BatchNorm (None, 64, 64, 8)     32          stage1_block_b2_c2_conv[0][0]    
____________________________________________________________________________________________________
stage1_block_b2_c2_act (ELU)     (None, 64, 64, 8)     0           stage1_block_b2_c2_bn[0][0]      
____________________________________________________________________________________________________
concatenate_3 (Concatenate)      (None, 64, 64, 56)    0           concatenate_2[0][0]              
                                                                   stage1_block_b2_c2_act[0][0]     
____________________________________________________________________________________________________
stage1_block_b3_c1_conv (Conv2D) (None, 64, 64, 8)     4032        concatenate_3[0][0]              
____________________________________________________________________________________________________
stage1_block_b3_c1_bn (BatchNorm (None, 64, 64, 8)     32          stage1_block_b3_c1_conv[0][0]    
____________________________________________________________________________________________________
stage1_block_b3_c1_act (ELU)     (None, 64, 64, 8)     0           stage1_block_b3_c1_bn[0][0]      
____________________________________________________________________________________________________
stage1_block_b3_drop (Dropout)   (None, 64, 64, 8)     0           stage1_block_b3_c1_act[0][0]     
____________________________________________________________________________________________________
stage1_block_b3_c2_conv (Conv2D) (None, 64, 64, 8)     576         stage1_block_b3_drop[0][0]       
____________________________________________________________________________________________________
stage1_block_b3_c2_bn (BatchNorm (None, 64, 64, 8)     32          stage1_block_b3_c2_conv[0][0]    
____________________________________________________________________________________________________
stage1_block_b3_c2_act (ELU)     (None, 64, 64, 8)     0           stage1_block_b3_c2_bn[0][0]      
____________________________________________________________________________________________________
concatenate_4 (Concatenate)      (None, 64, 64, 64)    0           concatenate_3[0][0]              
                                                                   stage1_block_b3_c2_act[0][0]     
____________________________________________________________________________________________________
stage1_block_sq_conv (Conv2D)    (None, 64, 64, 64)    4096        concatenate_4[0][0]              
____________________________________________________________________________________________________
stage1_block_sq_bn (BatchNormali (None, 64, 64, 64)    256         stage1_block_sq_conv[0][0]       
____________________________________________________________________________________________________
stage1_block_sq_act (ELU)        (None, 64, 64, 64)    0           stage1_block_sq_bn[0][0]         
____________________________________________________________________________________________________
stage1_ds_pool (AveragePooling2D (None, 32, 32, 64)    0           stage1_block_sq_act[0][0]        
____________________________________________________________________________________________________
stage2_block_b0_c1_conv (Conv2D) (None, 32, 32, 16)    9216        stage1_ds_pool[0][0]             
____________________________________________________________________________________________________
stage2_block_b0_c1_bn (BatchNorm (None, 32, 32, 16)    64          stage2_block_b0_c1_conv[0][0]    
____________________________________________________________________________________________________
stage2_block_b0_c1_act (ELU)     (None, 32, 32, 16)    0           stage2_block_b0_c1_bn[0][0]      
____________________________________________________________________________________________________
stage2_block_b0_drop (Dropout)   (None, 32, 32, 16)    0           stage2_block_b0_c1_act[0][0]     
____________________________________________________________________________________________________
stage2_block_b0_c2_conv (Conv2D) (None, 32, 32, 16)    2304        stage2_block_b0_drop[0][0]       
____________________________________________________________________________________________________
stage2_block_b0_c2_bn (BatchNorm (None, 32, 32, 16)    64          stage2_block_b0_c2_conv[0][0]    
____________________________________________________________________________________________________
stage2_block_b0_c2_act (ELU)     (None, 32, 32, 16)    0           stage2_block_b0_c2_bn[0][0]      
____________________________________________________________________________________________________
concatenate_5 (Concatenate)      (None, 32, 32, 80)    0           stage1_ds_pool[0][0]             
                                                                   stage2_block_b0_c2_act[0][0]     
____________________________________________________________________________________________________
stage2_block_b1_c1_conv (Conv2D) (None, 32, 32, 16)    11520       concatenate_5[0][0]              
____________________________________________________________________________________________________
stage2_block_b1_c1_bn (BatchNorm (None, 32, 32, 16)    64          stage2_block_b1_c1_conv[0][0]    
____________________________________________________________________________________________________
stage2_block_b1_c1_act (ELU)     (None, 32, 32, 16)    0           stage2_block_b1_c1_bn[0][0]      
____________________________________________________________________________________________________
stage2_block_b1_drop (Dropout)   (None, 32, 32, 16)    0           stage2_block_b1_c1_act[0][0]     
____________________________________________________________________________________________________
stage2_block_b1_c2_conv (Conv2D) (None, 32, 32, 16)    2304        stage2_block_b1_drop[0][0]       
____________________________________________________________________________________________________
stage2_block_b1_c2_bn (BatchNorm (None, 32, 32, 16)    64          stage2_block_b1_c2_conv[0][0]    
____________________________________________________________________________________________________
stage2_block_b1_c2_act (ELU)     (None, 32, 32, 16)    0           stage2_block_b1_c2_bn[0][0]      
____________________________________________________________________________________________________
concatenate_6 (Concatenate)      (None, 32, 32, 96)    0           concatenate_5[0][0]              
                                                                   stage2_block_b1_c2_act[0][0]     
____________________________________________________________________________________________________
stage2_block_b2_c1_conv (Conv2D) (None, 32, 32, 16)    13824       concatenate_6[0][0]              
____________________________________________________________________________________________________
stage2_block_b2_c1_bn (BatchNorm (None, 32, 32, 16)    64          stage2_block_b2_c1_conv[0][0]    
____________________________________________________________________________________________________
stage2_block_b2_c1_act (ELU)     (None, 32, 32, 16)    0           stage2_block_b2_c1_bn[0][0]      
____________________________________________________________________________________________________
stage2_block_b2_drop (Dropout)   (None, 32, 32, 16)    0           stage2_block_b2_c1_act[0][0]     
____________________________________________________________________________________________________
stage2_block_b2_c2_conv (Conv2D) (None, 32, 32, 16)    2304        stage2_block_b2_drop[0][0]       
____________________________________________________________________________________________________
stage2_block_b2_c2_bn (BatchNorm (None, 32, 32, 16)    64          stage2_block_b2_c2_conv[0][0]    
____________________________________________________________________________________________________
stage2_block_b2_c2_act (ELU)     (None, 32, 32, 16)    0           stage2_block_b2_c2_bn[0][0]      
____________________________________________________________________________________________________
concatenate_7 (Concatenate)      (None, 32, 32, 112)   0           concatenate_6[0][0]              
                                                                   stage2_block_b2_c2_act[0][0]     
____________________________________________________________________________________________________
stage2_block_b3_c1_conv (Conv2D) (None, 32, 32, 16)    16128       concatenate_7[0][0]              
____________________________________________________________________________________________________
stage2_block_b3_c1_bn (BatchNorm (None, 32, 32, 16)    64          stage2_block_b3_c1_conv[0][0]    
____________________________________________________________________________________________________
stage2_block_b3_c1_act (ELU)     (None, 32, 32, 16)    0           stage2_block_b3_c1_bn[0][0]      
____________________________________________________________________________________________________
stage2_block_b3_drop (Dropout)   (None, 32, 32, 16)    0           stage2_block_b3_c1_act[0][0]     
____________________________________________________________________________________________________
stage2_block_b3_c2_conv (Conv2D) (None, 32, 32, 16)    2304        stage2_block_b3_drop[0][0]       
____________________________________________________________________________________________________
stage2_block_b3_c2_bn (BatchNorm (None, 32, 32, 16)    64          stage2_block_b3_c2_conv[0][0]    
____________________________________________________________________________________________________
stage2_block_b3_c2_act (ELU)     (None, 32, 32, 16)    0           stage2_block_b3_c2_bn[0][0]      
____________________________________________________________________________________________________
concatenate_8 (Concatenate)      (None, 32, 32, 128)   0           concatenate_7[0][0]              
                                                                   stage2_block_b3_c2_act[0][0]     
____________________________________________________________________________________________________
stage2_block_sq_conv (Conv2D)    (None, 32, 32, 128)   16384       concatenate_8[0][0]              
____________________________________________________________________________________________________
stage2_block_sq_bn (BatchNormali (None, 32, 32, 128)   512         stage2_block_sq_conv[0][0]       
____________________________________________________________________________________________________
stage2_block_sq_act (ELU)        (None, 32, 32, 128)   0           stage2_block_sq_bn[0][0]         
____________________________________________________________________________________________________
stage2_ds_pool (AveragePooling2D (None, 16, 16, 128)   0           stage2_block_sq_act[0][0]        
____________________________________________________________________________________________________
stage3_block_b0_c1_conv (Conv2D) (None, 16, 16, 32)    36864       stage2_ds_pool[0][0]             
____________________________________________________________________________________________________
stage3_block_b0_c1_bn (BatchNorm (None, 16, 16, 32)    128         stage3_block_b0_c1_conv[0][0]    
____________________________________________________________________________________________________
stage3_block_b0_c1_act (ELU)     (None, 16, 16, 32)    0           stage3_block_b0_c1_bn[0][0]      
____________________________________________________________________________________________________
stage3_block_b0_drop (Dropout)   (None, 16, 16, 32)    0           stage3_block_b0_c1_act[0][0]     
____________________________________________________________________________________________________
stage3_block_b0_c2_conv (Conv2D) (None, 16, 16, 32)    9216        stage3_block_b0_drop[0][0]       
____________________________________________________________________________________________________
stage3_block_b0_c2_bn (BatchNorm (None, 16, 16, 32)    128         stage3_block_b0_c2_conv[0][0]    
____________________________________________________________________________________________________
stage3_block_b0_c2_act (ELU)     (None, 16, 16, 32)    0           stage3_block_b0_c2_bn[0][0]      
____________________________________________________________________________________________________
concatenate_9 (Concatenate)      (None, 16, 16, 160)   0           stage2_ds_pool[0][0]             
                                                                   stage3_block_b0_c2_act[0][0]     
____________________________________________________________________________________________________
stage3_block_b1_c1_conv (Conv2D) (None, 16, 16, 32)    46080       concatenate_9[0][0]              
____________________________________________________________________________________________________
stage3_block_b1_c1_bn (BatchNorm (None, 16, 16, 32)    128         stage3_block_b1_c1_conv[0][0]    
____________________________________________________________________________________________________
stage3_block_b1_c1_act (ELU)     (None, 16, 16, 32)    0           stage3_block_b1_c1_bn[0][0]      
____________________________________________________________________________________________________
stage3_block_b1_drop (Dropout)   (None, 16, 16, 32)    0           stage3_block_b1_c1_act[0][0]     
____________________________________________________________________________________________________
stage3_block_b1_c2_conv (Conv2D) (None, 16, 16, 32)    9216        stage3_block_b1_drop[0][0]       
____________________________________________________________________________________________________
stage3_block_b1_c2_bn (BatchNorm (None, 16, 16, 32)    128         stage3_block_b1_c2_conv[0][0]    
____________________________________________________________________________________________________
stage3_block_b1_c2_act (ELU)     (None, 16, 16, 32)    0           stage3_block_b1_c2_bn[0][0]      
____________________________________________________________________________________________________
concatenate_10 (Concatenate)     (None, 16, 16, 192)   0           concatenate_9[0][0]              
                                                                   stage3_block_b1_c2_act[0][0]     
____________________________________________________________________________________________________
stage3_block_b2_c1_conv (Conv2D) (None, 16, 16, 32)    55296       concatenate_10[0][0]             
____________________________________________________________________________________________________
stage3_block_b2_c1_bn (BatchNorm (None, 16, 16, 32)    128         stage3_block_b2_c1_conv[0][0]    
____________________________________________________________________________________________________
stage3_block_b2_c1_act (ELU)     (None, 16, 16, 32)    0           stage3_block_b2_c1_bn[0][0]      
____________________________________________________________________________________________________
stage3_block_b2_drop (Dropout)   (None, 16, 16, 32)    0           stage3_block_b2_c1_act[0][0]     
____________________________________________________________________________________________________
stage3_block_b2_c2_conv (Conv2D) (None, 16, 16, 32)    9216        stage3_block_b2_drop[0][0]       
____________________________________________________________________________________________________
stage3_block_b2_c2_bn (BatchNorm (None, 16, 16, 32)    128         stage3_block_b2_c2_conv[0][0]    
____________________________________________________________________________________________________
stage3_block_b2_c2_act (ELU)     (None, 16, 16, 32)    0           stage3_block_b2_c2_bn[0][0]      
____________________________________________________________________________________________________
concatenate_11 (Concatenate)     (None, 16, 16, 224)   0           concatenate_10[0][0]             
                                                                   stage3_block_b2_c2_act[0][0]     
____________________________________________________________________________________________________
stage3_block_b3_c1_conv (Conv2D) (None, 16, 16, 32)    64512       concatenate_11[0][0]             
____________________________________________________________________________________________________
stage3_block_b3_c1_bn (BatchNorm (None, 16, 16, 32)    128         stage3_block_b3_c1_conv[0][0]    
____________________________________________________________________________________________________
stage3_block_b3_c1_act (ELU)     (None, 16, 16, 32)    0           stage3_block_b3_c1_bn[0][0]      
____________________________________________________________________________________________________
stage3_block_b3_drop (Dropout)   (None, 16, 16, 32)    0           stage3_block_b3_c1_act[0][0]     
____________________________________________________________________________________________________
stage3_block_b3_c2_conv (Conv2D) (None, 16, 16, 32)    9216        stage3_block_b3_drop[0][0]       
____________________________________________________________________________________________________
stage3_block_b3_c2_bn (BatchNorm (None, 16, 16, 32)    128         stage3_block_b3_c2_conv[0][0]    
____________________________________________________________________________________________________
stage3_block_b3_c2_act (ELU)     (None, 16, 16, 32)    0           stage3_block_b3_c2_bn[0][0]      
____________________________________________________________________________________________________
concatenate_12 (Concatenate)     (None, 16, 16, 256)   0           concatenate_11[0][0]             
                                                                   stage3_block_b3_c2_act[0][0]     
____________________________________________________________________________________________________
stage3_block_sq_conv (Conv2D)    (None, 16, 16, 256)   65536       concatenate_12[0][0]             
____________________________________________________________________________________________________
stage3_block_sq_bn (BatchNormali (None, 16, 16, 256)   1024        stage3_block_sq_conv[0][0]       
____________________________________________________________________________________________________
stage3_block_sq_act (ELU)        (None, 16, 16, 256)   0           stage3_block_sq_bn[0][0]         
____________________________________________________________________________________________________
stage3_ds_pool (AveragePooling2D (None, 8, 8, 256)     0           stage3_block_sq_act[0][0]        
____________________________________________________________________________________________________
stage4_block_b0_c1_conv (Conv2D) (None, 8, 8, 64)      147456      stage3_ds_pool[0][0]             
____________________________________________________________________________________________________
stage4_block_b0_c1_bn (BatchNorm (None, 8, 8, 64)      256         stage4_block_b0_c1_conv[0][0]    
____________________________________________________________________________________________________
stage4_block_b0_c1_act (ELU)     (None, 8, 8, 64)      0           stage4_block_b0_c1_bn[0][0]      
____________________________________________________________________________________________________
stage4_block_b0_drop (Dropout)   (None, 8, 8, 64)      0           stage4_block_b0_c1_act[0][0]     
____________________________________________________________________________________________________
stage4_block_b0_c2_conv (Conv2D) (None, 8, 8, 64)      36864       stage4_block_b0_drop[0][0]       
____________________________________________________________________________________________________
stage4_block_b0_c2_bn (BatchNorm (None, 8, 8, 64)      256         stage4_block_b0_c2_conv[0][0]    
____________________________________________________________________________________________________
stage4_block_b0_c2_act (ELU)     (None, 8, 8, 64)      0           stage4_block_b0_c2_bn[0][0]      
____________________________________________________________________________________________________
concatenate_13 (Concatenate)     (None, 8, 8, 320)     0           stage3_ds_pool[0][0]             
                                                                   stage4_block_b0_c2_act[0][0]     
____________________________________________________________________________________________________
stage4_block_b1_c1_conv (Conv2D) (None, 8, 8, 64)      184320      concatenate_13[0][0]             
____________________________________________________________________________________________________
stage4_block_b1_c1_bn (BatchNorm (None, 8, 8, 64)      256         stage4_block_b1_c1_conv[0][0]    
____________________________________________________________________________________________________
stage4_block_b1_c1_act (ELU)     (None, 8, 8, 64)      0           stage4_block_b1_c1_bn[0][0]      
____________________________________________________________________________________________________
stage4_block_b1_drop (Dropout)   (None, 8, 8, 64)      0           stage4_block_b1_c1_act[0][0]     
____________________________________________________________________________________________________
stage4_block_b1_c2_conv (Conv2D) (None, 8, 8, 64)      36864       stage4_block_b1_drop[0][0]       
____________________________________________________________________________________________________
stage4_block_b1_c2_bn (BatchNorm (None, 8, 8, 64)      256         stage4_block_b1_c2_conv[0][0]    
____________________________________________________________________________________________________
stage4_block_b1_c2_act (ELU)     (None, 8, 8, 64)      0           stage4_block_b1_c2_bn[0][0]      
____________________________________________________________________________________________________
concatenate_14 (Concatenate)     (None, 8, 8, 384)     0           concatenate_13[0][0]             
                                                                   stage4_block_b1_c2_act[0][0]     
____________________________________________________________________________________________________
stage4_block_b2_c1_conv (Conv2D) (None, 8, 8, 64)      221184      concatenate_14[0][0]             
____________________________________________________________________________________________________
stage4_block_b2_c1_bn (BatchNorm (None, 8, 8, 64)      256         stage4_block_b2_c1_conv[0][0]    
____________________________________________________________________________________________________
stage4_block_b2_c1_act (ELU)     (None, 8, 8, 64)      0           stage4_block_b2_c1_bn[0][0]      
____________________________________________________________________________________________________
stage4_block_b2_drop (Dropout)   (None, 8, 8, 64)      0           stage4_block_b2_c1_act[0][0]     
____________________________________________________________________________________________________
stage4_block_b2_c2_conv (Conv2D) (None, 8, 8, 64)      36864       stage4_block_b2_drop[0][0]       
____________________________________________________________________________________________________
stage4_block_b2_c2_bn (BatchNorm (None, 8, 8, 64)      256         stage4_block_b2_c2_conv[0][0]    
____________________________________________________________________________________________________
stage4_block_b2_c2_act (ELU)     (None, 8, 8, 64)      0           stage4_block_b2_c2_bn[0][0]      
____________________________________________________________________________________________________
concatenate_15 (Concatenate)     (None, 8, 8, 448)     0           concatenate_14[0][0]             
                                                                   stage4_block_b2_c2_act[0][0]     
____________________________________________________________________________________________________
stage4_block_b3_c1_conv (Conv2D) (None, 8, 8, 64)      258048      concatenate_15[0][0]             
____________________________________________________________________________________________________
stage4_block_b3_c1_bn (BatchNorm (None, 8, 8, 64)      256         stage4_block_b3_c1_conv[0][0]    
____________________________________________________________________________________________________
stage4_block_b3_c1_act (ELU)     (None, 8, 8, 64)      0           stage4_block_b3_c1_bn[0][0]      
____________________________________________________________________________________________________
stage4_block_b3_drop (Dropout)   (None, 8, 8, 64)      0           stage4_block_b3_c1_act[0][0]     
____________________________________________________________________________________________________
stage4_block_b3_c2_conv (Conv2D) (None, 8, 8, 64)      36864       stage4_block_b3_drop[0][0]       
____________________________________________________________________________________________________
stage4_block_b3_c2_bn (BatchNorm (None, 8, 8, 64)      256         stage4_block_b3_c2_conv[0][0]    
____________________________________________________________________________________________________
stage4_block_b3_c2_act (ELU)     (None, 8, 8, 64)      0           stage4_block_b3_c2_bn[0][0]      
____________________________________________________________________________________________________
concatenate_16 (Concatenate)     (None, 8, 8, 512)     0           concatenate_15[0][0]             
                                                                   stage4_block_b3_c2_act[0][0]     
____________________________________________________________________________________________________
stage4_block_sq_conv (Conv2D)    (None, 8, 8, 512)     262144      concatenate_16[0][0]             
____________________________________________________________________________________________________
stage4_block_sq_bn (BatchNormali (None, 8, 8, 512)     2048        stage4_block_sq_conv[0][0]       
____________________________________________________________________________________________________
stage4_block_sq_act (ELU)        (None, 8, 8, 512)     0           stage4_block_sq_bn[0][0]         
____________________________________________________________________________________________________
stage4_ds_pool (AveragePooling2D (None, 4, 4, 512)     0           stage4_block_sq_act[0][0]        
____________________________________________________________________________________________________
last_cifar100_conv (Conv2D)      (None, 4, 4, 256)     131072      stage4_ds_pool[0][0]             
____________________________________________________________________________________________________
last_cifar100_bn (BatchNormaliza (None, 4, 4, 256)     1024        last_cifar100_conv[0][0]         
____________________________________________________________________________________________________
last_cifar100_act (ELU)          (None, 4, 4, 256)     0           last_cifar100_bn[0][0]           
____________________________________________________________________________________________________
global_average_pooling2d_1 (Glob (None, 256)           0           last_cifar100_act[0][0]          
____________________________________________________________________________________________________
dense_1 (Dense)                  (None, 100)           25700       global_average_pooling2d_1[0][0] 
====================================================================================================
Total params: 1,787,588
Trainable params: 1,783,172
Non-trainable params: 4,416
____________________________________________________________________________________________________
layer depth: 38
Test loss:     1.390460187792778
Test accuracy: 0.7037999725341797
…
